mobile_price_category_predict/model/mobile_price_class_predict.pth (torch, 149830 bytes, 6 tensors)

linear1.weight f4 [128, 20]
0.060475178 0.22160468 -0.14274602 -0.14820969 0.11769466 -0.18358877 -0.06090702 0.08549659
-0.054581277 0.10360697 -0.18197805 -0.18446986 -0.22353485 -0.0018788086 -0.09945315 -0.21117055
-0.116075076 0.100304276 0.028477553 0.09362879 -0.16212285 -0.054268777 0.12979239 0.03867966
-0.010965556 0.05268213 0.12621608 0.09207359 0.105528 -0.13831437 -0.21104302 -0.08224325
-0.10321185 -0.22141892 -0.13774624 -0.014568388 0.0926089 0.16307887 0.21970078 0.088174045
-0.020512328 -0.15565813 0.07611933 -0.2067929 0.07752538 -0.090960935 0.12532729 -0.013659447
-0.1113181 0.09978598 -0.026403606 -0.021733329 -0.054379106 -0.0046360195 -0.16278322 0.22089276
0.15620092 0.21158457 -0.12027465 -0.12848982 -0.18057875 0.1382038 -0.1374601 0.111039996
-0.0042710453 0.004229903 0.11267805 -0.11931434 -0.1483165 0.09214395 0.043513387 -0.12776795
-0.07548906 -0.024450004 -0.1337395 -0.104166426 -0.08529149 0.2227931 -0.20132354 0.1973353
0.14487395 -0.09192015 0.028207786 0.04980599 0.09518584 -0.13515688 -0.05855024 0.08532212
-0.17621197 0.022888245 0.01214562 -0.13211736 -0.09365147 -0.12643641 0.14169516 0.13225284
0.17830463 -0.05394617 0.08078116 0.08839936 -0.19794704 0.014122749 -0.1278829 0.13348761
-0.19744916 -0.21787487 -0.096530214 0.03125073 0.15898587 -0.07635907 -0.13630852 0.039219067
-0.07827992 0.028404923 -0.0119234305 0.14084011 0.20256323 0.18276556 -0.04730508 -0.2161916
-0.0067800987 0.12670428 0.12954266 0.11463733 -0.043459013 0.041721728 -0.2052818 -0.15588623
-0.12716387 -0.17533304 0.10869499 -0.004616146 0.080735005 -0.2233789 0.09901181 0.01173942
-0.15702656 0.10952123 -0.03394039 0.098611064 -0.2007788 -0.11485215 -0.11082879 0.011326306
-0.15857846 0.07496432 0.10088256 0.016616132 0.18034776 -0.074122496 0.19518162 0.14770739
-0.1595397 -0.17130877 0.19798821 -0.15533838 0.20959772 -0.12075429 0.048588287 0.18796463
-0.18480201 0.09639312 -0.10687764 -0.15055557 0.09110385 0.21685247 0.049030174 -0.17751819
0.11128398 0.1701028 -0.17246947 0.07863056 0.032597017 -0.11579868 -0.088817134 -0.074075766
-0.10314475 -0.034118302 -0.1327617 0.2039742 -0.08583933 -0.037094176 0.0062218904 -0.0003540516
0.09302306 0.06647551 -0.2212825 0.03992617 -0.0705062 -0.12786932 -0.15578978 -0.055804
0.0040505677 0.0077311248 0.021607175 -0.0139169395 -0.17545378 -0.09583853 0.008375153 -0.025385603
-0.20063226 -0.15799148 -0.056925725 0.092823654 0.11880217 -0.22010899 -0.11000415 0.1326459
-0.2212253 -0.0015246044 -0.05361127 0.03881615 0.020430468 0.004887044 -0.028814409 0.13197196
0.121168874 -0.06637748 0.22034216 -0.05605778 -0.23879038 0.11128873 -0.1377246 0.07567434
0.10196149 0.20217313 -0.16854826 -0.11992816 0.06606376 -0.2093784 0.037966352 0.09181811
0.07058863 -0.13533953 0.0007140218 -0.16891085 -0.10290975 0.21906833 0.1781433 -0.14836027
0.090178646 -0.106870554 -0.049879715 0.07545719 -0.16740713 0.039095532 0.02700772 -0.057635073
0.20502739 0.15848418 0.21953219 -0.014051023 -0.23286447 -0.17487973 0.08705539 -0.20112678
00000000: d2b4 773d 56ec 623e 032c 12be 48c4 17be
00000010: e609 f13d b2fe 3bbe a479 79bd d618 af3d
00000020: 9e90 5fbd e42f d43d 7458 3abe abe5 3cbe
00000030: 52e6 64be 5b42 f6ba 18ae cbbd 183d 58be
00000040: c5b8 edbd 546c cd3d c249 e93c 73c0 bf3d
00000050: 8803 26be f048 5ebd 4ce8 043e 906e 1e3d
00000060: e0a8 33bc 38c9 573d ca3e 013e 1491 bc3d
00000070: 101f d83d 48a2 0dbe a91b 58be 266f a8bd
00000080: bc60 d3bd a4bb 62be 5a0d 0dbe 40b0 6ebc
00000090: bca9 bd3d 26fe 263e 3ef9 603e 9894 b43d
000000a0: 7809 a8bc d864 1fbe 74e4 9b3d 85c1 53be
000000b0: a0c5 9e3d ba49 babd cc55 003e e0cb 5fbc
000000c0: befa e3bd 985c cc3d 604c d8bc 180a b2bc
000000d0: a0bc 5ebd c0e9 97bb a5b0 26be b631 623e
000000e0: 22f3 1f3e a0a9 583e 8e52 f6bd d692 03be
000000f0: a3e9 38be 4c85 0d3e 57c2 0cbe f068 e33d
00000100: 20f4 8bbb 009b 8a3b c0c3 e63d 145b f4bd
00000110: 48e0 17be f8b5 bc3d 183b 323d 9ad5 02be
00000120: 029a 9abd 604b c8bc 02f3 08be 3555 d5bd
00000130: 4ead aebd e023 643e c227 4ebe 4412 4a3e
00000140: d659 143e a240 bcbd 0414 e73c 5e01 4c3d
00000150: cbf0 c23d 9166 0abe 60d2 6fbd 5dbd ae3d
00000160: e970 34be 2180 bb3c 6cfe 463c c649 07be
00000170: 58cc bfbd 8c78 01be 8918 113e 4a6d 073e
00000180: 7d95 363e a9f6 5cbd 9870 a53d b90a b53d
00000190: a1b2 4abe 1a63 673c bcf3 02be fab0 083e
000001a0: 1d30 4abe 971a 5fbe a2b1 c5bd c400 003d
000001b0: 31cd 223e 2562 9cbd 7694 0bbe 2ca4 203d
000001c0: 3951 a0bd 71b1 e83c 7e5a 43bc 6438 103e
000001d0: bc6c 4f3e e526 3b3e f9c2 41bd 5561 5dbe
000001e0: 972b debb c4be 013e d5a6 043e fac6 ea3d
000001f0: 1402 32bd 67e4 2a3d 6435 52be a4a0 1fbe
00000200: 3f37 02be 818a 33be 7b9b de3d 0a43 97bb
00000210: 6558 a53d 70bd 64be b4c6 ca3d b256 403c
00000220: 92cb 20be ab4c e03d 1405 0bbd 99f4 c93d
00000230: f598 4dbe 9b37 ebbd 34fa e2bd f891 393c
00000240: 6462 22be e586 993d 849b ce3d 8e1e 883c
00000250: 15ad 383e 89cd 97bd b1dd 473e 9b40 173e
00000260: 605e 23be 916b 2fbe 6cbd 4a3e 0611 1fbe
00000270: c9a0 563e 064e f7bd 8304 473d cd79 403e
00000280: bd3c 3dbe c269 c53d aae2 dabd 3d2b 1abe
00000290: a894 ba3d 930e 5e3e ddd3 483d 54c7 35be
000002a0: dbe8 e33d 6e2f 2e3e d69b 30be 0f09 a13d
000002b0: 7384 053d dc27 edbd c2e5 b5bd 09b5 97bd
000002c0: 8e3d d3bd a2bf 0bbd aff2 07be 9dde 503e
000002d0: 88cc afbd 10f0 17bd 00e1 cb3b 00a0 b9b9
000002e0: e082 be3d 5024 883d e197 62be a089 233d
000002f0: 8e65 90bd 2df0 02be 5b87 1fbe bc92 64bd
00000300: a0ba 843b 6055 fd3b 8801 b13c e003 64bc
00000310: 28aa 33be fe46 c4bd f037 093c 78f5 cfbc
00000320: 8b72 4dbe 85c8 21be f32a 69bd 541a be3d
00000330: 8d4e f33d 4064 61be db49 e1bd 54d4 073e
00000340: e388 62be 3cd5 c7ba 7e97 5bbd affd 1e3d
00000350: cc5d a73c 7f23 a03b 320c ecbc a823 073e
00000360: 6327 f83d ebf0 87bd 60a1 613e d89c 65bd
00000370: 7785 74be 58eb e33d ad07 0dbe 26fb 9a3d
00000380: 30d1 d03d 7906 4f3e ea97 2cbe e59c f5bd
00000390: 704c 873d 4b67 56be 9b82 1b3d 220b bc3d
000003a0: c690 903d 7296 0abe 312d 3b3a f7f6 2cbe
000003b0: 59c2 d2bd 7353 603e 326b 363e c1eb 17be
000003c0: 95af b83d f3de dabd ac4e 4cbd 4d89 9a3d
000003d0: c66c 2bbe a322 203d 4b3f dd3c c112 6cbd
000003e0: b3f2 513e ad49 223e 0ccd 603e 4336 66bc
000003f0: 0674 6ebe ac13 33be 194a b23d 2ef4 4dbe

linear1.bias f4 [128]
-0.21872483 -0.22248389 0.08318582 -0.044059396 0.039247558 0.003727906 -0.1285207 -0.067586035
0.005579196 -0.008612528 0.2067086 0.046528816 0.15275574 -0.16268955 0.22339085 -0.09631965
0.09341526 -0.05166989 0.095660254 -0.041556284 -0.041852683 0.04156437 0.15559211 -0.1483201
-0.1076009 0.1677312 -0.053513914 -0.059696287 -0.19443108 -0.18694727 0.19991954 -0.028901778
0.1317042 -0.17309359 -0.20589462 0.1928778 0.19395527 0.0055063716 0.1895979 0.1841634
0.0714946 -0.0008797808 0.055538032 -0.17804448 0.14282575 -0.11433727 -0.061919298 -0.19265558
-0.07471642 0.16425061 0.089296676 -0.034873858 0.02511917 -0.13438085 -0.031361997 0.116998464
0.055460215 -0.078906916 -0.18781126 -0.085101455 -0.024403261 0.038163334 0.001817923 -0.07636082
0.078238234 -0.033975028 -0.00089995 0.1267417 -0.16497296 0.062917255 0.008692443 -0.21856667
-0.03646674 -0.09203088 0.029833615 0.17390746 0.062628984 -0.054765247 0.2102969 0.0035438929
-0.18379928 0.20897572 0.005261826 0.15747434 -0.13538656 0.17526709 0.0047306465 0.17301199
-0.18381694 0.06655911 -0.07081632 -0.16240418 -0.007385217 -0.083747275 -0.028941331 0.20357925
-0.021231921 0.12639685 0.17121422 0.07638187 -0.05388556 0.0853527 -0.16717835 -0.117435604
0.17296346 0.14616057 -0.12819967 0.054222822 0.100580886 0.15068865 0.05606861 0.18150279
-0.15473942 -0.045846224 -0.122104235 -0.06531376 -0.0067912787 0.20062244 0.098749615 0.18510012
-0.18772046 -0.079817854 0.02760884 -0.08952424 -0.14059815 -0.12640077 -0.18814433 0.05970461
00000000: 67f9 5fbe d1d2 63be 545d aa3d a077 34bd
00000010: 0cc2 203d e24f 743b ee9a 03be 8c6a 8abd
00000020: b0d1 b63b 901b 0dbc 6bab 533e 0095 3e3d
00000030: 006c 1c3e 1798 26be 92c0 643e 3d43 c5bd
00000040: 8050 bf3d cea3 53bd 86e9 c33d ec36 2abd
00000050: b86d 2bbd 673f 2a3d 8a53 1f3e 39e1 17be
00000060: dc5d dcbd bac1 2b3e 6831 5bbd 1884 74bd
00000070: f118 47be 1b6f 3fbe b5b7 4c3e 6cc3 ecbc
00000080: 77dd 063e 723f 31be 0ad6 52be c281 453e
00000090: 369c 463e cb6e b43b f425 423e 5595 3c3e
000000a0: c36b 923d 17a1 66ba d97b 633d 4b51 36be
000000b0: ea40 123e a929 eabd 179f 7dbd 8147 45be
000000c0: ec04 99bd 5031 283e 2de1 b63d e4d7 0ebd
000000d0: b8c6 cd3c 229b 09be 7075 00bd e49c ef3d
000000e0: 402a 633d f399 a1bd 9851 40be ac49 aebd
000000f0: 59e9 c7bc 2851 1c3d 6047 ee3a 1063 9cbd
00000100: 5e3b a03d 6629 0bbd 9fea 6bba 94c8 013e
00000110: acee 28be c3da 803d c06a 0e3c f1cf 5fbe
00000120: 265e 15bd b07a bcbd a065 f43c cc14 323e
00000130: a043 803d 8651 60bd 1258 573e a840 683b
00000140: e135 3cbe bbfd 553e 656b ac3b f440 213e
00000150: c6a2 0abe 3779 333e 8a03 9b3b 0e2a 313e
00000160: 823a 3cbe 2550 883d 2608 91bd 484d 26be
00000170: b1ff f1bb b183 abbd 5f16 edbc 1477 503e
00000180: 91ee adbc 2d6e 013e c852 2f3e 196e 9c3d
00000190: 1bb7 5cbd 65cd ae3d cd30 2bbe 1482 f0bd
000001a0: 551d 313e 1eab 153e c646 03be c018 5e3d
000001b0: 5afd cd3d 204e 1a3e 33a8 653d dedb 393e
000001c0: 0374 1ebe 40c9 3bbd c911 fabd 38c3 85bd
000001d0: 6089 debb f86f 4d3e 3d3d ca3d e38a 3d3e
000001e0: cb39 40be 8b77 a3bd ef2b e23c 7c58 b7bd
000001f0: f6f8 0fbe 346f 01be e8a8 40be d28c 743d

linear2.weight f4 [256, 128]
0.08860799 -0.016549222 0.07379932 -0.07715855 -0.0225424 -0.051198397 0.017651916 0.04606105
-0.06656072 0.03187661 0.053558305 0.037168942 -0.07172505 0.049088247 0.03720846 0.054090597
-0.054615572 -0.03437098 -0.056920208 0.06613635 -0.07582962 0.002192609 0.037253853 0.047545787
-0.07408858 0.04960989 0.075385086 0.026047654 -0.06526233 -0.012587301 0.0643793 0.028395923
0.017967585 0.047834553 0.010484008 -0.080435164 -0.03651071 0.0073278034 0.026209947 0.054416142
-0.0005652347 0.06378401 -0.056565616 0.04458813 0.044875644 0.081027284 0.059302323 -0.055589072
0.04468187 -0.07269621 -0.0538125 -0.062333092 -0.03227153 -0.046144698 -0.0058850218 -0.06973234
0.075114064 0.054040637 0.02216588 -0.04584567 -0.009506487 0.013681501 -0.05562271 0.06161406
0.08091229 0.020210236 -0.048203368 -0.0427713 -0.03337594 0.07598687 0.04098683 0.01740691
0.0613633 0.08264273 -0.0021642365 0.0145843765 -0.081391424 -0.044672836 0.04456111 0.06437439
-0.03280437 -0.007606431 0.06538265 0.029633356 0.05171902 0.030774638 -0.029654516 0.015046997
-0.028729845 -0.004509077 0.072019316 -0.07526841 0.07215756 0.043239027 0.0008690118 0.04211273
-0.06260001 -0.03979628 0.037589952 0.025030686 -0.049617145 -0.058462683 0.053804096 0.068517365
-0.054651454 0.04052139 0.020862846 -0.042587258 -0.08837733 -0.06437798 -0.020476477 -0.026319332
0.05794763 0.07157288 -0.05042555 0.07811286 0.07465369 -0.06877385 -0.0150512 0.02094862
0.01013387 -0.030493807 -0.0028767576 -0.013242348 -0.07030375 -0.027770117 0.029325077 0.07996118
0.0026191461 0.019251943 0.022530228 0.024019286 -0.008548797 -0.06629598 -0.038106695 0.024563512
-0.067825496 0.07639178 -0.016103001 0.06594945 0.000839358 -0.07816459 0.041362755 -0.08666836
-0.009286828 -0.08886663 0.016467687 -0.011658542 0.052044414 -0.067788355 -0.049466364 -0.047306146
-0.11903033 -0.06545417 0.059379153 0.0029712021 0.0206711 0.07192973 0.028967554 0.00048787775
-0.031774245 -0.049102344 -0.03584101 0.08238403 -0.046915933 0.06501843 -0.030205533 0.08169481
-0.069269866 -0.09486567 -0.041915614 -0.028929576 0.02950897 0.02450882 -0.080710135 -0.039004765
-0.07521773 -0.052180875 -0.0014097596 -0.0039523477 0.009336364 0.032618478 0.06372718 -0.04493913
0.0022641197 -0.0608187 -0.071045905 0.067651965 -0.008007626 -0.049283933 -0.017571237 0.080571614
-0.037531633 0.009655483 0.019999156 -0.0039370945 -0.07798726 -0.059502393 -0.03715821 -0.014166002
-0.05963641 -0.026481625 -0.059019864 -0.0667177 0.04932361 -0.05312972 0.072794996 -0.07566926
0.063704826 -0.01979731 -0.030812556 -0.07664292 -0.031776197 0.038916294 0.029902192 -0.026017357
-0.0478406 0.020927766 -0.082096525 0.07873405 0.019457031 -0.07915859 -0.024495125 -0.047388155
-0.051094986 -0.0048790686 -0.007132481 -0.050764866 0.04628162 0.05603339 -0.017098485 -0.08669233
-0.080793925 -0.043670855 -0.011108398 -0.018267669 -0.06811095 0.08597977 0.02140797 0.021457298
-0.06142766 -0.05346576 -0.056896336 -0.08444229 -0.07931184 -0.08994091 0.079631716 -0.023696236
-0.0679117 -0.016066203 0.057107903 -0.07838664 -0.03420927 -0.08328897 -0.048010986 0.08060263
00000000: 1b78 b53d 3c92 87bc 1924 973d 4d05 9ebd
00000010: d7aa b8bc 69b5 51bd c09a 903c 83aa 3c3d
00000020: fd50 88bd 0c91 023d f45f 5b3d 763e 183d
00000030: 95e4 92bd c210 493d e667 183d 1a8e 5d3d
00000040: 94b4 5fbd 96c8 0cbd 2a25 69bd 7f72 873d
00000050: 8f4c 9bbd e0b1 0f3b 7f97 183d 5fbf 423d
00000060: c1bb 97bd bd33 4b3d 7f63 9a3d e461 d53c
00000070: 42a8 85bd f83a 4ebc 4bd9 833d 919e e83c
00000080: c230 933c 2aee 433d 1ec5 2b3c 31bb a4bd
00000090: 418c 15bd 121e f03b 3eb6 d63c 76e3 5e3d
000000a0: 422c 14ba 31a1 823d 59b1 67bd 0ba2 363d
000000b0: 86cf 373d a2f1 a53d fee6 723d 5eb1 63bd
000000c0: 5604 373d c0e1 94bd 7f6a 5cbd fc50 7fbd
000000d0: 272f 04bd 3902 3dbd 24d7 c0bb d4cf 8ebd
000000e0: 67d5 993d b759 5d3d 3895 b53c abc8 3bbd
000000f0: 19c1 1bbc 6028 603c a4d4 63bd 065f 7c3d
00000100: 58b5 a53d f08f a53c e570 45bd f530 2fbd
00000110: 36b5 08bd 019f 9b3d cee1 273d f098 8e3c
00000120: 1558 7b3d 9740 a93d ddd5 0dbb 4ff3 6e3c
00000130: 8cb0 a6bd ddfa 36bd b685 363d b8d6 833d
00000140: e05d 06bd 5e3f f9bb 57e7 853d a7c1 f23c
00000150: 53d7 533d 181b fc3c 07ee f2bc ae87 763c
00000160: da5a ebbc e1c0 93bb dd7e 933d 5326 9abd
00000170: 58c7 933d 681b 313d 65ce 633a 667e 2c3d
00000180: 6f34 80bd 6d01 23bd ecf7 193d 270d cd3c
00000190: 593b 4bbd 9176 6fbd af61 5c3d d552 8c3d
000001a0: 34da 5fbd c2f9 253d 8fe8 aa3c fa6f 2ebd
000001b0: 2cff b4bd 9ad8 83bd 49be a7bc a49b d7bc
000001c0: 7e5a 6d3d cd94 923d 068b 4ebd a3f9 9f3d
000001d0: 09e4 983d 4ed9 8cbd 4f99 76bc 719c ab3c
000001e0: 8808 263c 26ce f9bc fc87 3cbb 6ff6 58bc
000001f0: 6afb 8fbd 287e e3bc 253b f03c b0c2 a33d
00000200: fba5 2b3b 40b6 9d3c 5091 b83c 18c4 c43c
00000210: 4110 0cbc 30c6 87bd c415 1cbd 6b39 c93c
00000220: 18e8 8abd 4b73 9c3d 71ea 83bc 8110 873d
00000230: 5d08 5c3a c214 a0bd fe6b 293d 2e7f b1bd
00000240: c827 18bc b5ff b5bd 3ee7 863c 7803 3fbc
00000250: 862c 553d 9fd4 8abd 3e9d 4abd 17c4 41bd
00000260: 2cc6 f3bd d60c 86bd 8e37 733d 80b8 423b
00000270: 7056 a93c e54f 933d 5d4d ed3c d8c9 ff39
00000280: b625 02bd 8a1f 49bd 06ce 12bd f5b8 a83d
00000290: ec2a 40bd 6228 853d 9871 f7bc 9c4f a73d
000002a0: 5cdd 8dbd ef48 c2bd b5af 2bbd b8fd ecbc
000002b0: ccbc f13c b9c6 c83c 5b4b a5bd 76c3 1fbd
000002c0: c10b 9abd 9dbb 55bd afc7 b8ba b282 81bb
000002d0: 8df7 183c f49a 053d 6583 823d 1812 38bd
000002e0: a061 143b 071d 79bd 8480 91bd 1d8d 8a3d
000002f0: 6b32 03bc f3dd 49bd 8ef1 8fbc bb02 a53d
00000300: c5ba 19bd 0832 1e3c 45d5 a33c be02 81bb
00000310: c9b7 9fbd c8b8 73bd 3533 18bd 8518 68bc
00000320: 4f45 74bd feef d8bc d0be 71bd 4aa3 88bd
00000330: 8e07 4a3d 8d9e 59bd 8b15 953d 7cf8 9abd
00000340: ad77 823d f82d a2bc 9d6a fcbc f7f6 9cbd
00000350: c227 02bd b166 1f3d 71f5 f43c 5a22 d5bc
00000360: 81f4 43bd b570 ab3c 3922 a8bd 513f a13d
00000370: 5a64 9f3c e61d a2bd 00aa c8bc 151a 42bd
00000380: fa48 51bd 98e0 9fbb 96b7 e9bb d2ee 4fbd
00000390: cc91 3d3d 4583 653d 1f12 8cbc c08b b1bd
000003a0: 4977 a5bd 36e0 32bd 0000 36bc 14a6 95bc
000003b0: c17d 8bbd 2916 b03d c45f af3c 37c7 af3c
000003c0: 929b 7bbd eafe 5abd 220c 69bd 14f0 acbd
000003d0: 3f6e a2bd f132 b8bd f415 a33d 9c1e c2bc
000003e0: 4a15 8bbd 459d 83bc fae9 693d 2d89 a0bd
000003f0: 051f 0cbd 6893 aabd 2ba7 44bd fe12 a53d

linear2.bias f4 [256]
-0.023169842 -0.0010558552 -0.043905497 0.03357744 0.02565989 0.0066797817 -0.07647997 0.010914989
0.014153452 0.025868278 -0.014438873 0.054692406 -0.037732244 -0.04199264 0.0068330886 0.0671724
0.034553677 -0.0057305433 0.04006498 0.032393448 -0.040572133 0.092775024 0.06941039 0.052503895
0.036380865 0.072696045 -0.07164274 -0.045995172 0.033105228 0.013726057 -0.0599972 -0.06354289
-0.012085802 -0.084189914 -0.034726486 -0.047163174 -0.03683418 -0.019017382 -0.018468408 0.01034796
-0.08085577 -0.0101453755 -0.06800564 -0.073987626 -0.021425154 0.006973403 -0.066021994 0.061573368
-0.010580608 -0.065022685 0.034367245 -0.032048672 0.0040059085 0.019489305 -0.05911995 -0.00015737418
0.07862474 -0.006393104 0.06795801 0.07996085 -0.035802294 0.028811643 -0.060163517 0.050234333
-0.00907957 0.06074649 0.052710462 -0.065837674 -0.07867887 0.025133964 -0.07420367 0.017442752
-0.01865283 -0.054793417 -0.009619646 -0.04567294 -0.087048404 -0.05232483 -0.03690572 0.06766734
-0.043502085 0.053800855 -0.05841103 0.0117682135 -0.011903044 0.060937986 -0.06415844 0.03768857
0.029316185 0.0015410472 0.080258965 -0.044228293 -0.07635468 0.02512027 0.02534106 0.02770812
-0.0074753 -0.028712368 -0.048079245 0.014351813 0.0068248706 -0.05579046 -0.01251919 -0.06315064
0.07714507 0.057724882 -0.006792171 0.007111916 0.014430997 -0.057663508 -0.07949545 0.029628912
0.023284547 -0.04917259 0.05786384 0.03205333 -0.06752448 0.028857986 0.06620446 0.042384084
0.032027368 0.04290322 0.05497762 0.01779358 0.062429264 -0.06470141 -0.07376343 -0.055794965
0.022997813 -0.043687563 -0.02526662 0.031723052 -0.07052784 -0.03792872 -0.09649247 0.0054640896
0.033561688 -0.026231864 -0.009194727 0.07663067 0.08810656 0.038390674 0.006529397 -0.040189255
0.07762739 -0.03826507 -0.04371321 0.054207627 -0.06140435 -0.074000105 -0.035091933 -0.054994334
-0.038518343 0.03426377 -0.05617223 -0.03586116 -0.07594762 -0.006326525 -0.06427454 -0.017898913
0.07192745 -0.004188161 0.04096252 -0.0053822226 -0.08055377 -0.04930704 -0.08784303 0.067765266
-0.04474333 0.07764559 0.06554503 -0.029022954 0.018299572 -0.02229784 -0.070847884 -0.07905428
0.062293045 0.03466139 -0.034374677 0.0070078685 0.081360765 -0.023523465 0.047037017 -0.052974477
-0.0057981643 -0.08266255 0.069514915 0.017619574 -0.06083684 -0.05163805 0.04114193 0.08589167
-0.032895505 0.03144575 0.055772938 0.049731668 -0.0467834 0.0043757455 -0.07401331 -0.08531266
0.04358895 0.014360956 -0.042353097 -0.06282876 -0.01863159 -0.018876852 -0.06404499 -0.056721617
0.0017781871 -0.01777472 -0.052187447 0.0065835663 -0.035099134 -0.008510525 -0.082794495 -0.021723572
-0.0053308443 -0.011480026 -0.048732575 -0.027422214 -0.043939643 0.016114414 -0.08223108 -0.037034802
-0.007758995 -0.017998524 0.03673292 -0.05364418 -0.020208528 0.04201392 0.053465266 0.067532025
0.021532832 -0.030121425 -2.2941356e-05 -0.0730849 -0.075411424 0.004055377 0.047802027 0.06857369
-0.047835357 0.068510346 -0.03530812 -0.045163345 0.0063822316 -0.035488375 0.07456578 -0.07248767
-0.044040427 -0.089078695 -0.012745245 0.0015950219 -0.08287052 -0.025934706 0.06748211 0.023178509
00000000: aece bdbc 9f64 8aba 40d6 33bd 7f88 093d
00000010: b134 d23c 12e2 da3b 88a1 9cbd c8d4 323c
00000020: e1e3 673c b6e9 d33c 0691 6cbc 2505 603d
00000030: 208d 1abd 7900 2cbd 1ae8 df3b af91 893d
00000040: 2888 0d3d 48c7 bbbb 2d1b 243d feae 043d
00000050: f72e 26bd d500 be3d 0927 8e3d 530e 573d
00000060: 1a04 153d aae1 943d 6eb9 92bd 6f65 3cbd
00000070: 5999 073d 41e3 603c a0bf 75bd c622 82bd
00000080: 8703 46bc c36b acbd 5c3d 0ebd 2c2e 41bd
00000090: 70df 16bd 57ca 9bbc 0f4b 97bc 7d8a 293c
000000a0: b697 a5bd ca38 26bc 8a46 8bbd d386 97bd
000000b0: ce83 afbc 2581 e43b 8a36 87bd 5b34 7c3d
000000c0: 495a 2dbc 9d2a 85bd abc4 0c3d 7845 03bd
000000d0: ff43 833b 09a8 9f3c c327 72bd cf04 25b9
000000e0: 0206 a13d 3e7d d1bb 922d 8b3d 84c2 a33d
000000f0: 6da5 12bd 6506 ec3c 056e 76bd 84c2 4d3d
00000100: 7ac2 14bc 50d1 783d ede6 573d e7d5 86bd
00000110: 6322 a1bd bee5 cd3c 18f8 97bd 1ae4 8e3c
00000120: d2cd 98bc 106f 60bd b89b 1dbc 8c13 3bbd
00000130: 6f46 b2bd 9052 56bd 742a 17bd 2d95 8a3d
00000140: 3e2f 32bd 495e 5c3d 6740 6fbd 77cf 403c
00000150: fc04 43bc 1c9a 793d 8065 83bd 545f 1a3d
00000160: 7f28 f03c f7fc c93a d05e a43d ba28 35bd
00000170: d85f 9cbd 06c9 cd3c 0e98 cf3c 24fc e23c
00000180: 5df3 f4bb 3336 ebbc beee 44bd de23 6b3c
00000190: 2aa3 df3b 8a84 64bd 4a1d 4dbc 1f55 81bd
000001a0: 3cfe 9d3d ed70 6c3d dc90 debb 130b e93b
000001b0: fd6f 6c3c 9230 6cbd 83ce a2bd 55b8 f23c
000001c0: 3cbf be3c 3369 49bd a202 6d3d 5a4a 033d
000001d0: 464a 8abd 9567 ec3c 3496 873d ef9a 2d3d
000001e0: 212f 033d 49bb 2f3d 3630 613d d8c3 913c
000001f0: d4b5 7f3d 2c82 84bd 4811 97bd 4389 64bd
00000200: e965 bc3c bbf1 32bd f1fb cebc 08f0 013d
00000210: e670 90bd 255b 1bbd d89d c5bd 1b0c b33b
00000220: fb77 093d 35e4 d6bc 7ba5 16bc 8af0 9c3d
00000230: 3671 b43d 8a3f 1d3d 8df4 d53b 7d9d 24bd
00000240: 1cfb 9e3d d6bb 1cbd 9f0c 33bd d108 5e3d
00000250: 2183 7bbd 5e8d 97bd 8fbc 0fbd bd41 61bd
00000260: 69c5 1dbd 2b58 0c3d da14 66bd 27e3 12bd
00000270: 6d8a 9bbd bd4e cfbb 5fa2 83bd bea0 92bc
00000280: b34e 933d d73c 89bb 51c8 273d 5b5d b0bb
00000290: 60f9 a4bd 2ef6 49bd 0ce7 b3bd 84c8 8a3d
000002a0: c844 37bd a704 9f3d 793c 863d 8cc1 edbc
000002b0: fce8 953c f6a9 b6bc b218 91bd 36e7 a1bd
000002c0: fe26 7f3d 1af9 0d3d 76cc 0cbd 43a2 e53b
000002d0: 79a0 a63d 48b4 c0bc e3a9 403d c4fb 58bd
000002e0: 87fe bdbb fc4a a9bd d65d 8e3d ed56 903c
000002f0: 0d30 79bd 6b82 53bd 7184 283d f9e7 af3d
00000300: 70bd 06bd 42cd 003d 2a72 643d 6fb3 4b3d
00000310: f39f 3fbd 6a62 8f3b 4a94 97bd 67b8 aebd
00000320: 548a 323d 374a 6b3c 717a 2dbd 5dac 80bd
00000330: 47a1 98bc a1a3 9abc 052a 83bd ed54 68bd
00000340: 0f12 e93a 4a9c 91bc 81c2 55bd f5ba d73b
00000350: 1cc4 0fbd bb6f 0bbc 2990 a9bd a2f5 b1bc
00000360: 5dae aebb b816 3cbc cf9b 47bd 8da4 e0bc
00000370: 0efa 33bd 6002 843c c568 a8bd ceb1 17bd
00000380: 2b3f febb a471 93bc 4275 163d 00ba 5bbd
00000390: 5b8c a5bc ca16 2c3d 65fe 5a3d 3b4e 8a3d
000003a0: 9f65 b03c 35c1 f6bc 3072 c0b7 89ad 95bd
000003b0: 4e71 9abd f8e2 843b 0fcc 433d 5d70 8c3d
000003c0: 02ef 43bd 274f 8c3d 3f9f 10bd 33fd 38bd
000003d0: 0a22 d13b 425c 11bd f2b5 983d 6a74 94bd
000003e0: bc63 34bd e46e b6bd 6fd1 50bc 0e10 d13a
000003f0: 05b8 a9bd 0575 d4bc 0f34 8a3d dbe0 bd3c

out.weight f4 [4, 256]
-0.028773217 -0.031017657 0.060371723 -0.027224148 -0.07972997 0.030485611 -0.06504306 -0.045373768
0.07271488 -0.023836298 0.009443423 -0.0029520944 -0.078161284 0.04628382 0.001768189 0.034190837
0.15634388 -0.04546209 0.0025924998 0.112990215 0.0358223 -0.0012256497 -0.016026236 -0.008856261
-0.00066926325 -0.0054089753 0.029937558 -0.01745519 0.0801952 -0.02286941 0.069363475 -0.01821739
-0.03347152 -0.081475295 0.061244078 -0.020866005 0.07108446 0.0026317402 0.042604968 0.12938985
-0.037128888 -0.04420583 -0.016026236 -0.021614643 0.003384728 0.1991592 0.08436725 0.010051564
-0.05667898 0.022471324 -0.0070795896 0.049782123 -0.018319437 -0.012235936 -0.005766262 0.119311765
0.091414735 0.2206129 -0.0123974 -0.0010397632 0.07269272 -0.076739125 -0.056128584 -0.024746768
0.023658026 -0.03088294 0.028738454 -0.006310836 0.028885555 0.010708386 0.026039867 0.032489054
0.0069110477 0.078910865 0.009961237 -0.0060760765 0.012626729 -0.021388242 0.07248559 -0.02278529
0.0005304738 0.038158685 0.062207043 0.012071917 0.049843755 -0.020399792 0.02227504 0.028429985
-0.05351079 -0.095220864 -0.04097346 -0.012994041 -0.0796667 0.040445242 0.090811595 0.02878317
0.143267 0.026866417 0.021778941 0.15610246 -0.071437016 -0.083916776 0.05252261 0.04084971
-0.060043532 -0.10967289 0.09086167 0.006163184 -0.003364996 0.013912319 -0.0040581096 -0.0431208
-0.01338245 -0.0011444795 -0.016141629 -0.051033713 0.039356057 0.036959954 -0.006912425 -0.039070576
0.12063971 -0.008337693 0.25964025 0.0227524 -0.063195676 -0.022565784 -0.011178362 0.03591774
-0.022178365 0.023761101 -0.020193724 0.1514831 -0.038262557 -0.005818605 -0.029362561 0.14474346
0.06365722 0.02423973 -0.001388469 0.023081511 0.0100733265 -0.01011709 0.11937761 -0.0067272754
0.0010231127 -0.055011205 0.053041417 0.03822764 0.0023014264 0.0068394947 0.03618339 -0.01168307
0.20900847 0.055378415 0.033846922 -0.049086943 0.10169579 -0.075298324 0.04398667 0.04125851
-0.033063013 0.083715305 0.0592241 0.003380729 -0.040055837 0.14548497 0.01233515 -0.022384856
-0.016872356 0.016966576 -0.005311752 0.034600727 0.036091186 -0.019151764 0.041713748 0.0009698636
0.044884227 0.09509395 -0.0008238546 0.056410503 0.019428574 0.0061440947 -0.013604711 -0.06090574
-0.056897283 0.046214134 0.031826742 0.021841038 0.050837547 -0.026300505 0.077298 0.0045012888
0.07853734 0.010823536 -0.02096604 0.08376783 -0.045680024 0.070201375 -0.0051417206 0.016172227
0.009128519 -0.009312641 0.15585046 -0.04302843 0.06953649 0.07511576 0.0027886266 0.0043487754
0.02729357 -0.05491429 -0.03257581 0.11553893 -0.02052991 -0.047896445 0.002555412 -0.016473867
0.0071838517 0.09741306 0.0053009484 0.05169438 -0.03870345 0.029094735 0.038664024 0.04480622
-0.08582038 0.058066297 0.006484621 0.03571587 0.044795685 -0.032800928 0.14510095 0.05035488
0.16057485 0.13919385 0.24356753 -0.030344298 -0.04115242 0.06009598 -0.0087495465 0.025534313
0.047451943 0.0913134 -0.035995897 0.018865976 -0.018487671 -0.03056328 -0.0049711578 -0.03999272
0.025006114 0.15154186 0.0025256157 0.048941623 0.025671044 0.123215675 0.26840615 0.06792087
00000000: cfb5 ebbc be18 febc 5748 773d 2d05 dfbc
00000010: 7749 a3bd f6bc f93c 4c35 85bd d8d9 39bd
00000020: 8aeb 943d 5744 c3bc 96b8 1a3c ed77 41bb
00000030: 0613 a0bd 1a94 3d3d 94c2 e73a b10b 0c3d
00000040: 9c18 203e 7536 3abd eee6 293b 6a67 e73d
00000050: 67ba 123d fba5 a0ba 7449 83bc da19 11bc
00000060: 7f71 2fba c63d b1bb 9c3f f53c 30fe 8ebc
00000070: 623d a43d a158 bbbc 700e 8e3d a33c 95bc
00000080: 6f19 09bd 85dc a6bd 12db 7a3d 2fef aabc
00000090: bb94 913d 4679 2c3b 8c82 2e3d c67e 043e
000000a0: 7614 18bd 2c11 35bd 7449 83bc 3111 b1bc
000000b0: 50d2 5d3b 64f0 4b3e bdc8 ac3d 51af 243c
000000c0: 3828 68bd c815 b83c e7fb e7bb 57e8 4b3d
000000d0: a512 96bc 3c79 48bc e9f2 bcbb ba59 f43d
000000e0: a637 bb3d 59e8 613e 771e 4bbc aa48 88ba
000000f0: ecdf 943d 6729 9dbd 16e7 65bd bcb9 cabc
00000100: 7ace c13c 38fe fcbc e86c eb3c 21cb cebb
00000110: 66a1 ec3c 3a72 2f3c 8f51 d53c 3e13 053d
00000120: 1276 e23b 059c a13d 7534 233c d319 c7bb
00000130: 57e0 4e3c 6536 afbc 5373 943d 37a8 babc
00000140: 7e0f 0b3a 484c 1c3d d0cc 7e3d 4ac9 453c
00000150: f728 4c3d 771d a7bc 257a b63c 00e6 e83c
00000160: 212e 5bbd 2803 c3bd c9d3 27bd f5e4 54bc
00000170: 4b28 a3bd e9a9 253d 6efb b93d afca eb3c
00000180: 96b4 123e f616 dc3c c069 b23c 53d9 1f3e
00000190: 924d 92bd 8fdc abbd f321 573d 0752 273d
000001a0: 35f0 75bd 2e9c e0bd af15 ba3d 89f4 c93b
000001b0: 4487 5cbb 7ff0 633c e4f9 84bb 709f 30bd
000001c0: 1042 5bbc 5c02 96ba 733b 84bc ba08 51bd
000001d0: d133 213d 5263 173d a081 e2bb 7808 20bd
000001e0: f411 f73d d29a 08bc 91ef 843e 3e63 ba3c
000001f0: bc6c 81bd e1db b8bc 7325 37bc 7b1e 133d
00000200: 67af b5bc a4a6 c23c 4f6d a5bc 631e 1b3e
00000210: 33b9 1cbd ffa9 bebb c189 f0bc a137 143e
00000220: b75e 823d 6692 c63c 4afd b5ba 7015 bd3c
00000230: 980a 253c 27c2 25bc 407c f43d 7a70 dcbb
00000240: f719 863a 6e53 61bd f541 593d 9694 1c3d
00000250: 87d3 163b d71d e03b 0935 143d 596a 3fbc
00000260: 5106 563e 7ad4 623d 12a3 0a3d 640f 49bd
00000270: e245 d03d 0236 9abd 5e2b 343d affe 283d
00000280: 156d 07bd ee72 ab3d f894 723d 388f 5d3b
00000290: 9711 24bd 03fa 143e 5e19 4a3c 7260 b7bc
000002a0: e537 8abc 7dfd 8a3c 350e aebb 7eb9 0d3d
000002b0: 5ad4 133d 29e4 9cbc 09dc 2a3d 723e 7e3a
000002c0: 86d8 373d 9ec0 c23d f2f7 57ba b30e 673d
000002d0: ac28 9f3c 6754 c93b 4be6 5ebc 4c78 79bd
000002e0: 200d 69bd 084b 3d3d c25c 023d faeb b23c
000002f0: 083b 503d 2874 d7bc 6a4e 9e3d 8c7f 933b
00000300: 2fd8 a03d 3355 313c f9c0 abbc 788e ab3d
00000310: fa1a 3bbd bdc5 8f3d e17b a8bb 9e7b 843c
00000320: c98f 153c 0c94 18bc 4397 1f3e 943e 30bd
00000330: 2669 8e3d 4bd6 993d 64c1 363b 2c80 8e3b
00000340: c496 df3c ceed 60bd 366e 05bd ad9f ec3d
00000350: 582e a8bc 102f 44bd b378 273b 34f4 86bc
00000360: 8466 eb3b 8080 c73d 94b3 ad3b 7cbd 533d
00000370: 8287 1ebd 1558 ee3c 2b5e 1e3d ba86 373d
00000380: 98c2 afbd edd6 6d3d f27c d43b ce4a 123d
00000390: ae7b 373d 445a 06bd 5895 143e eb40 4e3d
000003a0: bc6d 243e d588 0e3e c469 793e 9b94 f8bc
000003b0: 718f 28bd 3427 763d 425a 0fbc 562d d13c
000003c0: f85c 423d 8502 bb3d 6f70 13bd d28c 9a3c
000003d0: 7573 97bc d85f fabc 18e5 a2bb 68cf 23bd
000003e0: 9fd9 cc3c ca2d 1b3e cd84 253b 0377 483d
000003f0: 154c d23c 8058 fc3d 886c 893e 191a 8b3d

out.bias f4 [4]
0.13870709 0.08107977 0.007969231 -0.3026581
00000000: 3b09 0e3e 270d a63d 6191 023c 01f6 9abe
