mobile_price_category_predict/model/mobile_price_class_predict_optimization.pth (torch, 414221 bytes, 8 tensors)

linear1.weight f4 [128, 20]
000000 83 45 ff bd cf 28 08 3b 91 08 3f be be 5f 0e be
       -0.1246443 0.0020776277 -0.18655612 -0.1390371
000010 79 86 46 3e 97 1e 0f 3d ce ec 05 3e 74 36 11 3e
       0.19387235 0.034941282 0.13078615 0.14180928
000020 25 36 1d 3c 3b c3 28 3e 17 1b cd bd 5e 35 53 bc
       0.009595429 0.16480725 -0.100149326 -0.012891142
000030 8c 8f 40 bd d5 4a b3 bd 97 ca bf bc 09 cb bf bd
       -0.047011897 -0.087545075 -0.023412032 -0.09364898
000040 a9 5d f1 3d fa ec 25 3c a2 38 32 bc b1 92 ed 3b
       0.117854424 0.0101273 -0.01087776 0.007250153
000050 30 bb 6b bd ef cd 1d 3e 55 ca 86 3d b6 8b 8f 3d
       -0.057551563 0.15410589 0.065815605 0.070090696
000060 15 f8 a7 3c 70 7c d8 3c 06 a6 1b bd 1c 70 b7 3d
       0.020504037 0.026426524 -0.03800013 0.0895693
000070 e0 7c 36 ba 86 01 6b 3e 55 40 25 3e d3 87 b7 bc
       -0.0006961357 0.229498 0.16137822 -0.022403633
000080 56 65 42 bd 45 77 6b 3e b0 66 bd bd f5 9a ef bd
       -0.047459923 0.22994716 -0.09248102 -0.116994776
000090 e9 48 e4 bd 36 ca 26 be 5e ae 32 3e 2e 25 14 bd
       -0.11146719 -0.16288075 0.17449328 -0.03616827
0000a0 8b a4 3f 3e b8 6b 96 bd e9 f6 1a be db 1e 02 be
       0.18715112 -0.073447645 -0.15133251 -0.12707083
0000b0 96 d4 27 be 10 b5 03 3e 64 3f 5c 3e 31 60 2e bd
       -0.16389689 0.12862039 0.21508557 -0.042572204
0000c0 9d 03 ec bd ce e5 e6 3d 8f ae b8 bc 51 68 bf 3d
       -0.11524127 0.112743005 -0.022544174 0.09346069
0000d0 a0 8d 9e 3c b1 eb 60 3e 51 1f 2c be af c9 8c bd
       0.019354641 0.21964909 -0.16808821 -0.068744056
0000e0 96 34 32 be 0b 98 ad bc 28 c2 e0 3d 6c d8 17 be
       -0.17402872 -0.021190664 0.10974532 -0.14828652
0000f0 61 30 28 3e a7 42 65 bc 39 87 54 bd 44 8e 32 3d
       0.16424705 -0.013992942 -0.05188677 0.043592706
000100 62 5e 43 3c 37 96 86 3c a4 b4 af 3d f6 0b ed 3d
       0.011924358 0.01642905 0.08579376 0.11574547
000110 0a 0b 97 bc 3b fc 04 be 93 6e 3f be b2 26 60 3e
       -0.018437881 -0.12986843 -0.18694524 0.21889761
000120 3d 3f 32 3e 4a 9f 6b 3e 70 0d 41 3e 84 50 70 3d
       0.17406936 0.23009983 0.18852782 0.058670536
000130 87 b7 33 3e 12 6a 77 3c 14 1b fb 3d 80 c8 3c be
       0.17550479 0.015100973 0.12261024 -0.1843586
000140 77 5e 29 3d 3a 5e 0b 3e ec c0 6a bd 30 ad 29 3c
       0.041349854 0.13610163 -0.05731289 0.0103562325
000150 3d 0b 19 be bc 4d c2 bd e0 a2 01 bd 79 2e 3b 3e
       -0.14945693 -0.09487483 -0.03164947 0.18279447
000160 ca 10 61 bd dd a6 08 3e 80 07 ec bd 0d 37 0e be
       -0.054947652 0.13344903 -0.11524868 -0.13888188
000170 63 4c 2d 3e 32 43 9a be 5e 35 4f bd c9 15 49 3e
       0.1692367 -0.3012939 -0.050588004 0.19637217
000180 fa 01 ea bd f9 4d 3e 3e d7 0f 87 bd ec fa e1 bc
       -0.11426158 0.18584432 -0.06594818 -0.02758547
000190 39 ce fb 3c e6 2e 41 be 24 15 a6 bd d1 0c 37 3e
       0.030737983 -0.18865547 -0.08109501 0.17875983
0001a0 79 6b 95 bd bd f1 9c bd 77 5e d8 3d 03 8b 09 3e
       -0.072958894 -0.076632954 0.10564893 0.13431935
0001b0 8b e9 ac 3d e7 54 22 3e df 03 a6 3d cb ee 3c 3d
       0.08442982 0.158527 0.08106207 0.04612617
0001c0 69 ea 55 3e 00 69 b2 bd c4 d7 6d be c8 fe 3f 3e
       0.20890202 -0.087114334 -0.2322684 0.18749535
0001d0 92 51 49 bd 0a e1 91 3d 70 bc 80 3e 37 f3 f8 3d
       -0.049150057 0.07123001 0.25143766 0.121557645
0001e0 db 44 a0 3d 76 c1 dd 3d b6 2e 62 be 08 6a e2 ba
       0.07825633 0.10827915 -0.22088131 -0.0017274031
0001f0 28 55 0a ba d6 d7 e6 3c 67 90 32 3e 06 9f 05 3e
       -0.00052769715 0.02817909 0.17437898 0.13048944
000200 d4 29 88 3c b6 1b 26 bc f7 d5 cc 3d c3 46 4e bd
       0.016621508 -0.010138443 0.10001748 -0.050360452
000210 2f 5f 62 3e 46 3b 8c be 1b 92 1e be 26 95 37 be
       0.22106622 -0.27388972 -0.15485422 -0.1792799
000220 67 91 0b 3e 79 37 0d be e4 c6 1f be a9 f2 49 be
       0.13629685 -0.13790692 -0.15603215 -0.19721474
000230 00 ee 68 be e2 df 3a 3e dd 38 a0 bd 52 e9 19 3e
       -0.2274704 0.18249467 -0.07823346 0.15030411
000240 e1 71 c0 bd 87 10 44 3e de 7b 7e ba 3b 17 22 be
       -0.09396721 0.1914693 -0.00097077887 -0.15829174
000250 63 d5 19 bd fb 0e bb bb c6 f0 52 be ff 47 27 3d
       -0.037557017 -0.005708573 -0.2059966 0.040840145
000260 3e 29 3f be d1 05 f3 bd 68 16 38 be 16 5e 2c be
       -0.18668076 -0.11866344 -0.17977297 -0.16832766
000270 0f 14 8d bd 5a fd 0b 3d fa 68 ea bd ce 1b 28 be
       -0.068885915 0.03417716 -0.11445804 -0.16416857
000280 ab 0c 09 3e c9 20 58 3d 92 38 01 be fa a9 ce bd
       0.13383739 0.05276564 -0.12619236 -0.10091014
000290 75 27 1e 3e 9e 3a ee bd d0 64 2c 3e 9c b5 58 bd
       0.15444739 -0.11632274 0.16835332 -0.05290757
0002a0 ec a9 6e bd 2e 24 8b be 66 c4 2b 3e 61 e1 86 bd
       -0.05826752 -0.2717604 0.16774139 -0.06585956
0002b0 de 3f bb 3d 0f 6b 72 be 31 15 84 3e 04 ad 38 3d
       0.09143041 -0.23673652 0.25797418 0.045086876
0002c0 61 a1 0e 3e fc 60 ad bd ee cc ff 3d da 4c 1a bb
       0.13928749 -0.08465764 0.12490259 -0.0023544342
0002d0 f2 c6 12 3e 81 7d 44 3e c9 dd 1b be c7 9f 09 3e
       0.14333704 0.19188501 -0.15221323 0.13439856
0002e0 7e fa 40 be 2f 3e 09 3c e9 ca 22 3d 59 c4 45 bc
       -0.18845555 0.008376642 0.03974429 -0.012070739
0002f0 57 4c 67 3d 85 90 a0 bd 1f f2 0e 3e f6 88 6d 3e
       0.056469288 -0.07840065 0.1395955 0.23196778
000300 59 2b 69 be c5 f9 2e 3e c8 6b 5c be 9d 06 73 3e
       -0.22770442 0.17087467 -0.2152549 0.23732992
000310 1b 66 e3 bd 52 21 57 be b4 35 d7 bd 28 56 84 3d
       -0.111034594 -0.21008804 -0.1050829 0.064617455
000320 db ac 55 3e 4a c7 40 be 12 71 47 bd d1 f9 ec bd
       0.2086672 -0.18826023 -0.048691817 -0.11571086
000330 b8 5d e1 bc c5 e1 78 bc 55 c0 80 bd 15 fa e5 3d
       -0.027510509 -0.015190546 -0.062866844 0.1122934
000340 98 23 da 3d c1 9e 24 be 72 a6 b5 bd a6 e5 31 be
       0.1065132 -0.16076185 -0.088696375 -0.1737276
000350 6b b8 08 bc 2c ec 37 be 7c cb a6 bd 54 62 c3 3d
       -0.00834475 -0.17961186 -0.0814428 0.09540239
000360 85 42 83 bd 29 f5 30 3e fd 25 5c 3e 9b 35 78 be
       -0.06409172 0.17281021 0.21498866 -0.24239199
000370 16 33 47 3e ce df 0f bd d2 e5 3d be 79 8e ab bc
       0.19453081 -0.035125546 -0.185447 -0.02094196
000380 9b 61 67 bd db 2a 48 bd e0 73 5d be 7d 9f 77 bd
       -0.05648957 -0.048868995 -0.21626234 -0.060454834
000390 cf d2 96 bd 40 ed 91 bb 4f 0e 26 be c3 68 3b be
       -0.07364427 -0.004453331 -0.16216396 -0.18301682
0003a0 ff 1e 33 be 8d bb 04 bd 93 56 11 3e 20 5a d4 3d
       -0.17492293 -0.032405425 0.14193182 0.103687525
0003b0 dc e8 4a be c5 f6 66 3e 39 9a a9 3d 7e 75 dd bd
       -0.19815391 0.22555073 0.08281369 -0.108134255
0003c0 ca d2 49 3e e1 e8 ef 3b c2 9b 7a bd 0b 12 5e be
       0.19709316 0.0073214625 -0.0611837 -0.2168657
0003d0 bb 27 40 3e f8 e7 91 bc 2b b6 4c be 78 4c 94 3c
       0.18765156 -0.017810807 -0.19991367 0.01810287
0003e0 d3 aa 01 3e 91 b0 79 be 06 bc 03 3d 05 71 3a 3e
       0.1266282 -0.24383761 0.032161735 0.18207176
0003f0 c7 38 20 be 9d d9 9d 3e 0c 9e 3f 3e 3f 87 17 bd
       -0.15646659 0.30830088 0.18712634 -0.036994215

linear1.bias f4 [128]
000000 de ea 27 be f0 b9 51 3e 0e 9e d5 3d 16 02 97 3e
       -0.16398188 0.20481086 0.10430537 0.2949378
000010 c7 61 2e bd 1a 8d 86 bc 4c eb 2c 3e 75 83 18 bb
       -0.042573716 -0.016424704 0.16886634 -0.0023271714
000020 c7 3a 48 3e 24 c9 10 3e 63 29 e1 3d d9 2e 98 bc
       0.19553672 0.14139229 0.10994222 -0.018577026
000030 5c b6 7c bd 7b ed b2 bd ce 7f 30 be 6f e1 46 3e
       -0.06169735 -0.08736702 -0.17236254 0.19421934
000040 aa d5 e5 3d 44 df bf 3c 7a f1 1a 3d f2 a0 de 3d
       0.11222394 0.023421891 0.037827946 0.10870542
000050 76 8f bc 3d f3 8a 0c be 44 c7 22 3c 8b 94 81 3e
       0.092070505 -0.1372488 0.009935204 0.25308642
000060 7c 23 8a bd 5a c2 b6 bd 46 91 af bd b1 96 64 3e
       -0.06745049 -0.08923788 -0.085726306 0.22323109
000070 06 81 82 3e 7e f2 89 3e 2d d0 03 be 96 3e f4 bd
       0.25489062 0.2694282 -0.12872382 -0.11926
000080 16 53 85 3d bc e2 5c 3e 5e 46 5e 3e d5 53 28 3b
       0.06509988 0.21570867 0.2170653 0.0025684733
000090 2f 41 2d 3d a7 62 1c 3e dc f4 93 bd 19 20 4b 3e
       0.042298492 0.15272008 -0.072244376 0.19836463
0000a0 63 42 a7 3c e1 9f b5 3d fc c8 0f 3e 57 10 81 3e
       0.020417398 0.08868385 0.14041513 0.2520778
0000b0 54 d1 7a 3e db e6 8a 3d 72 7e 79 3e 7f 33 43 3e
       0.24493915 0.067823134 0.24364641 0.19062613
0000c0 ef b9 a8 3d e2 32 1e be f3 0c 4f 3e f4 a2 f0 3d
       0.08238589 -0.15449098 0.20219783 0.11749831
0000d0 91 15 c4 3d 9d 8f e8 bd c9 1c e5 bc bc bc 0d 3e
       0.09574426 -0.11355517 -0.027967827 0.13841528
0000e0 c4 5c bc bd 51 ea 77 3e ed 12 d5 bd 28 b2 03 3e
       -0.09197381 0.24210478 -0.104040004 0.1286093
0000f0 be b9 47 3e 59 5a 25 bd 9a ae b6 3c d9 ff 3f 3e
       0.19504449 -0.040369365 0.022300053 0.18749942
000100 a5 d4 e4 3d 7b 0a 73 3e e8 b6 53 3e fb d1 3f 3e
       0.11173371 0.23734467 0.20675242 0.18732445
000110 fc bf 0b be e8 65 bf 3d 41 86 5b 3e a7 ac 7d 3e
       -0.13647455 0.09345609 0.21437933 0.24772893
000120 a8 40 bd bd b2 c9 90 bd 50 50 4e 3e 6b 6c 18 be
       -0.09240848 -0.0706972 0.20147824 -0.14885108
000130 02 90 58 3e 06 d3 e5 3d 52 ec f6 3d 2a 83 09 3e
       0.21148685 0.1122189 0.12056793 0.13428941
000140 6f 7a 49 bd 12 16 06 3d d2 c0 30 3e 9c da 02 3e
       -0.049189027 0.03273589 0.17261055 0.12778705
000150 a1 c3 37 bd ea 47 31 3d 7c 1f 60 bd 85 c3 4b bd
       -0.0448643 0.043281473 -0.054717526 -0.04974701
000160 9f e2 85 3e 59 8d 1c 3e 9a cc 84 3d 5e 4a e1 bd
       0.2614946 0.15288295 0.06484337 -0.110005125
000170 61 ae fc bc 6a 69 92 bd 0a 1d 74 3e 59 d7 da 3d
       -0.03084487 -0.071490124 0.23839203 0.106856056
000180 8e ba 29 be 7b 40 5f 3c 74 31 da 3d 16 96 f7 3d
       -0.16575071 0.013626213 0.10653964 0.120891735
000190 f9 34 36 bd 28 e3 b1 bd a4 88 f4 bd 42 2d df 3d
       -0.044484112 -0.08685905 -0.11940125 0.10897304
0001a0 1c b1 14 3b dd f2 18 be 36 4f 24 3e 22 b7 f8 3d
       0.0022688573 -0.14936395 0.16045842 0.12144305
0001b0 90 b0 68 3e d0 f1 57 3d 7a e7 ef 3d a9 4d 0c 3d
       0.22723603 0.052720845 0.117140725 0.03425375
0001c0 f6 07 42 3b 8a a8 21 be c0 d3 28 be 87 0e 00 be
       0.0029606796 -0.15786949 -0.16487026 -0.12505542
0001d0 c6 25 13 3e 71 32 1c 3d 07 e9 01 3e 03 97 ae bd
       0.14369878 0.038134042 0.12686549 -0.08524897
0001e0 60 90 cd 3d f2 c9 24 3e ca 8c ad bc e5 c1 93 3d
       0.10037303 0.16092661 -0.021185298 0.07214717
0001f0 58 cb d4 bd 81 34 bf bd 77 98 3b 3d 6c 99 85 bc
       -0.10390347 -0.09336186 0.0457997 -0.016308509

linear2.weight f4 [256, 128]
000000 a1 d2 34 3b 73 d2 95 3d 94 ab df 3c ab 1a fe 3b
       0.0027591365 0.07315531 0.027303495 0.007754644
000010 f6 73 b3 3c de 43 63 3d ef 90 b5 3c cc ef 04 3d
       0.02190588 0.055484645 0.022163836 0.03245525
000020 18 29 c3 bd 06 c2 56 3c 9e b1 f4 bb 18 1e c3 3d
       -0.095293224 0.013107782 -0.0074674627 0.09527224
000030 0e a7 98 3d 56 b3 13 3d c4 af e3 bc ea 45 aa bd
       0.07453738 0.0360597 -0.027793773 -0.08314116
000040 15 36 5c 3d 79 2f 99 bd 4e aa 67 bd 5f cf 40 3d
       0.053762514 -0.07479758 -0.0565589 0.047072764
000050 07 32 49 bd e3 22 28 bd 34 62 17 bc 8a 9c e2 3c
       -0.049119975 -0.041048896 -0.009239722 0.027662534
000060 d1 ae bb 3d a2 a4 13 bd 5b b7 7d 3d 6b f4 6b bd
       0.09164203 -0.036045678 0.06194244 -0.057606142
000070 c6 03 98 3b 95 6a 4e 3c 4a 50 0d 3e 27 99 8b bd
       0.0046391217 0.012598653 0.13800159 -0.06816321
000080 aa 6c 0e bd 0d f3 04 3d 43 32 b8 bd c1 5a 15 39
       -0.0347716 0.032458354 -0.08993962 0.00014243556
000090 f3 c9 72 3d 98 69 4c 3c 59 9d ed 3c 72 b1 c7 bd
       0.059274625 0.012476347 0.029005693 -0.09750642
0000a0 50 e7 a4 3c 0a c1 b8 bd 6a 35 cb bd 3e 27 d1 3d
       0.02012983 -0.09021194 -0.09922297 0.10212563
0000b0 37 5c 59 3c 37 80 5c bd 77 bc d6 3d 6a b4 04 3d
       0.013266615 -0.053833213 0.104851656 0.03239862
0000c0 7d 9d c3 3c f7 ed 28 bd d7 92 c2 bc 56 f7 b2 bb
       0.023878807 -0.041242566 -0.02375166 -0.0054616136
0000d0 c4 17 50 3d 4b 31 cb bd 33 b3 51 bd 4e 40 4e 3d
       0.050803915 -0.09921511 -0.05119629 0.050354294
0000e0 a1 af c1 3d 00 bf 79 bc 36 3f 33 bd 25 d6 76 bd
       0.09457327 -0.015243292 -0.043761455 -0.060262818
0000f0 f7 c2 5a 3d 64 cb 05 bd 7d 7b 14 3d ea d0 66 3d
       0.05340859 -0.03266467 0.03625058 0.05635158
000100 59 5d e4 bc e7 14 da bc 3b af c9 bc 72 0e 0a 3e
       -0.027876543 -0.026621295 -0.02461969 0.13482073
000110 7b 9e a5 bd 97 50 31 bd 9c 97 ef 3b 9d 5d 81 bd
       -0.080868684 -0.043289747 0.0073117744 -0.063166834
000120 cd b3 fc 3d 2d 3c 31 bd b0 2b 36 bd 1a d1 03 3d
       0.12338982 -0.04327028 -0.044475257 0.032181837
000130 92 e7 02 bd b4 44 bc 3d b6 2a 93 3d 02 ce bb bd
       -0.031959124 0.091927916 0.07185881 -0.09170152
000140 55 b2 ac 3c 9b 5f e7 3d 36 9b fd 3b 4e 25 13 3d
       0.02108113 0.11297532 0.00773945 0.03592425
000150 90 e7 b4 3d 36 9a 6a bd 47 09 af bc 28 aa 72 3d
       0.088332295 -0.057275973 -0.021366728 0.059244305
000160 f5 a7 23 bc e4 b5 76 bc 4b 29 24 3c 80 3f b7 3d
       -0.009988775 -0.015058015 0.010019611 0.089476585
000170 67 bb 6e 3c 33 d3 de bc 2f 7c dd bc a3 9b 16 3d
       0.014571047 -0.027200317 -0.027036754 0.03676952
000180 4c 69 9c 3d 09 67 8e bc 4d dd 0c 3d 95 3a 25 bd
       0.07637271 -0.017383115 0.034390736 -0.04033907
000190 bc 83 6a bd ca 39 1c bd a7 a0 a7 bd 7b 2d a7 3d
       -0.057254538 -0.03814105 -0.08184939 0.081629716
0001a0 44 e9 95 bd f6 4e 8a 3c 53 30 90 bd c3 57 f1 bc
       -0.073198825 0.016883355 -0.07040467 -0.029460793
0001b0 0c f6 a2 3d 63 c3 f9 3d 47 e9 a2 3a 65 83 69 bc
       0.07957086 0.1219547 0.0012429141 -0.014252518
0001c0 1d 13 01 bd cf f8 45 bd 08 c6 a1 3d a7 93 ec 3b
       -0.03151237 -0.048332985 0.078990996 0.00721975
0001d0 ad 97 52 3d 3d 60 14 3d 62 29 8f bd 95 dc 83 3c
       0.05141418 0.036224592 -0.06990315 0.016096393
0001e0 28 dc d4 3d 6e d1 81 bd a1 13 d7 bd d1 a6 ab bc
       0.10393554 -0.06338774 -0.10501791 -0.020953568
0001f0 6a 52 94 bc 93 b7 91 3d e5 e1 8f 3d e7 c6 7a 3c
       -0.018105704 0.07115092 0.07025508 0.015306211
000200 0c 9d 47 bd ea 75 04 3e f4 80 d4 3d 2d e9 ab 3d
       -0.048733756 0.12935606 0.10376158 0.08394084
000210 dd bd 4f 3c 51 12 a8 3d e3 b2 ac bd 00 7e 36 bd
       0.012679544 0.082066186 -0.084325574 -0.044553757
000220 79 2b bf 3c 97 91 97 3d 3f 24 82 bd b4 88 27 3d
       0.023336159 0.07400816 -0.0635457 0.040901855
000230 b6 98 89 3d 94 86 00 bd c4 33 5f 3d 07 15 91 3d
       0.067185804 -0.031378344 0.054492727 0.07084089
000240 cf 46 ad 3d f7 b2 bf 3d f0 1e 8f bd 4d af 8a 3d
       0.08460771 0.09360307 -0.06988323 0.06771717
000250 1c dc 9e bc 46 ac 9e bd d7 e4 b6 3d dd 9e ff 3d
       -0.019392066 -0.07747702 0.089303665 0.12481473
000260 ad d1 a8 3d 1b ab 85 bd fd 0d 29 3d d7 ca 8a bd
       0.082431175 -0.065267764 0.041273106 -0.0677697
000270 85 33 be 3d 85 65 3b b9 38 f5 a8 3a 0e b2 8d bd
       0.0928717 -0.00017871529 0.0012890464 -0.06918727
000280 d1 63 f1 bc 23 9f 0c 3e f1 a1 66 bd 9b d2 6f bd
       -0.029466541 0.13732581 -0.056306783 -0.05855046
000290 a7 c1 55 3d f5 e9 c3 bd 24 24 7b 3d 67 5f 8d bd
       0.052186634 -0.09566108 0.061313763 -0.06902962
0002a0 1a 03 f7 bb 7b 99 98 3d 8e 49 d3 bb 40 84 23 bd
       -0.0075382115 0.07451149 -0.0064479774 -0.039921045
0002b0 d4 1c 4c 3d 0f 55 37 bd 7d 00 e6 bc b2 2b c1 3c
       0.04983218 -0.044758853 -0.028076405 0.023580406
0002c0 c1 d0 95 bd 95 1e 05 bd 37 8e c6 3c a2 0d c5 bb
       -0.07315207 -0.03249987 0.024237735 -0.006013588
0002d0 71 f4 e2 3d d6 64 7f 3d d6 75 28 bd aa df ad 3d
       0.1108178 0.062352024 -0.041128002 0.08489926
0002e0 6f 12 7a bc 2a c3 04 3e 62 87 d9 bc 21 31 d3 3d
       -0.015263184 0.12965074 -0.026553813 0.10312105
0002f0 33 5a 8d 3d cc 81 5f 3d 1c f1 b0 3c ef 8b 93 bd
       0.0690197 0.054567143 0.021599345 -0.072044246
000300 38 5b 3e 3d 8b 5b ab bd 83 16 54 bd f6 74 b0 3c
       0.04647371 -0.0836707 -0.05177928 0.021540146
000310 07 54 8a 3d aa c0 2c bd 11 60 86 3a e8 1c cd 3d
       0.06754308 -0.042175926 0.0010252019 0.10015279
000320 cd 8f 9b bc 70 07 48 3d d3 12 07 3e f9 c8 03 3d
       -0.018989468 0.048835218 0.13190775 0.032174084
000330 b0 3c 7a bd 03 be 27 bd 31 39 c1 3d 22 2f 81 3d
       -0.061093032 -0.040952694 0.094347365 0.06307818
000340 f2 8b 13 bd c6 df 06 3e e3 ab 25 3c 00 3e 41 bd
       -0.036022134 0.131713 0.010111782 -0.04717827
000350 d5 20 bf bc 25 2d c2 3d 34 23 1e 3d fd 7e a9 3d
       -0.023331085 0.09481267 0.03860779 0.08276174
000360 25 6e 82 3d 86 d5 39 3d bc d7 95 3d 2e 1b 41 bd
       0.06368665 0.045369647 0.07316539 -0.04714506
000370 a1 65 60 bd 3b bd 09 3e 82 41 8d 3d 10 86 88 3d
       -0.05478442 0.13451092 0.0689726 0.066661954
000380 e9 cc 15 3c 03 3c 77 3d 7e 33 94 3d a3 5e cd bb
       0.009143093 0.060359966 0.07236384 -0.006267385
000390 9e 47 33 3c 02 79 af 3d b1 a0 fb 3b 9b dc 78 3d
       0.010942368 0.08568002 0.007679068 0.06075726
0003a0 9f a1 39 3d d3 59 22 bd 0c d5 c7 bd 8d d7 df 3d
       0.04532015 -0.039636444 -0.09757432 0.10929785
0003b0 29 03 1a bd 80 98 90 bc 43 a5 eb 3d 51 6d 01 bd
       -0.03760067 -0.017650843 0.115061305 -0.031598393
0003c0 e7 53 26 bd e7 3e 0a 3c 64 11 c7 3d de 6d 94 bc
       -0.04060736 0.008437849 0.09720114 -0.018118795
0003d0 1c 94 bb 3c 1c ef b9 3d fe e7 0c 3d 7d 1c 63 3d
       0.022897772 0.090788096 0.034400932 0.05544709
0003e0 a9 1d 0e bd 3f e5 17 3d 8a d6 08 3e 54 c2 c3 bd
       -0.034696255 0.03708386 0.1336309 -0.095585495
0003f0 d1 e2 29 3c 21 78 0a 3e 7b 99 e4 3d 32 2b d5 bc
       0.010369019 0.13522388 0.111620866 -0.026021574

linear2.bias f4 [256]
000000 0b 55 8b 3d 57 6a 4f 3d 32 07 fd 3d e2 a2 04 3d
       0.0680333 0.050638523 0.12354888 0.0323819
000010 70 cd a9 3d 93 e1 b2 3d d5 1e e8 3d 43 85 0c 3d
       0.08291137 0.08734431 0.11334006 0.034306776
000020 b2 ce 0a 3e 6f 78 1c 3d 55 a4 d2 3d 31 1d c5 bc
       0.1355541 0.038200792 0.1028525 -0.024061771
000030 95 ea aa 3d 69 e3 f0 bc 92 33 6f bd 79 7d 10 3d
       0.08345524 -0.029405313 -0.05839879 0.03527591
000040 23 d2 9e bd 2a 2f b6 bc ea 85 9c 3d 61 2c c0 3d
       -0.07754924 -0.022239286 0.076427296 0.093834646
000050 42 d9 56 bd 1e fe c4 3d 68 63 42 3d 7b 14 a6 bd
       -0.052453287 0.096187815 0.047458082 -0.08109375
000060 7c e4 08 3e 48 12 bb 3c f0 13 f5 3d 00 23 fe 3c
       0.1336841 0.022835866 0.119666934 0.031022549
000070 ea d2 25 3d 2f f8 16 3d 9f 59 93 3d 67 d0 43 3d
       0.040484346 0.03685778 0.07194828 0.04780617
000080 ae af b9 3d 67 65 cf 3d 67 cf c1 3d 95 52 44 bc
       0.09066711 0.10126763 0.09463387 -0.01198258
000090 88 0e a7 3d 9a a7 8e 3d 55 bd 8c bb 68 ae c7 3d
       0.081570685 0.06965561 -0.004295031 0.09750062
0000a0 eb 0d b4 b9 1f 5a 8e 3d fd 19 d0 bb e2 71 67 bb
       -0.00034342645 0.06950783 -0.0063507543 -0.0035315682
0000b0 1b 27 b7 3d ae e7 6b 3d 1e c6 a3 3d be 6e b0 bb
       0.08943006 0.057593994 0.07996772 -0.0053842952
0000c0 17 bd 03 3c 44 de 08 3e 45 ec 79 bb c1 ee 18 bd
       0.008040688 0.13366038 -0.0038135212 -0.03733707
0000d0 93 59 c3 3b 4c 9f 24 3c 0c 62 0b bd 86 6d da 3d
       0.005961606 0.010047745 -0.03402905 0.10665421
0000e0 f3 49 96 bd f4 10 2a bd f6 63 7d 3d 1e 39 f3 3d
       -0.073383234 -0.041520074 0.06186291 0.118761286
0000f0 6a 02 24 3d d7 c6 8f 3d 97 79 f4 ba 2c 27 95 3d
       0.040041365 0.070203476 -0.0018651959 0.07282862
000100 2f 81 d4 3d c8 08 4f 3d 7b 9a 0a 3e 83 97 62 3d
       0.10376202 0.050545484 0.13535492 0.055320274
000110 b1 ec a0 3d 2b 2b f2 3d 8f 66 42 3d 72 bc fa bc
       0.07857645 0.1182464 0.04746109 -0.030607436
000120 71 7c c1 bb 42 4b 9c 3d da 4a 93 3d c5 b7 2f 3c
       -0.005904727 0.07631542 0.07192011 0.010724966
000130 c0 50 a6 bb d4 61 80 3d 14 dc 2b 3b 16 8f ee 3d
       -0.005075544 0.06268659 0.0026223706 0.11648385
000140 71 d5 e2 bc 46 b8 39 3d 9b b7 d2 3d df 3d de 3d
       -0.027689667 0.045341752 0.10288926 0.10851645
000150 26 30 26 bb c1 4c 08 3e 68 a8 1e 3e 42 4c ef bc
       -0.0025358289 0.1331053 0.1549393 -0.029211167
000160 ad fa ea bc d3 1a 88 bc 96 c9 e6 3d 8f d6 98 bd
       -0.028683985 -0.016614353 0.11268918 -0.07462799
000170 07 c5 03 3d 7b f6 be 3a 17 3c 53 bd 4c 46 a9 3d
       0.03217032 0.0014569307 -0.051570978 0.08265361
000180 95 52 ac 3d 54 c4 ef 3c a2 d3 28 bc cd 19 bc 3d
       0.08414189 0.029268421 -0.010304363 0.091846086
000190 c2 f3 c1 3c a5 af dc 3d 1f 5e 6d 3d db 64 91 3a
       0.023675803 0.10775689 0.05795109 0.0011092679
0001a0 28 62 3e 3a 92 6f 11 bc cd 04 ab 3c 5e 73 de 3d
       0.0007262551 -0.008876698 0.020876313 0.10861848
0001b0 b4 21 8e bd 38 60 89 3c 90 94 ec bc 1a c6 be 3c
       -0.06940022 0.016769513 -0.028879434 0.023287822
0001c0 dc 61 ce 3c 94 38 a1 bd b2 18 0a bd c4 d1 42 bd
       0.025193147 -0.078721195 -0.033714958 -0.04756333
0001d0 5a a5 00 3d 04 62 cd bb ec f1 cc 3d a1 89 dc 3b
       0.03140769 -0.006267788 0.100070804 0.006730274
0001e0 d9 08 e4 bc 01 03 4c bd 2b d9 b3 bc 3d 64 c7 3d
       -0.02783625 -0.049807552 -0.02195414 0.09735916
0001f0 f6 15 92 3d 78 67 77 bc 28 1a 49 bd e7 86 ee bc
       0.07133095 -0.0151003525 -0.04909721 -0.02911706
000200 da fa 85 b9 94 46 10 3d 86 b3 01 3d 11 42 d4 3d
       -0.00025554636 0.03522356 0.031665348 0.10364164
000210 22 6f b9 3c d3 ba d9 3d d3 02 58 bc 60 34 c3 3d
       0.022636 0.10631337 -0.013184267 0.09531474
000220 7d d9 95 3d 4a 5a d0 3d 1f e5 04 bc ee 78 67 bb
       0.07316873 0.10173471 -0.008111267 -0.0035319882
000230 ab 52 45 bd 27 f0 d9 bc 1c 14 d7 3c d8 70 8a 3d
       -0.04817454 -0.026603771 0.026254706 0.067598045
000240 2b 4f 33 bc 38 6d c0 3d e7 20 17 3d 66 21 30 3d
       -0.010944168 0.09395832 0.036896612 0.0430006
000250 9a 34 44 bb 6f cc 54 bc 9e ca 43 3d e8 2e b6 bc
       -0.002993858 -0.012988194 0.047800653 -0.022239164
000260 8b 05 9c 3d 79 22 5e bd 8b cb e7 3d 97 e2 d1 3d
       0.07618245 -0.054232094 0.113181196 0.10248297
000270 9c 96 b8 3c be a9 2c 3d 3f 1e ec 3d 00 95 91 3d
       0.022532754 0.042154066 0.115292065 0.071084976
000280 77 8e 45 bd ab 2b 0c bd c3 cc 89 bd fe 20 f9 bc
       -0.04823157 -0.034221333 -0.06728508 -0.03041124
000290 31 84 a7 bc 1e 83 79 3d 90 cf 34 3d 8f 6f 1a 3d
       -0.020448776 0.06091606 0.04414326 0.037704047
0002a0 00 3e 4a 3d 7c 94 e3 3d d2 9d a1 3d 33 b9 f4 3d
       0.049375534 0.111123055 0.0789143 0.119493864
0002b0 64 16 da 3d ea d5 c1 bb 73 26 9d 3d 2a 33 52 3d
       0.10648802 -0.005915393 0.07673349 0.051318325
0002c0 7e 48 bf 3d 6a a9 a0 3d b9 64 ad bb ab 82 35 bc
       0.09339999 0.07844813 -0.005291548 -0.011078517
0002d0 ba e3 50 bd b3 af ce b9 09 ed e2 3c 56 43 b8 3d
       -0.050998427 -0.00039422288 0.027700918 0.08997218
0002e0 5d f9 90 bc f0 e4 11 bd 5d 12 7a bb 5a 36 75 bd
       -0.01769703 -0.035618722 -0.0038157918 -0.059866287
0002f0 74 22 9d bc 93 1f a9 3c 8f 9a 50 3b b4 35 f9 bc
       -0.019181468 0.020644939 0.0031830405 -0.030421115
000300 b4 ee b7 bc 1a c1 a8 3d 20 28 d8 3c 5c 43 cd 3d
       -0.02245269 0.08239956 0.02638632 0.100226134
000310 6f 2b eb 3c 8b 3d 22 3d d3 1f df 3d 4f b9 93 3d
       0.028707234 0.039609473 0.10894742 0.07213079
000320 5d 10 2b bc 9f b9 74 bd 0e a8 09 3d 20 89 a9 3d
       -0.010440913 -0.059747335 0.033607535 0.08278108
000330 e3 31 90 3c 64 79 5a bd e1 05 75 bb a6 97 f8 bc
       0.017601913 -0.053338423 -0.0037387537 -0.03034575
000340 f6 cf fa bb f0 07 80 bc 87 de c0 3d df dd 27 3c
       -0.0076541854 -0.015628785 0.09417444 0.010245769
000350 b8 14 91 3d 8f 0d a0 3b 8d 3b 17 bd ec dc b6 bb
       0.0708403 0.004884429 -0.036922026 -0.005580535
000360 28 80 f4 3d b7 4c cf 3d 5a b4 f7 3d 14 bb d5 3d
       0.11938506 0.10122054 0.12094946 0.10436073
000370 eb 65 64 bd cf e2 2e bc 28 fc d3 3d 6f 16 a9 3d
       -0.05576126 -0.010674193 0.10350829 0.08256232
000380 c7 d9 6f bc c0 10 64 3c c0 92 b9 3d 92 4a 28 3d
       -0.0146393245 0.013920009 0.090611935 0.04108674
000390 2b db 05 3d b8 c0 29 bd e9 36 30 3c fd de 9e bc
       0.032679718 -0.041443557 0.010755279 -0.019393438
0003a0 85 70 c8 3d 35 ad 97 3d 14 e6 91 3c 66 8e 93 3d
       0.097870864 0.074060835 0.017809905 0.07204895
0003b0 cd 95 9b ba 87 79 85 bd 45 26 04 bd bb 2f 67 bd
       -0.0011870206 -0.0651732 -0.03226306 -0.056442004
0003c0 65 6b 7a bc 8b df a2 bc 28 19 61 3d 18 d7 12 3e
       -0.015284394 -0.019881984 0.05495563 0.14339864
0003d0 21 7e 92 3d 48 74 3b 3d 1e fe d4 3d 37 f5 1e 3a
       0.071529634 0.04576519 0.104000315 0.00060637615
0003e0 26 ce 2c bd 88 7b 32 3d f0 38 09 3d d3 ba 48 3d
       -0.042188786 0.04357484 0.033501565 0.049006294
0003f0 9b 81 1d bd 72 25 13 bd a2 30 84 3d 11 81 65 bd
       -0.03845368 -0.035924383 0.064545885 -0.05603129

linear3.weight f4 [256, 256]
000000 d0 c1 20 3e a7 40 95 3d 10 9a 7a 3d 3c 95 63 3d
       0.15698934 0.07287722 0.06118208 0.055562243
000010 be 8d 62 bc 3e 98 84 3d 06 7b 79 3d a7 7a 28 3d
       -0.013827739 0.064743504 0.06090834 0.041132595
000020 9e 16 15 3d bc 70 b9 3d 0e ba 8e 3d fa 4f 86 bd
       0.036398523 0.090547055 0.06969081 -0.06558223
000030 48 07 b5 bc 35 62 ec 3c ab f9 18 3d c9 a5 a8 3d
       -0.022098199 0.028855423 0.037347477 0.08234746
000040 9f f6 84 bd 20 6b 98 3d 88 c5 c6 3c c7 cc 48 bc
       -0.06492352 0.074423075 0.024264112 -0.012255854
000050 ee 8d 8c 3d 34 3f e8 3c b4 f4 fd 3c 85 4a ca bd
       0.068630084 0.02835045 0.031000473 -0.09877495
000060 52 17 38 3c 7c 4e ce 3d bf 83 ae 3d f0 85 17 bd
       0.011236029 0.100735635 0.08521222 -0.036992967
000070 a6 8f b2 3b 3e c0 8e 3d b6 87 49 bb 7a 6e 0f bd
       0.005449253 0.06970261 -0.0030751056 -0.035017468
000080 a0 24 16 3b 16 e5 34 bd ec 45 6c bd 0c ae d7 3d
       0.0022910014 -0.044163786 -0.05768387 0.10531244
000090 3f 44 5d bc 3b 07 1b bd e8 6f 3a bd d9 37 cc 3d
       -0.013505041 -0.037848692 -0.04551688 0.099715896
0000a0 8a 9c 91 3c c3 05 20 bd 2e 4e 10 bd ae ac be 3d
       0.017774839 -0.039067995 -0.035230808 0.0931028
0000b0 d0 44 46 bd 22 e2 0d bd df 08 05 3c 0e 68 dd bc
       -0.04840547 -0.034639485 0.008119791 -0.027027156
0000c0 70 70 c9 3b 50 60 1f bd 8f bb 88 3c 10 58 de 3c
       0.006147437 -0.03891021 0.016690997 0.0271416
0000d0 60 d2 b9 bb d8 7a ab 3d 73 bb 8d 3d 19 0b 74 3d
       -0.0056708306 0.0837304 0.06920519 0.059580896
0000e0 d4 b0 73 b9 55 c3 3e bd 4b f8 84 bd c3 a2 bc 3c
       -0.0002324016 -0.046573002 -0.064926706 0.02302683
0000f0 b4 fa 9b 3c 5c 75 09 3c 31 5f 86 3d a2 cd 8b 3d
       0.019040443 0.008389797 0.06561125 0.06826331
000100 77 3e 29 3d d3 9d 49 bc 48 de 15 3d 04 7f 89 3d
       0.041319337 -0.012305695 0.036588937 0.067136794
000110 85 6b 0e bc 88 8e c7 bc 45 f7 02 3c b5 c0 10 3d
       -0.008692627 -0.024359956 0.007993524 0.03534003
000120 3b 3d 42 3d 50 cb 1d 3c 65 9f 30 3d b4 46 62 3c
       0.047421675 0.009630993 0.04312076 0.013810802
000130 11 29 b6 3c 0a 07 ab bc b3 79 08 3c 6b a3 1f 3d
       0.022236379 -0.02087738 0.008329797 0.038974207
000140 1c 27 2d bd 73 d1 cc 3c e2 0f a6 3b 17 a5 e0 ba
       -0.042273626 0.025002217 0.0050678113 -0.0017139044
000150 06 ce 91 3d 44 13 e2 3b 6a 09 41 3d 9a 63 37 3d
       0.07119374 0.0068992693 0.04712812 0.04477272
000160 aa 21 3c bd ba 25 3f bd f5 62 8e bc 07 2d ba 3c
       -0.045930542 -0.04666684 -0.01738117 0.022726549
000170 bc b7 54 3a 54 11 df 3c a6 62 47 bb bc 4e 85 bd
       0.0008114537 0.027229942 -0.003042379 -0.06509158
000180 86 1e 65 3c ea b4 58 3d cd bc a6 3d 41 ce 6e bd
       0.013984328 0.052906908 0.0814148 -0.058302168
000190 28 5c 1f 3d df ee d5 3c 17 95 07 bd 67 be 85 3d
       0.038906246 0.02611488 -0.033101168 0.06530457
0001a0 89 98 1e 3c 1f 2a b1 bc b0 40 0e bd 1e db 91 3c
       0.009679922 -0.02162653 -0.03472966 0.017804679
0001b0 9e 06 b4 3d b6 09 5f bd 18 83 95 3d a0 03 4b 3d
       0.08790325 -0.05445262 0.07300395 0.049564004
0001c0 9f 49 4c bd 3d f8 30 3d 04 17 be 3c 85 3b 6f bd
       -0.049874898 0.04320549 0.023204334 -0.05840637
0001d0 43 21 14 3d 35 e0 8b 3a ff ad 4d bd 21 12 3f 3b
       0.036164533 0.0010671677 -0.050214764 0.0029155093
0001e0 a9 dd 05 bd 76 ef 15 bc 1e a2 90 bd d2 80 d3 3d
       -0.032682095 -0.00915133 -0.070621714 0.10327305
0001f0 11 d4 e3 3c 24 1b f1 3c 77 03 5b bd b6 7f be 3c
       0.027811082 0.029431887 -0.0534701 0.023254257
000200 af 79 b3 bc b9 c2 27 3c 4d 34 32 bc cb e2 55 bd
       -0.02190861 0.010239297 -0.010876727 -0.05221824
000210 eb 06 22 3d f5 82 7f 3c 06 29 6b 3c ff 00 8b 3d
       0.03955738 0.015595187 0.0143530425 0.06787299
000220 06 72 d6 bc 72 8e bc 3d 7b fb 66 bc 27 af 30 3d
       -0.026177417 0.09206857 -0.014098044 0.04313579
000230 4c 31 71 3c 29 6f 89 3d 7d f4 22 bd 25 92 10 bc
       0.014721226 0.06710655 -0.039783943 -0.008823906
000240 a0 1d 69 bd ec 60 f6 3c 88 e1 74 bc 8e 05 52 3d
       -0.05691302 0.030075513 -0.014946349 0.05127483
000250 49 7d 49 3d 06 5d e1 ba af 4b ee 3b 75 37 b2 bd
       0.049191747 -0.0017193861 0.007272206 -0.08701984
000260 05 c0 68 bd 06 64 5a bd 95 ea bd 3d 16 2f 7f bd
       -0.05682375 -0.053318046 0.092732586 -0.062300764
000270 fd e5 a7 3d f9 3a ea 3a 4b a0 7b 3c 4c e7 de 3c
       0.08198164 0.0017870358 0.015358041 0.0272099
000280 4e 88 d2 3d a4 16 c7 bb f7 68 68 3d d1 64 ad 3d
       0.10279904 -0.006075697 0.056740727 0.08466495
000290 dd 3a 98 3d 86 8d 46 bc 24 09 b5 bc be 52 ed 3c
       0.07433102 -0.012118703 -0.022099085 0.028970119
0002a0 00 70 1e 3c 7f 8d 76 bd 61 eb c5 bc 72 6b af 3d
       0.009670258 -0.060193535 -0.024160089 0.085654154
0002b0 f9 3e a3 3c 69 dd 37 bd 13 47 0a 3d 1c d3 2e 3d
       0.019927489 -0.044888888 0.033759188 0.0426818
0002c0 5c e3 7f 3d 8b 8b 07 3d 9f b7 a4 3d 8c e7 7d 3d
       0.062472686 0.033092063 0.080428354 0.0619884
0002d0 ce 4c 74 3b 08 b5 40 bd 19 3d c3 3b 44 87 01 3d
       0.0037277224 -0.047047645 0.005958211 0.03162314
0002e0 db fc 78 bc ca 4e 77 bd fd 50 e7 3b a7 e3 a8 3b
       -0.015197004 -0.060377873 0.007059215 0.0051540914
0002f0 dd 8c af 3d 90 3a d8 3d f7 fc 55 3c de 68 c1 3d
       0.085717894 0.10558045 0.0130608 0.0944383
000300 b3 f5 52 3d fd 9b 4b 3d f0 39 c1 3d 81 06 cc 3c
       0.05150385 0.04970931 0.09434879 0.024905445
000310 98 53 9b 3d 74 16 0f bd b8 39 e3 3d 11 89 9e 3d
       0.075843036 -0.034933522 0.11094993 0.07740987
000320 f9 f2 03 3d ef bc 8d bc 27 fb ef bc 98 da c2 3d
       0.03221414 -0.017302005 -0.029294563 0.0951435
000330 63 80 87 3c b7 2e 36 3d 2d 75 68 3c 97 70 6c 3d
       0.016540712 0.044478144 0.014188093 0.05772456
000340 69 53 5f bd 49 e9 b2 3d f5 4b 70 3d bf 33 d3 bc
       -0.054522905 0.08735902 0.05866619 -0.02578151
000350 88 4c 2c bd 6c 61 e2 3d 97 80 7d bc 1e a1 8f bd
       -0.042065173 0.11053738 -0.015472553 -0.070131525
000360 6e b1 81 bb 74 f7 2e 3d 04 09 0d 3d 41 b1 95 3c
       -0.003957919 0.04271646 0.034432426 0.018272998
000370 d1 c8 16 3d 4a 74 02 bd d4 1e 86 bd a3 94 4e bd
       0.036812607 -0.031849183 -0.06548849 -0.05043472
000380 49 da d3 3b 25 7a 22 3d cf 68 88 bc ec 95 19 bd
       0.0064652306 0.039667267 -0.01665154 -0.037496492
000390 8c 24 fe bc a7 f6 51 bd 56 f4 48 bc ef 09 24 3d
       -0.031023286 -0.051260617 -0.0122652855 0.040048536
0003a0 e3 23 c6 3c 65 01 ae bb b9 38 66 3d ba 09 55 3d
       0.024187034 -0.005310225 0.05620644 0.05201123
0003b0 bf 76 cc bc a3 3d e8 bd 94 11 4f 3d 52 d1 88 bd
       -0.024958966 -0.11339881 0.050553873 -0.0668055
0003c0 2d 8a f7 bb 74 61 80 3d 9e 76 5d 3d ff 1b 0e 3d
       -0.0075543136 0.06268588 0.0540682 0.034694668
0003d0 78 c5 e0 bb b0 00 74 bd 80 e6 37 bc e6 e2 78 3d
       -0.0068594776 -0.05957097 -0.011224389 0.060763262
0003e0 46 bb a5 3d a5 70 92 3d 11 1a fb bc 31 2a e9 bc
       0.0809236 0.071503915 -0.030652078 -0.028462501
0003f0 8d 7c a8 3d 79 8e 3d 3c 9b 9f 4a 3c c3 29 8a 3c
       0.08226881 0.011569613 0.0123671545 0.016865617

linear3.bias f4 [256]
000000 06 aa 04 bc 82 b9 82 3d aa 01 9b 3d 55 7b 95 bc
       -0.008097177 0.06383039 0.07568677 -0.018247286
000010 86 84 e5 3c a5 4e 94 3c 2a a0 3c 3d fd 66 a7 bb
       0.028017294 0.018103907 0.04605118 -0.0051087127
000020 2a b2 a7 3d 06 ae 8c 3d cc 77 a4 3d 80 cd fa bc
       0.08188279 0.0686913 0.08030662 -0.030615568
000030 65 85 1b bd 27 4f 36 bd 50 a4 3a bd 2b 7a 11 3d
       -0.03796901 -0.04450908 -0.045566857 0.0355169
000040 d0 0d 75 3d 64 14 37 3d 04 da 9e bd 20 35 2f bc
       0.059827626 0.04469718 -0.07756427 -0.010693818
000050 5d c7 74 bd e6 15 8b 3d 8f 3f b1 3d 31 08 d5 ba
       -0.05976044 0.06791286 0.08654701 -0.0016253052
000060 46 d9 21 3c 93 5a c0 bc 6c 04 8e 3d 98 07 bc bc
       0.009878462 -0.02348069 0.06934437 -0.02295284
000070 84 c6 65 bc b5 80 2b bd 32 69 f6 bc 84 56 76 bc
       -0.014024381 -0.04187079 -0.030079458 -0.015035275
000080 c9 51 82 bd 66 87 70 bd 43 87 ac 3c 01 f0 41 3d
       -0.063632555 -0.058722876 0.021060592 0.047348026
000090 b9 ac 01 3d 01 f7 95 bc ff 0f 8f bc ec 77 47 3b
       0.03165886 -0.018306257 -0.017463682 0.003043647
0000a0 e2 f8 47 bc fa e6 8c bd 00 15 a3 3d b9 c6 4e 3d
       -0.012205334 -0.06879993 0.0796299 0.050482485
0000b0 67 a1 b6 3d f1 42 99 3d 4e f7 94 3c 52 0d 59 bd
       0.08917504 0.07483471 0.01818433 -0.05299122
0000c0 41 f9 89 3d 03 25 0e bb c6 a4 24 bd 35 09 3b 3a
       0.067369945 -0.0021689541 -0.040196203 0.0007134856
0000d0 18 1a f0 bc eb ed 82 bd a8 a8 71 3c 45 10 80 3c
       -0.029309317 -0.063930355 0.014749683 0.015632758
0000e0 b8 5a a9 bc 80 d3 b6 3d 23 a2 37 3b 18 f3 c9 3d
       -0.02067314 0.08927059 0.0028020225 0.098608196
0000f0 c1 a1 be 3d 22 4f d2 bc 74 ce 61 3d 67 30 c2 3c
       0.09308196 -0.0256725 0.05512853 0.02370472
000100 22 66 06 bd a0 00 a0 bc 1f 21 82 bc 0a 04 ba 3d
       -0.032812245 -0.019531548 -0.015884934 0.09082802
000110 77 02 ac bc b1 75 2b 3d de 4b 55 3d a4 40 35 bd
       -0.02099727 0.041860286 0.052074306 -0.0442511
000120 02 6a 2e bb b3 6b 2d bd f3 64 94 3c 4e d0 92 3c
       -0.0026613479 -0.042339038 0.018114543 0.017921593
000130 a2 aa 92 3d ba c9 a0 3d 01 61 9c 3b 73 8d 37 bc
       0.07161452 0.07850976 0.004772306 -0.011203158
000140 f2 df 22 3d 51 e1 2a 3b 71 31 84 bc 86 02 e0 3c
       0.039764352 0.002607424 -0.016136857 0.027344953
000150 13 23 7c 3c 51 dc 3d 3d 69 bd 61 bd d8 26 07 bd
       0.015389222 0.04635269 -0.055112276 -0.03299603
000160 9e 2d 8d bb cc fc 04 3d 7c 85 07 3d 64 a6 a8 bc
       -0.0043084165 0.03246765 0.033086285 -0.020587154
000170 ef 03 94 bc f7 50 17 3d 29 36 89 bd ee cc 18 3c
       -0.018068282 0.03694245 -0.06699783 0.009326203
000180 24 f2 8f bb 10 4f 67 3d b6 f5 ca 3d 44 73 9d 3d
       -0.004392879 0.056471884 0.09910147 0.07688001
000190 53 12 a1 bc 9c 21 50 3d 87 c4 57 bd 70 f0 6f 3c
       -0.019662058 0.050813302 -0.052677657 0.014644727
0001a0 67 12 88 3d 82 4b 49 bc 8d 82 a6 3c 50 7d 9e 3d
       0.06644135 -0.012286069 0.020325923 0.07738745
0001b0 3c aa e6 3c 87 74 74 bc b4 64 b0 3d 8d 87 e9 3c
       0.028157346 -0.01492036 0.086129576 0.028507018
0001c0 d5 27 21 bd e0 3e bb bc d1 0b 58 3d 07 07 22 ba
       -0.039344627 -0.02285713 0.052745644 -0.0006180857
0001d0 38 67 ce bc e3 b1 2b 3a 0e f0 4f 3b bc bc a5 3d
       -0.025195703 0.00065496395 0.0031728777 0.08092639
0001e0 ca 37 72 3c 39 75 6b 3d 3c 5b 27 3d a3 04 e8 ba
       0.014783809 0.05748484 0.040858492 -0.0017701577
0001f0 dd 16 78 3d 5a f3 ad 3d 6f 69 3e 3c ee d0 b5 3b
       0.06056868 0.08493681 0.011621817 0.005548588
000200 1a f5 39 3c 39 d7 da bc 24 67 01 3a dc 21 c2 bc
       0.011349941 -0.026713954 0.00049363286 -0.023697786
000210 7f e4 7d 3d 1c f3 41 3d de 48 d4 bc 71 0f 89 3d
       0.06198549 0.047350988 -0.025913652 0.06692398
000220 7e 36 c3 bb dd aa 1a 3d 18 88 52 3d 74 23 5c bd
       -0.0059574237 0.037760604 0.05139932 -0.05374475
000230 79 e2 d5 3a 3d b5 9b 3d 1a 21 31 bc 26 3a 8d 3d
       0.0016318104 0.07602928 -0.010811115 0.068958566
000240 07 a7 96 3d ac 1c 29 ba 77 58 15 bc 8d 52 a6 3d
       0.07356077 -0.0006451111 -0.00911533 0.08121214
000250 89 36 57 3c 78 24 5e 3d d2 32 f5 bc 51 21 78 3d
       0.013135561 0.054233998 -0.02993146 0.060578648
000260 9b a4 3c 3d db b6 47 3d c9 af e0 3c b6 6a 19 3d
       0.046055418 0.04875837 0.02742757 0.037455283
000270 13 83 37 3c 64 d0 41 3d 09 26 b2 3c 53 18 b3 bc
       0.011200684 0.047317877 0.021746652 -0.021862185
000280 45 e6 99 3d 85 f9 83 bc a4 2a ca bc 97 9a ad 3d
       0.075146236 -0.016110191 -0.024678536 0.08476751
000290 43 40 92 bb f0 0b 98 3c 05 1e e5 3b 99 5d f2 3c
       -0.004463227 0.01856038 0.006992104 0.029585646
0002a0 13 14 78 3c 1b f0 a2 3d 96 78 90 bc 95 43 2a 3d
       0.015141505 0.07955953 -0.017635625 0.041568357
0002b0 18 28 cb bc 3b 8b 95 3d 25 8c a3 b8 ac 87 43 bc
       -0.024799392 0.07301947 -7.7985496e-05 -0.011934202
0002c0 20 b6 1e 3d e1 a6 f8 ba a9 ff 03 bb e8 a0 1d 3d
       0.038747907 -0.0018970632 -0.00201414 0.03848353
0002d0 53 ed 3b bc cc b5 21 3a d7 af 3f bd 03 cd 1e bc
       -0.011470157 0.00061687524 -0.046798553 -0.009692433
0002e0 7d b7 3e 3d 96 1f 4e bd 5f c5 47 3d af 92 45 bd
       0.046561707 -0.05032309 0.048772212 -0.04823559
0002f0 a4 02 3e 3d b4 a8 0c 3d d2 ae 73 3d 1f 71 31 bd
       0.046389237 0.034340575 0.059492894 -0.04332077
000300 57 c5 6f 3c af df ac bc d2 5e 39 bd 81 fc 4c bd
       0.014634452 -0.021102754 -0.045256443 -0.050045494
000310 cc 1a ad bd cb 13 68 3d c7 a0 c9 3d a9 7d 3b 3d
       -0.08452377 0.0566595 0.09845119 0.045774136
000320 7c ff bb 3d 20 e4 12 3d f1 8b d3 3c f6 b1 82 3c
       0.09179589 0.03586209 0.025823565 0.015953999
000330 5e ec 7a bd 49 f0 a0 bc 3e 92 45 bc aa 11 e8 3c
       -0.061260574 -0.019645827 -0.012058793 0.028328735
000340 33 f3 91 3c 9f 4e f5 3c 98 4c 3a bd e6 c4 3d 3b
       0.017816162 0.029944716 -0.0454832 0.0028956472
000350 78 64 29 3d 6d 2c 70 bc 0c ba 6b 3d a1 27 57 3d
       0.04135558 -0.014659029 0.057550475 0.052528027
000360 ab ee 4f bd 83 b9 e1 3c 13 cd 68 3d 1b 52 eb 38
       -0.05076472 0.02755428 0.0568362 0.000112209666
000370 04 00 12 bd ab ee f6 bb 10 95 b1 bc ad 0c 38 3d
       -0.035644546 -0.0075357757 -0.021677524 0.044933964
000380 b7 6f 89 3d c5 c9 76 bd 60 00 45 3c c0 ad ca bc
       0.06710761 -0.060251016 0.012024015 -0.024741054
000390 0a 3a 15 3d cb de 62 3d 7e a1 c9 3d 22 11 ce bc
       0.036432303 0.055388253 0.09845255 -0.025154654
0003a0 4b c4 26 3d 90 5b 17 bd b4 5d 05 bd e8 19 99 3d
       0.040714543 -0.036952555 -0.032560065 0.07475644
0003b0 51 de 4d bb 99 4c bd 3d f3 6e 51 bd 2d ff 9b 3b
       -0.0031413028 0.092431255 -0.0511312 0.004760644
0003c0 3e b0 de 3b 59 b9 67 3c c0 5a 37 3d df 2e 32 3c
       0.006795912 0.014143311 0.04476428 0.010875433
0003d0 48 81 fb 3c 8b d8 89 3c 7b 34 43 3d 3a c5 15 3d
       0.030701295 0.016826889 0.04765747 0.036565043
0003e0 a0 db 19 b9 38 7e c5 3d ac 52 8a 3b 93 c2 4c 3d
       -0.00014673034 0.09643215 0.004221281 0.049990248
0003f0 0e 53 d2 3c 0d e3 c7 3d b9 63 5f bd 08 ba 51 3d
       0.02567437 0.097601034 -0.054538462 0.051202804

out.weight f4 [4, 256]
000000 83 8d 46 be c3 17 01 be c1 22 b4 bd 5d 9d dc bc
       -0.1938992 -0.1260672 -0.08795691 -0.026930505
000010 1e 9c 4e bd d5 5f 85 bb 3e aa 58 3d 9a a1 da 3c
       -0.050441854 -0.004070262 0.05289673 0.026688386
000020 31 e4 3d be 06 c8 2d be e6 c9 44 be 81 14 47 3d
       -0.1854408 -0.16970834 -0.19217643 0.04860354
000030 5b 95 25 3d ff 3e 62 bd 94 0a a3 3d 65 cc 38 bc
       0.04042564 -0.05523586 0.07961002 -0.0112792
000040 8d df 16 3d 71 0e 30 bc b9 51 42 3e fc 42 17 3e
       0.03683429 -0.010745631 0.18976487 0.14771646
000050 a5 ee d2 3d fd 53 8c bd 77 92 02 be 89 2d c7 bb
       0.10299424 -0.06851957 -0.12751184 -0.0060784263
000060 63 af bb bd 76 20 aa 3d 70 f9 2b 3d 89 5a 34 3d
       -0.09164312 0.08306973 0.04198593 0.044031654
000070 50 79 b1 bd 7e 56 d1 3c 91 69 cb bd 98 48 0e 3e
       -0.08665717 0.025553938 -0.099322446 0.1389488
000080 ff 4e 87 3d 9d 6d ce 3d 5e cc c7 bc 87 53 49 3d
       0.06606864 0.10079501 -0.024389442 0.049151924
000090 80 5e 2d 3d 0d 65 eb 3d 8b 06 0a bc da 31 96 3c
       0.04232645 0.11493883 -0.0084244115 0.018334318
0000a0 eb ac 3d bd 4b fc 27 3e 90 d2 4c be 8b 73 d6 bc
       -0.046307486 0.16404836 -0.20002198 -0.026178142
0000b0 6a 12 7a bd e3 46 4f bd 8b 71 b8 bd ed e9 3c 3d
       -0.061052717 -0.050604712 -0.090060316 0.046121527
0000c0 2c 85 32 3d 40 27 10 3d 23 71 05 bc 76 ff 32 be
       0.043584034 0.03519368 -0.00814465 -0.17480263
0000d0 27 a5 03 3d b8 4b 64 bd 79 99 4f be 06 83 a7 3d
       0.032139923 -0.055736274 -0.20273389 0.081792876
0000e0 c2 4e ff 3d c4 8b 29 bd df 22 0b be 16 d6 fa 3c
       0.12466194 -0.041393057 -0.13587521 0.030619662
0000f0 14 35 78 3c 93 ac 41 bd 89 67 d9 3c 6b c9 cc 3d
       0.015149374 -0.04728372 0.026538627 0.09999355
000100 d4 25 83 3d 72 99 68 3d 4b 8e 83 bd cd 7d 7a be
       0.064036995 0.05678696 -0.064236246 -0.24462052
000110 fe 93 62 3d 57 0d c6 3d ed 65 53 be 91 25 90 bd
       0.055316918 0.09670513 -0.2064435 -0.07038415
000120 13 02 bb 3d 9c 5a c6 3d b2 a3 54 3d 63 40 0e bd
       0.09131255 0.09685251 0.051913925 -0.034729373
000130 4d b2 27 be a1 53 3f be 6c 57 94 bb 52 f6 a7 bb
       -0.1637661 -0.18684246 -0.004527023 -0.005125799
000140 35 76 bb bc 28 c5 ba bb f1 4c 51 bc 89 bc d1 bb
       -0.022883514 -0.0056997724 -0.012774692 -0.006400649
000150 88 2e aa 3d 44 4c 0b 3d 55 53 a3 3d 03 db 3d bd
       0.083096564 0.03400828 0.07974879 -0.046351444
000160 4e ef 83 bd f3 b9 04 bc e2 eb 4d be 8c a7 3d 3e
       -0.06442128 -0.008100974 -0.20109513 0.18520945
000170 e1 4e 5e bc 1b 12 bb bd f6 42 17 3d 57 67 14 bd
       -0.013568611 -0.09134313 0.036929093 -0.036231365
000180 b5 0e 71 3d ee c5 58 be e8 e6 1e bd ef 19 e3 bc
       0.058851916 -0.21169254 -0.038794428 -0.027722327
000190 e3 90 6e be e2 fc 97 3c b2 c9 f1 3d 3b 13 ac bc
       -0.23297457 0.018553201 0.118060485 -0.021005264
0001a0 b2 35 9e 3d 74 92 8e 3d bc a4 ce 3c 24 6c 27 be
       0.07725085 0.069615275 0.025225036 -0.16349846
0001b0 82 4b 8d 3d 99 ad 02 3e 3a 66 bb 3d bb 78 de bd
       0.068991676 0.12761535 0.091503575 -0.10862871
0001c0 e8 f2 b7 bd e0 09 97 bd 3c 89 2e 3d ea 83 86 3d
       -0.089818776 -0.073749304 0.042611346 0.06568129
0001d0 21 50 39 be 0b bd 12 3d 0a fc 05 be 3d ff 45 3d
       -0.18096973 0.035824817 -0.13084427 0.048339117
0001e0 3e 57 63 3b c3 94 eb bd 56 2f 61 be c4 28 c7 3c
       0.0034689452 -0.115029834 -0.21990713 0.02431143
0001f0 d8 0b de bd 08 a0 2f be 5b 1a 54 3d 2f d8 3a 3e
       -0.10842103 -0.17150891 0.051782947 0.1824653
000200 c1 73 9d 3d 6e d3 36 be 8f e3 28 be 1d 97 c3 bc
       0.07688094 -0.17854092 -0.16493057 -0.023875767
000210 65 2e 6e bd 91 29 2f 3d 36 2d 4d be e8 42 25 3d
       -0.058149714 0.04276425 -0.20036778 0.04034701
000220 c8 cb fa bc 0b a2 72 3d 38 20 7c bd 79 d0 4f bc
       -0.030614749 0.059236567 -0.061554164 -0.012683981
000230 6d 53 65 bd c2 26 54 be 21 d9 6e 3d 9c 87 1c 3d
       -0.055987764 -0.2071791 0.05831254 0.038215265
000240 16 c8 2e 3d b2 02 81 3d e6 fe bf 3d 82 7d 81 3d
       0.042671286 0.06299342 0.0937479 0.06322767
000250 33 0e 98 3c da d7 ff bd 96 43 db 3c 35 fe 57 be
       0.018561458 -0.12492342 0.026765626 -0.21093066
000260 38 99 b7 3d 5e d2 22 be 53 f4 5d 3d 1b 79 2b be
       0.08964771 -0.15900561 0.054188084 -0.16745417
000270 5e 25 40 3d 33 26 f0 bc 01 ca 0c be 18 d9 f4 3d
       0.046910636 -0.02931509 -0.13748933 0.1195547
000280 35 c0 d4 3c c4 0f 0a be ec 42 93 3d 96 c2 37 be
       0.025970558 -0.13482577 0.07190499 -0.17945322
000290 dc 85 b6 3d b2 4b 55 bc 4e b6 08 bc 14 a5 46 be
       0.089122504 -0.013018535 -0.008344246 -0.1939891
0002a0 c7 b4 af bd f6 19 47 be ac 7f 5c bd ea 4c bd bd
       -0.085794024 -0.19443497 -0.053832695 -0.09243186
0002b0 82 ba e3 3d 48 04 4d be 60 41 90 bd 33 b2 49 3b
       0.11119558 -0.20021164 -0.07043719 0.003077638
0002c0 25 50 33 be 40 99 c0 bc 5d ee 5a be 38 8e 12 be
       -0.17511041 -0.023510575 -0.21379991 -0.14312065
0002d0 7d 8a 4b 3d 24 09 d4 bc 03 92 50 3e dd e4 0f bd
       0.04969262 -0.025883265 0.20368199 -0.03513037
0002e0 39 19 b5 3c 65 cb c7 3d 36 ee 78 be 6d 87 06 bd
       0.022106754 0.09755591 -0.2430962 -0.032843996
0002f0 8d ae 4b bd cf 59 80 3d aa ec 90 3c 62 3e b5 3b
       -0.04972701 0.0626713 0.017690975 0.0055311183
000300 5f c0 ba 3d 26 87 12 3d 3b 03 b2 bc be 2b a4 bc
       0.09118723 0.03577342 -0.021730056 -0.02004039
000310 a6 61 02 3e b5 ae 78 bc a5 59 80 3c c5 02 b1 3b
       0.12732562 -0.015178372 0.015667746 0.0054019415
000320 44 ad b0 bd 84 6a 4a 3e da f3 a7 3d a9 eb 6d 3c
       -0.08626798 0.19767195 0.08200808 0.014521518
000330 6b a1 3f 3e 8a b9 1f be 5c 15 ac 3c 1e 6d 4d 3d
       0.1871392 -0.15598121 0.021006279 0.05015289
000340 24 45 29 3c 00 f3 75 3d b9 8c 3a bd f9 d2 12 bd
       0.010331426 0.060046196 -0.04554436 -0.03584573
000350 2e a5 40 be 07 8a ca 3c 4f 28 27 3c 09 49 17 3c
       -0.18813011 0.02472402 0.010202481 0.0092337215
000360 40 46 9a bb 22 41 f9 3c 63 a4 80 3d 14 58 aa 3d
       -0.0047080815 0.030426566 0.06281354 0.08317581
000370 1b 99 05 3d f3 1b a7 3d ee 05 b0 3c 56 d3 59 be
       0.032616716 0.08159628 0.021487202 -0.21272025
000380 d9 28 6a bc 71 bb 21 bc 1e 67 28 bb d0 b3 67 3d
       -0.014291965 -0.00987135 -0.0025696228 0.056567967
000390 06 6a 3a be aa 5c c4 bc aa da 3a be 8a 9a 10 3d
       -0.18204507 -0.023969967 -0.18247476 0.03530363
0003a0 14 15 c4 3d 73 60 da 3c a1 c6 4e 3e 30 b7 88 3d
       0.09574333 0.026657319 0.20192958 0.06675565
0003b0 a6 fe c0 3d 00 bd 02 be 3f 30 63 bd 3c c8 ad bc
       0.0942357 -0.1276741 -0.055465933 -0.021213643
0003c0 85 b4 44 3d dd 6d 90 3d 43 41 a4 3d 24 62 c4 3d
       0.04802372 0.07052205 0.0802026 0.09589031
0003d0 d3 eb 10 be f3 a9 34 be 28 1f 01 bc da 36 50 be
       -0.1415246 -0.17642955 -0.007880963 -0.20333424
0003e0 52 f0 46 be 05 39 07 3c 61 81 08 3c ae 02 43 be
       -0.19427612 0.008253341 0.008331628 -0.19043991
0003f0 1c 52 37 3d 69 8d 49 be bb 1a 86 bd 68 a1 09 3d
       0.04475604 -0.1968285 -0.06548067 0.033601195

out.bias f4 [4]
000000 0e 80 84 bd 26 8d c1 bc d1 8c 84 3b 80 e1 d4 ba
       -0.06469737 -0.023626875 0.004045107 -0.0016241521
