mobile_price_category_predict/model/mobile_price_class_predict_optimization.pth (torch, 414221 bytes, 8 tensors)

linear1.weight f4 [128, 20]
00000000: 9e78 a0bd a172 5abe 0c95 ad3d 2cc2 e03c
00000010: fa28 493e b6a4 37be 97c6 b23d 4207 893d
00000020: b048 6d3e fd91 c1bd 577d 07be 1f41 403e
00000030: 5f65 f8bd 0a09 26be fae5 413e 42e0 36bc
00000040: 6c68 d63d ac09 56be 2b8b 333e f238 9e3d
00000050: 6cd7 483e be26 b6bd 124c 08bd f407 45bc
00000060: b61b ac3d e5df 253d 5f8f 0bbe dfb1 9abd
00000070: 8e35 62bd d8fb 183e e487 e1bd aa7d c73c
00000080: d691 e53d b1b1 5cbe 9366 3a3e de2c 55be
00000090: c750 06be 5412 323e 0088 533e 5730 abbc
000000a0: 10e8 253e b752 91bd 22ce 1abd ea76 b13c
000000b0: 47d8 2f3e 43e1 acbc 170b f0bd 8067 5dba
000000c0: b7bd 733d 1f2d 483e 6a68 203d 86ec cabd
000000d0: 5151 713e b3e1 2e3e e814 d13d e020 b83d
000000e0: af24 e9bc 96b8 1e3e 1356 c23d 6494 18bd
000000f0: a879 013c b8d7 e0bd b336 313e 2626 b13d
00000100: 5e1e 6c3e 5ef1 433e 8951 3ebe 226f b13d
00000110: 1de0 243e a042 cf3d b54b 3abe c404 243e
00000120: 0ff9 2bbe dc3a 613e ee4b 1cbe ff84 6cbe
00000130: 8f55 12bd 8447 7f3e cdb6 21be 7fac 65be
00000140: ff5f 613e 542d 5a3e 3c76 783d 3765 b0bc
00000150: afff 543d eb97 013d accf 3c3e e6fd 35be
00000160: 01e7 ab3d 2220 c33d 1943 5e3c da29 693d
00000170: 32b4 91bc f142 f8bd ce15 6e3e 7aa0 c2bd
00000180: b9e6 2f3e 1335 133d 5a7a c13d f385 e2bd
00000190: 533e 26be 7604 91bc 1d15 373e d91c 01be
000001a0: 7160 80be e599 9f3c 2916 363e 7f73 183e
000001b0: 1172 443e 71ee 03be ab00 0b3e 49be 50be
000001c0: f422 483e 65a7 683e b44b 143e 8ce0 6cbe
000001d0: 54b0 39bd 1029 10bd d8f7 553e 9525 ecbd
000001e0: c9bc 91be e2a1 283e 26c7 eb3d bfcc 0cbe
000001f0: a711 313e 4179 cf3d 6264 44bd 39fd 9abd
00000200: 22af b73c 9740 453e c121 e4bc 8f65 2e3d
00000210: 5c47 0a3e db9b 65be 8aeb 4dbe c30d 7dbd
00000220: 9110 ea3c 6b6e d43c 33df 283e 5b2d f43c
00000230: 1de7 da3d 38e6 343e ac6d 3ebe 1efb 60be
00000240: d1e7 513e ba4e 0bbe 395f e0bd 7ded ed3d
00000250: a2e8 69bb 924e 883d 83c8 3a3e 1241 18be
00000260: 0c7a 333c 909d 6a3e ee8a fa3b a131 9ebd
00000270: 4ff7 2f3d 672e 5f3e 0028 34be b6c5 023e
00000280: 1405 fd3d c741 2bbd 82cc 5c3d b4ad 0fbe
00000290: b391 30be 646e fe3d 1003 e73d 9a7e fe3b
000002a0: 3bfa 953c 8ffe d43d 55fd 0abe 20a7 ff3d
000002b0: cce3 ea3d fc22 583d d1aa 713e 31c4 0a3e
000002c0: ad19 833e e20b 253e edb4 c6bd a61d 8b3d
000002d0: ded8 aa3b c6d7 4abb efb2 4cbe 8e5e cf3d
000002e0: 57bc 1e3e 89b8 6f3e ec33 7a3d 19b5 aabd
000002f0: 8341 58bd 7ca0 013e ceba 0b3e 8ae8 0cbe
00000300: 9648 473e 1bb3 703e 6b74 98bb c64f 5b3d
00000310: a62a 133e 769c efbd cba3 063d 5b4d d5bd
00000320: 7a9b d33d 8699 07be 0baf 41be 3140 80be
00000330: 5aa6 643e c9f0 483e 6f78 e0bd 2f4e 6fbe
00000340: d199 a73d c5b3 a33d 4a38 073e 3777 a93d
00000350: 0579 b03d 897a e9bd feca d53d 22d4 4fbe
00000360: a7ef 093e 718f a63c d932 a8bd 42ea f7bd
00000370: 25fe 413e c5c8 b7bd edf6 8f3d ffe3 013e
00000380: 9c2c 05be cc28 353d b23d 46be 9e99 debd
00000390: 20ee e03d 1305 e63d 90a9 5dbe 7f80 96bd
000003a0: c193 14be 988a 893e 9abe d9bd 72a2 f2bd
000003b0: c933 4b3e f513 84bd 77b8 5abe fc24 153e
000003c0: 8226 563d 6757 41be f2c8 12be 8be1 1e3e
000003d0: 4998 963d 1e22 c7bd 431e 42be 1c95 1a3e
000003e0: a622 8bbd a0cc 2c3e a949 403e bbee 183e
000003f0: 1b6c 003e 0e0b ac3e 7de3 893a a677 14be
-0.07835506 -0.2133279 0.08475694 0.027436338 0.19644538 -0.17933926 0.08729284 0.066908374
0.2317226 -0.09451673 -0.13231407 0.18774842 -0.1212871 -0.16214386 0.18935385 -0.011161866
0.10469136 -0.20902127 0.17533557 0.07725705 0.19613427 -0.08894108 -0.03327567 -0.012025822
0.08403723 0.040496726 -0.1362891 -0.075534575 -0.055226855 0.14939821 -0.11012247 0.024351913
0.112094566 -0.21552159 0.18203191 -0.20817897 -0.13116752 0.17389804 0.20657349 -0.020897074
0.16201806 -0.07095855 -0.03779424 0.021663148 0.17172347 -0.021103507 -0.11720865 -0.00084459037
0.059507098 0.19548462 0.039162077 -0.099083945 0.23566176 0.17078285 0.10209066 0.089906454
-0.028459875 0.15500101 0.094890736 -0.03725089 0.00790254 -0.10978645 0.17306022 0.08649854
0.23058459 0.19135043 -0.1858579 0.08663775 0.16101117 0.101201296 -0.18192942 0.16017443
-0.16794227 0.2199511 -0.1526334 -0.23097609 -0.035726126 0.24929625 -0.15792389 -0.22429083
0.22009276 0.21306354 0.060659632 -0.021532638 0.05200165 0.03163902 0.18438596 -0.17772636
0.0839367 0.09527613 0.013565802 0.05692468 -0.01778612 -0.12122143 0.23250505 -0.09503265
0.17177857 0.035939287 0.09447165 -0.11060705 -0.16234712 -0.017702322 0.17879148 -0.12608661
-0.2507358 0.019482562 0.17781891 0.14887808 0.19184138 -0.12883927 0.13574474 -0.20385088
0.19544584 0.22720106 0.14482003 -0.23132533 -0.045334175 -0.03519541 0.20895326 -0.11530606
-0.28464344 0.16468003 0.11512594 -0.1374998 0.1729189 0.10130549 -0.047947295 -0.0756783
0.022422377 0.1926292 -0.027848126 0.042577323 0.13503784 -0.22422735 -0.20109382 -0.061780702
0.028572353 0.025931558 0.16491394 0.029806783 0.106886126 0.17665946 -0.18596524 -0.21970794
0.20498587 -0.1360425 -0.10955662 0.11617563 -0.0035691638 0.06655611 0.18240552 -0.14868572
0.010954391 0.22911668 0.0076459562 -0.0772431 0.04296046 0.21795045 -0.17593384 0.12770733
0.12354484 -0.041810777 0.05390597 -0.14031106 -0.1724308 0.12423399 0.11279881 0.007766557
0.018307796 0.10400116 -0.13573201 0.124830484 0.1146923 0.05276774 0.23600318 0.13551404
0.25605527 0.16117814 -0.097024776 0.06792764 0.005213841 -0.0030951365 -0.19990133 0.10125457
0.15501533 0.23410238 0.061084673 -0.08335323 -0.05279685 0.12658876 0.13645479 -0.13760582
0.19461283 0.23505823 -0.00465255 0.053542875 0.14371738 -0.116997644 0.03287105 -0.10415145
0.10332389 -0.13242158 -0.1891443 -0.25048974 0.22329083 0.19623102 -0.10960471 -0.23369668
0.08183635 0.07993273 0.13205066 0.082746916 0.08616833 -0.11400325 0.10439108 -0.20295766
0.13470326 0.02033207 -0.082128234 -0.12105228 0.18944605 -0.089738406 0.07029519 0.1268463
-0.13005298 0.04422836 -0.19359472 -0.10869144 0.10982919 0.112314366 -0.21646714 -0.073487274
-0.14509489 0.2686355 -0.106320575 -0.1184739 0.19843973 -0.06449119 -0.2135943 0.1456489
0.052282818 -0.18880998 -0.14334467 0.15515725 0.07353265 -0.09723304 -0.18956856 0.15095943
-0.06793718 0.16874933 0.18778099 0.14934818 0.12541239 0.33602184 0.0010520067 -0.14498767

linear1.bias f4 [128]
00000000: a094 5c3e a7dd 2ebe 7826 4e3d 7a78 4f3e
00000010: 4306 683e 9bdf 833e 5aba 293e e4e5 043e
00000020: aae3 f6bd c2b3 713e c30b 2fbe 62a4 0d3e
00000030: 2e55 3b3e 6780 dd3d c262 033e 209e 8b3e
00000040: d76e 233e dcf0 483e 3217 2b3e a684 7d3e
00000050: f082 2e3e 950e 1e3d 95db b7bd fd82 05bc
00000060: 0828 553e 5373 1abe 56db 1e3d 9f42 c6bd
00000070: 98b9 6e3e 3a1a f33c 6b68 273e d378 efbd
00000080: 9d29 233e 5a27 163e 3d95 f83c 6600 01bc
00000090: c1e0 913d cd86 fabd 9353 293e 740e 483d
000000a0: cf09 873b f166 093e 6343 183b 2583 1c3e
000000b0: 9e68 3e3e 6ee4 0fbd 98d0 babd 5dc3 8e3d
000000c0: cf90 f7bd 2b40 163e 007b 1abe e34a 86bd
000000d0: 455c a23b f80e fbbd 4c8b ff3d aa4f 1b3e
000000e0: 6504 f73d d7aa 1abe e8fb 7f3e ec27 883e
000000f0: 12f4 a93d 2d26 583e 9e8c a6bd 0acc 1bbe
00000100: ef7d 763d 1af0 f7bb 4ba4 e93d 8c46 233e
00000110: 13d5 873d b147 273e b16f fd3d 2883 4f3e
00000120: 3459 bcbd be1b 533e 88eb 1f3e d50f 38be
00000130: b336 3d3e f215 f13c 1b2a 473e 1017 28bd
00000140: c19c 27be 7154 ee3c 0d6b 0a3c fc3c 7c3e
00000150: 54bd f93d b2e2 313e bc28 953d ca8a 19be
00000160: 5034 a63d 033d 36be 9287 0d3e d3b5 b33c
00000170: 2875 42be 0cbd 593e a458 563e 6242 293d
00000180: ce0e b3bd 5201 b1bd ff69 7d3e 2a90 9dbd
00000190: 7ba3 2e3d 36af aabd c627 ea3d 58bc b8bd
000001a0: c9d2 31be aa89 f8bc b5cb e53d c0d9 33be
000001b0: 7659 763e caf1 12be 2e4f 21be 3e91 ea3c
000001c0: 2912 813d 7b8b 2ebe 25de 133e 8a0d edbb
000001d0: a0f1 1c3e e4b0 fd3d 6ce1 123e c4e3 393e
000001e0: befb 863d 4af6 30be f435 553e ac5b 513e
000001f0: f812 043e b9ba d63d b53b 0cbe c5a6 a5bd
0.21541071 -0.17076741 0.050329655 0.20260802 0.22658639 0.25756535 0.16574994 0.12978321
-0.12055142 0.23603728 -0.1709433 0.13832238 0.18294212 0.108155064 0.12830642 0.27269077
0.15960251 0.1962313 0.16708067 0.24757633 0.17042136 0.038588125 -0.08977429 -0.008148906
0.20816052 -0.15083055 0.038783394 -0.09680676 0.23312986 0.029675592 0.16348426 -0.11692967
0.15933843 0.14663449 0.0303446 -0.00787363 0.071229465 -0.122327425 0.16535787 0.04884191
0.0041210423 0.13418175 0.0023233525 0.15284403 0.18594596 -0.035129957 -0.09121817 0.06970856
-0.12088167 0.14672916 -0.15085983 -0.06557252 0.004954847 -0.122587144 0.12477741 0.15167108
0.12061385 -0.15104233 0.24998438 0.26592958 0.08298506 0.21108313 -0.08132289 -0.15214553
0.060178693 -0.007566464 0.114082895 0.1594488 0.066324376 0.16335942 0.12374819 0.20264876
-0.09196702 0.20616052 0.15617192 -0.1797479 0.18477897 0.02942941 0.19449656 -0.04103762
-0.1636839 0.029093 0.008448374 0.24632639 0.121943146 0.17371634 0.0728316 -0.1499435
0.081154466 -0.17796712 0.13821247 0.021937286 -0.18990004 0.21263522 0.20932251 0.041323073
-0.08743058 -0.0864283 0.24747466 -0.07693513 0.042636376 -0.083342 0.114333674 -0.09020299
-0.17365564 -0.03033908 0.11220495 -0.17563534 0.24057564 -0.14350048 -0.15752861 0.02863371
0.06302292 -0.17045395 0.1444021 -0.00723428 0.15326548 0.12387255 0.14343804 0.18153292
0.06590985 -0.17281452 0.20821363 0.20445126 0.12897861 0.10484833 -0.13694651 -0.080884494

linear2.weight f4 [256, 128]
00000000: 0bfb 193d c4c0 68bd e11b 7a3d d478 93bc
00000010: 3485 c53d 5267 5bbd 3f86 513d f960 1c3d
00000020: 5536 a33d a9f3 9fbd 8c77 083d 44c4 06bd
00000030: b470 33bd 6b36 843d fb44 a63c 50f0 5d3d
00000040: 3c02 04bd 9cb6 0a3d b82c 90bd daed 10bd
00000050: 698e f33d 9acb 853c 0c1e ecbc d18f 27bc
00000060: bc9c 1dbd ff80 793d 168d 643c 1609 d8bc
00000070: b691 cd3a 24d2 a9bc 1257 ddbd 636c df3c
00000080: 1d3d 18bd e72a 58bb 96c3 9a3d 2808 b73c
00000090: e6f2 5a3c 49ee d13c aa26 853d 48c1 053d
000000a0: 23fd e03d a31e 3fbd 9353 03bd f52d 98bc
000000b0: 7d4b ac3d 45f1 033e 8c23 f23c fc54 6cba
000000c0: bf50 1e3c 820e b13d 0fa2 ccbd c3d7 b33c
000000d0: c5c3 0a3e e090 64bd eff8 ee3c b0e2 683d
000000e0: a99b b93d ffce 63bd c15c 69bd da89 a83c
000000f0: ad2f 113d 7031 d93a 29e3 df3d 73b0 2d3d
00000100: 9811 50bd fc13 b43d b8e3 733d 5ea9 4d3d
00000110: 7270 37bd 1740 2bbc 247e 763c 6252 4d3d
00000120: e3d2 6cbd 11ce 853d f0e0 38bd 2911 c9bc
00000130: d6fb 193e a8be d03d a131 bbbd 79ab dc3c
00000140: 5685 63bc d348 07bd e194 4a3d 1696 31bc
00000150: 56f4 08bd 2834 10bd 9551 4cbd caea 673d
00000160: f608 cd3d adea 76bd 729a 13bd e8a3 8a3d
00000170: a6ca 593c 8838 8ebd f8fd c93d 5fce 813c
00000180: a213 133d 6e79 933d ecb7 07bc d489 5bbd
00000190: 2f7a d03d 60a1 92bd 2ce3 933b 1301 20bc
000001a0: 16ab 0fbd 0c82 b33d 6433 0bbd b17c a63d
000001b0: 0de8 203d ded8 cd3c aefb 7a3d ea60 10bd
000001c0: e6bc 093d b82d 013d 18a7 9fbd e790 133c
000001d0: ff7f ad3d 433d 54bd d0cd 01bd f31a babc
000001e0: 0f00 70bd 9baa 68b9 fbf0 b3bc 65f0 82bd
000001f0: d41d 3e3d 2328 a63d 8ecc 80bd 82e5 e1bd
00000200: 93d4 07bc f936 c03d 83e7 1fbd f125 dcba
00000210: 8839 863c 2087 8dbd ccc9 2fbd 9196 babd
00000220: a6e6 0fbd 6efb 37bd 7650 423d a4ef 9c3c
00000230: 59a2 18bd f452 54bd 5480 77bd 841e a5bd
00000240: bc3c b2bc f28f 543d 8e14 7bbd b793 bebb
00000250: 6e4b d53b ae63 b03d 43d7 143d 893f cc3c
00000260: a319 40bd d2f2 213d e89c 8cbc 4f2f d93d
00000270: 7a6c bfbc dd0c cf3c 5ade 423d 4eda b4bd
00000280: cf10 1bbd abb8 153d 6ad1 a83d f138 0d3d
00000290: 23f7 133d e169 b03d a00b 3e3d a8cd bbbc
000002a0: 53ff 203d c0bb 163d 80ad 41bd c58f 5ebd
000002b0: f134 963d 024f 1dbd efdc 283d 26f9 b9bd
000002c0: 0148 cf3d fd51 193c ea17 a2bd 20bc d43d
000002d0: 227c f7bc c605 a33d 7601 0e3e 6ab2 3e3d
000002e0: 9023 0abc 815f 9e3d bb9b 51bc ffc4 a9bd
000002f0: 2197 863d b4cc a23a 09c0 ca3d e324 62bd
00000300: e0e6 09bd b669 11bd 07b8 9abc 943f 5cbc
00000310: 96f7 6a3d 71f6 763d db72 523d 2051 dabc
00000320: 952b 8cbc 6712 ecbc 2543 03bd 0c60 ae3d
00000330: fb02 813a f418 893d 2dc2 303d 4470 5b3c
00000340: ac97 783c 3994 c63d 00c9 b7bd 8299 ed3c
00000350: 7f01 0abd a33f 16bd dc01 8bbd a7d4 723a
00000360: 2ebc 403d 2270 8b3d f46a bf3d 060a 89bb
00000370: a398 cd3d d6b6 9e3d df79 bb3d aa3f 6d3d
00000380: 6aa1 073d 5f09 f83c ee38 e83b 7532 b23c
00000390: b254 ebbc 376b 75bb fbe8 663d 56a5 afbb
000003a0: ad39 cabb db82 693d 2cc5 633d 1d76 42bd
000003b0: 6548 2dbc c765 0bbd 3d72 f73d 472f 943b
000003c0: 6d5c c43d da76 dd3d e5cc 93bd 1a5d cbbb
000003d0: 312f 013c 106a 9f3c adab 313d 5371 b03c
000003e0: 170f 5ebd 3162 013e 27b7 833d ae5e 4fbd
000003f0: 7d2f b1bd cb89 85bd 9550 153d 25a4 cf3c
0.03759293 -0.05682446 0.061061744 -0.018001951 0.09644547 -0.05356533 0.051153418 0.038178418
0.079693474 -0.07810146 0.033317134 -0.032902017 -0.043808654 0.06455692 0.020296564 0.054184258
-0.032228693 0.033865556 -0.070397794 -0.035383083 0.11892397 0.016332436 -0.028822921 -0.01022716
-0.03847955 0.060914036 0.013949653 -0.02637152 0.0015683684 -0.020730086 -0.10807623 0.027273363
-0.037167657 -0.0032984556 0.07556836 0.022342756 0.013363576 0.025626319 0.06501515 0.03265503
0.10985782 -0.046660077 -0.032062124 -0.018576602 0.08412836 0.12885006 0.029557966 -0.0009015349
0.009662806 0.08645345 -0.09991848 0.02195347 0.13551243 -0.055802226 0.029171435 0.05685681
0.09062893 -0.05561733 -0.056973223 0.020573545 0.035445858 0.001657052 0.10931999 0.042404603
-0.05079803 0.08792874 0.05954334 0.05021035 -0.04478497 -0.010452292 0.015044723 0.050127394
-0.057818305 0.06533445 -0.045136392 -0.024544315 0.15037474 0.10192615 -0.09140325 0.026937233
-0.01388677 -0.033028435 0.04945839 -0.010839006 -0.033436142 -0.03520599 -0.04988249 0.056620397
0.10011475 -0.060282398 -0.036035962 0.06769544 0.013292944 -0.06944376 0.09862894 0.015845476
0.035907395 0.07200895 -0.0082835965 -0.05359824 0.10179555 -0.07159686 0.004513165 -0.009765881
-0.03507527 0.08765039 -0.033984557 0.08129252 0.0392838 0.025127824 0.061275177 -0.035248674
0.033627413 0.03153774 -0.077955425 0.009006715 0.08471679 -0.051816236 -0.03169042 -0.022717929
-0.058593806 -0.000221888 -0.021965494 -0.06393508 0.046415165 0.08113124 -0.06289016 -0.11030103
-0.008290428 0.09385485 -0.039039146 -0.0016795975 0.016384855 -0.06910539 -0.042917058 -0.091107495
-0.035132073 -0.044917516 0.047440015 0.019157238 -0.0372642 -0.051836923 -0.060425118 -0.08062461
-0.021757476 0.05189509 -0.0612989 -0.005815949 0.006509236 0.086127624 0.036338102 0.02493264
-0.04689945 0.039538212 -0.017164662 0.106047265 -0.023367155 0.025274688 0.047575332 -0.08830701
-0.037857827 0.036553066 0.082430676 0.03447813 0.03612436 0.08613945 0.046397805 -0.022925213
0.039305996 0.036800146 -0.047284603 -0.054336328 0.073343165 -0.038405426 0.041226324 -0.090807244
0.101211555 0.009357926 -0.079147175 0.103874445 -0.030210558 0.079600856 0.13867745 0.046556868
-0.00843133 0.0773306 -0.012793477 -0.08289527 0.06571794 0.0012420625 0.09899909 -0.05521096
-0.033667445 -0.035501204 -0.01888658 -0.013442893 0.057365023 0.06029362 0.051379066 -0.026650012
-0.017110625 -0.028817369 -0.032046456 0.08514413 0.0009842807 0.066942126 0.04315393 0.013393465
0.01517288 0.0969624 -0.089738846 0.029003862 -0.033692833 -0.036681782 -0.06787464 0.0009263255
0.047054462 0.06808497 0.093465716 -0.004182103 0.10038879 0.07749717 0.091541044 0.057922043
0.03311292 0.030277906 0.0070868647 0.021752575 -0.02872691 -0.0037447938 0.05637453 -0.0053602858
-0.0061714263 0.05700956 0.05560796 -0.047475923 -0.010576342 -0.03403261 0.12082336 0.0045222375
0.09587941 0.10813685 -0.07216815 -0.006206167 0.007884786 0.019459754 0.043376613 0.021538412
-0.05421361 0.12635113 0.06431418 -0.050627403 -0.08651636 -0.065204225 0.036453802 0.025346825

linear2.bias f4 [256]
00000000: 6e8a 643c e051 b23d 63df 77bd d719 d83d
00000010: eb14 b93d 9b75 1abd b9fb d03d 4cba 8fbc
00000020: 7f0f 26ba e5c1 d33c 4572 9d3c fcbc ea3d
00000030: b65c 0d3d 4de7 43bd 7510 ac3d 917a 743c
00000040: 14cf 853d 1bfc 4a3d ca5d 87bd bfbd 383d
00000050: fa90 9f3d bc53 513d e357 a9bd a83d 10bd
00000060: 7e62 ab3d f87f 293d e1ce 7a3d b0fd 1f3d
00000070: bb35 053d af31 fdbc 379d d1bb 0e21 073d
00000080: dc00 1dbc 97c8 273d ab65 93bc 73bd 033d
00000090: 8665 19bd 186e e53d 7294 f1bb 85c9 ab3d
000000a0: d1d3 6abd 6717 0b3c 99be 523d 4a2d 3c3c
000000b0: 7805 6d3c aa85 813d eaae 293d 9f0e 373d
000000c0: ae98 8b3c 9454 743d b868 94bd 5f49 843a
000000d0: 0ba3 c13d a7c4 da3d c89b ee3d c331 dd3c
000000e0: ebfe 913d 0be9 023e 464b c63d b2e7 783c
000000f0: 54a3 fbbc 5ac9 43bd ed98 ccbc 393e a03d
00000100: bf49 a7bb 08ac 74bc 55ff 8b3d 60a6 3c3d
00000110: abd3 aa3d f087 8cbc a80b fbbc b569 46bc
00000120: 82a2 fe3c 49f3 18bd 772e d53b 2e3f 97bb
00000130: 484e 5f3d 1404 dd3d ea80 dc3d 12ef a1bd
00000140: cfd5 73bd 9cd7 96bc ba0c 4dbc 38de da3d
00000150: 9929 8b3d d2e5 b53d b911 263d 65ef d13d
00000160: dc66 8fbd 44b0 de3c 989d d33c e0f1 2ebd
00000170: 3f7b 7b3d c82d 533a 3f3b ee3d abef 15bc
00000180: 8b1d dd3d 0840 07bd 0ecf 3d3d 3b4e 80bd
00000190: f8a7 a4bc 16b7 f23d e1ea 12bd 725d a63c
000001a0: 6e39 6d3b c250 cabc ed63 24bd 2ebc bc3d
000001b0: bffa ca3d c2f7 bfbc b71e 8b3d 61f8 33bd
000001c0: 47d1 89bd de6f 433d 77a5 353d 11d2 15bd
000001d0: b011 cabc 2d48 e8bc 88d7 55bd 2e6d aabb
000001e0: d537 d93d 855b b13d 94cb 0f3b f004 463d
000001f0: 6c56 943d e5f1 20bd f6d1 7cbb 3ab1 113d
00000200: 8873 0e3d 1995 843d 1009 20bd 7307 b5bd
00000210: d9bd 993d 4542 ed3c 1339 ba3d 7d70 563d
00000220: 5842 a83d 62e9 9a3d 277e 643d 982f 863d
00000230: fdbf 9dbc b40a 983d 549b d03c 5bda 25bc
00000240: 38fd 713d 98d1 a33d e811 e6bc 2157 1dbc
00000250: 270d b13b 5764 01bd baf5 9b3d 2e0a 6ebd
00000260: 1733 5f3d 773f c93d 8f78 123d 3ce0 b23c
00000270: e052 48bd 9b67 d83d 252c 1bbd ec9c 31bc
00000280: e01d 213d 5a28 63bd b392 a8bb 7fd9 1fbd
00000290: 279d 9f3d 4f49 393d 4e72 c83d cb86 cebc
000002a0: 773d 27bd 2a3a a43a 35de a13c afe4 8c3d
000002b0: c92d cf3c 4b14 893c 4b10 cc3d 4949 e73d
000002c0: 9abb b23d 03f3 f73d 2a9b b53d e376 5b3d
000002d0: 8b96 df3d 532b 2f3d eb08 463d 7154 6a3c
000002e0: 150f b5bc 8015 b73c 2032 a93d 6965 8cbb
000002f0: d48b b8bb fe31 933d eef6 ef3d 0d9b e03c
00000300: 8ca7 5a3b 8437 90bd a425 f93d 5614 5a3d
00000310: 1491 6cbc d9a5 10bc 6385 dc3d 2148 67ba
00000320: ad9d d03d 7dc6 383c a380 243d 35ce 063e
00000330: a7e5 4d3d e5ae a63c e101 b8bd b6cb 503c
00000340: 3e1c cab9 fe45 8c3c fba2 2cbd 56af 9f3b
00000350: 0287 91bd c791 903c dc0b 563d cb7a acbd
00000360: 3751 a33d e135 7e3d 65eb ad3d ce4c cfbb
00000370: d7c9 b13c 0bfc ce3d 46e4 3dbc 2d9b 383d
00000380: db5a d63d 5ce5 9d3b 4d16 f0bc 0985 fabc
00000390: f7a8 753d e544 9f3d 9afe d83d dffc bb3d
000003a0: a857 ac3d d817 363d 21bb 76bd 45b8 163d
000003b0: 8144 d2bb 8c93 23bd 6caf 133e 45ae e13d
000003c0: c7e7 973d cac9 923d d899 823d 0680 f43d
000003d0: 3fb3 d03d 5374 d83d d07f ac3d 3625 b23d
000003e0: 974d 033e b669 c83d 7284 51bd d399 9e3d
000003f0: dc5e 34bd 01b1 ee3c e978 73bd d5dd 603d
0.01394902 0.08707023 -0.060515773 0.105518036 0.09037193 -0.037709814 0.10204262 -0.017544888
-0.00063347066 0.025849292 0.019219527 0.11461827 0.034512244 -0.047828007 0.084015764 0.0149218
0.06533638 0.049556833 -0.06609686 0.04510283 0.07791324 0.051105246 -0.08268716 -0.03521505
0.08368395 0.041381806 0.06123245 0.039060295 0.032521944 -0.03090748 -0.0063969153 0.032990508
-0.009582724 0.04096278 -0.017992815 0.032163095 -0.037450336 0.11202639 -0.0073724324 0.08388046
-0.05733091 0.008489466 0.0514513 0.011485407 0.014466636 0.063243225 0.041426577 0.044691678
0.017040577 0.059650972 -0.07246536 0.0010092667 0.09454926 0.1068204 0.11650807 0.027001267
0.071287 0.12784211 0.09682326 0.015191959 -0.03071753 -0.047799446 -0.024975264 0.07824368
-0.0051052268 -0.014933594 0.0683581 0.046057105 0.08341154 -0.017154664 -0.030645207 -0.012110163
0.03108335 -0.03734139 0.006505783 -0.004615686 0.054518014 0.107917935 0.10766776 -0.07906927
-0.059530076 -0.018413357 -0.012515241 0.10686916 0.067950435 0.08881725 0.040544245 0.10250739
-0.07002041 0.02718366 0.025831982 -0.04271114 0.061396834 0.0008055833 0.11632394 -0.00915138
0.107966505 -0.03302005 0.04634004 -0.06264921 -0.020099625 0.11851327 -0.03586853 0.02030823
0.003619756 -0.024696711 -0.04013436 0.0921558 0.09911107 -0.02343357 0.06792968 -0.043938044
-0.067293696 0.047714107 0.044347253 -0.036577288 -0.024666637 -0.028354729 -0.0522075 -0.0052010035
0.10606352 0.08660034 0.002194141 0.048344553 0.07243046 -0.03929319 -0.0038577295 0.035569407
0.034778148 0.064737506 -0.039071143 -0.088393115 0.07506914 0.028962264 0.09092917 0.05235337
0.08215779 0.075640455 0.05578437 0.065520465 -0.019256586 0.074239165 0.025464691 -0.010122861
0.05907938 0.07998961 -0.02808471 -0.009603293 0.005403179 -0.031589832 0.07615228 -0.058115177
0.054492082 0.09826558 0.035759505 0.021835439 -0.04890716 0.10566636 -0.037883896 -0.010840636
0.03933513 -0.055458404 -0.005144441 -0.03902578 0.07793646 0.04523593 0.09787427 -0.025210759
-0.0408301 0.0012529541 0.019759277 0.068795554 0.025290387 0.01673331 0.09964045 0.11293275
0.087271884 0.12106898 0.08867486 0.053580176 0.10917386 0.042765927 0.04834835 0.014302359
-0.022101918 0.02234912 0.08261514 -0.00428455 -0.005631903 0.0718727 0.1171702 0.027417684
0.0033364026 -0.07041839 0.121653825 0.05324205 -0.014438886 -0.008828604 0.10767629 -0.0008822699
0.10186324 0.011277792 0.04016174 0.13164599 0.05026784 0.020347068 -0.089847334 0.012743881
-0.00038549484 0.017123219 -0.042147618 0.0048731966 -0.07105829 0.017647637 0.052257404 -0.084218584
0.07974475 0.0620631 0.084921636 -0.0063262945 0.02170269 0.10106667 -0.011590069 0.045069862
0.10466548 0.0048186015 -0.029307509 -0.030581014 0.05997559 0.077768125 0.105954364 0.09179091
0.084151566 0.044456333 -0.060237054 0.036796827 -0.0064168577 -0.039935634 0.14422387 0.110195674
0.07417255 0.071673945 0.063769996 0.11938481 0.101904385 0.10569062 0.08422816 0.08698504
0.12822567 0.09785788 -0.0511517 0.077441834 -0.044035777 0.029137136 -0.05944148 0.054899056

linear3.weight f4 [256, 256]
00000000: b656 3e3d 5050 a83d 3e34 dfbb 5a91 dabc
00000010: 7e0a 92bd 4ef0 863d 96b2 b2bc 992b 183d
00000020: b798 7bbd 4373 33bc 929a 9b3d 08a2 823d
00000030: 444b 14bb ed66 3e3d ea80 993a bc07 68bc
00000040: ebf9 053d f453 fc3c 8d28 7fbd 1cb5 cdbd
00000050: e05b ac3c 64f9 b6bd c938 2a3d 39e7 983c
00000060: 053a cd3c ef49 29bb 9b86 453d 6f57 1f3c
00000070: 76a0 cebd 8fa9 50bd bcfa 803b 5a1e 04ba
00000080: 0e67 f2bc 5538 593d 7fbe 02bd dbf6 7cbd
00000090: 9989 093d a447 31bd c955 a6bd c66e 323c
000000a0: ecb8 653d dcab d53b a1a6 b33d 25b6 343d
000000b0: d98f 803d 2ccb 653d 625c 503d 7741 94bd
000000c0: 4214 0ebd 21a8 11bd c977 433d 05bd 803c
000000d0: a5ee 63bd 1c03 e2bc 1b68 d4bc 27be a6bb
000000e0: 81d2 f33c 35ac 673d cf35 2abd ed24 323d
000000f0: 7464 28bd d682 72bc ba78 7fbd 7a4e 183d
00000100: af30 8e3d 3ee6 95bc 9b3a 6dbd fef8 943c
00000110: 4e0e 6e3c 7e0f 5f3d e83a 83bd a585 c23d
00000120: 3b55 29bd 5157 bebd 3449 9c3d 0a5f 113d
00000130: 2232 59bb 5b53 e0bc c885 d9bc 06f8 89bc
00000140: d903 89bd 087e 36bb b5cf 34b9 2a11 253d
00000150: 070b 163d 020e 923a 6c66 f23c 0a93 80bd
00000160: 6677 23bd 8a78 813d 39c8 693d 3c3a 1a3d
00000170: 9714 85bc 31b2 54bd 2d10 4e3d ce79 9fbd
00000180: 7056 34bc ac51 42bc e3af 98bc 2d0e 5dbd
00000190: 794e 5ebc 5243 8d3d e786 b7bd f58a 753c
000001a0: eb7c 9cbb 6291 40bd cf5d f63c 305e b13c
000001b0: 6a15 8fbd 1e4b 76bd 3ae2 5dbd 038f 7cbb
000001c0: d1f4 6e3c a31e a13d 8293 ca3c 7ec9 10bc
000001d0: 256b 013e d95e 9cbb d043 b63d 39c5 2abc
000001e0: 0f06 4c3d 793c 4bbd a220 8b3c b8db 5a3d
000001f0: cdf6 683d 4062 d23c 5a55 8b3c 12e5 fdbc
00000200: 2c66 3e3d d6d7 e43b e065 9e3b cdee 533d
00000210: 9e7e 833c 4c42 a0bd 3681 78bd c9f7 6dbc
00000220: 63d4 a8bc 7b0a c6bc bfad 443c 0ba2 623c
00000230: cb28 5d3d 6896 c33c d138 6abc 504d c03d
00000240: b0c2 95bc 0f8f 7c3c 81ab 613d cd5d 423c
00000250: f20c 92bd 8bd3 8fbd d3a0 c4bd 4a5c a9bd
00000260: 781e 123d 1606 a1bd 0191 093d aea0 b3bd
00000270: 791c c6bd 154a b73b da0c 9c3d df74 c63d
00000280: a73c 54bd 6bf0 40bd ed36 13bc f487 063e
00000290: c66d 0dbc f00f 0c3d b42e 65bd 3b00 66bc
000002a0: 0f12 43bd e95c cabb 9874 0e3d be69 1f3d
000002b0: 1537 983d 75db 68bd 05b1 94bc f066 9e3d
000002c0: 6189 d5bd 71cf 013c 571e fe3b 9838 94bd
000002d0: 708e 8cbc 29b0 54bc 5525 b33d ffac ab3c
000002e0: 5c1b c43d 7495 953b 5cde 1fbd 1aa5 03bc
000002f0: 5fe6 e33c 39d7 04bd 9cfd 283d da38 11bd
00000300: c759 913d b117 72bd 4250 103d 4df8 eebb
00000310: aa00 853d 36f1 b9bc 2bdb 82bd 7b94 9dbc
00000320: 3d30 2dbd f980 9b3d d6ca 863c 11c0 7c3d
00000330: f81c 093d 685e 76bc 8c85 16bd de24 693d
00000340: 6383 b53d 2a74 d2bd 785b 763d 032b b7bc
00000350: c918 d93c 4b95 1abc 8e51 6b3a 54a3 543d
00000360: 2c31 d5bd fa98 b83d 2e86 2fbb 3957 7a3d
00000370: 2c0f e4bc 5e3b 2f3d ef5f 7f3d 36f7 99bb
00000380: 876a bcbc 246c cfbc d28f 733c 9c3a 033d
00000390: 71cb 7f3d a8ae afbd 7760 1f3b 8fd8 a13d
000003a0: c9c4 d53c 0e0b 193c d778 37bc 2e2f 683d
000003b0: ae50 6bbd 4604 603d ada7 123d c5dd 4abb
000003c0: 3872 d83c 3c1c 2cbd 5408 973d 9654 3fbc
000003d0: da72 173d 0fb3 bcbc b86a 90bc 9327 dd3c
000003e0: 8757 c5bc 9e24 7f3c e08b c03d fb91 a6bc
000003f0: 320e bbbc 2bc5 073d 7065 5f3c 4645 0a3c
0.046469413 0.082184434 -0.0068116477 -0.026680637 -0.071309075 0.06588803 -0.021813672 0.037150953
-0.061424937 -0.0109527735 0.07597841 0.06378561 -0.002262787 0.046484876 0.0011711393 -0.014162
0.032709043 0.03080175 -0.06229453 -0.100443095 0.021039903 -0.08934286 0.04155806 0.018664943
0.02505208 -0.0025831421 0.048224073 0.009725436 -0.10089199 -0.050942954 0.00393614 -0.0005039923
-0.029590156 0.053032238 -0.031919952 -0.061758857 0.03357849 -0.043281212 -0.08121831 0.010890668
0.05608456 0.0065207314 0.08772016 0.04411902 0.06277437 0.056101963 0.050869353 -0.07239049
-0.034687288 -0.03556073 0.047721658 0.015715132 -0.05564751 -0.027589373 -0.025928548 -0.005088586
0.029763462 0.056560714 -0.041555222 0.043492246 -0.041111425 -0.0148017015 -0.062370993 0.037184216
0.069428794 -0.018298265 -0.05791722 0.018185135 0.014529778 0.054458134 -0.0640772 0.09498147
-0.041341048 -0.09293998 0.0763115 0.035491027 -0.0033141454 -0.027383497 -0.02655305 -0.0168419
-0.06690187 -0.0027846117 -0.00017243515 0.040299572 0.03663161 0.0011143091 0.029589854 -0.062780455
-0.03990879 0.06321819 0.057075713 0.037653193 -0.01624517 -0.05192775 0.050308395 -0.07786904
-0.011006936 -0.011860292 -0.018638557 -0.053968597 -0.013568514 0.06897606 -0.089612775 0.014986743
-0.0047756336 -0.047013648 0.030074028 0.021651357 -0.06986506 -0.06013023 -0.054170825 -0.003853739
0.014584736 0.078671716 0.02472854 -0.008837102 0.12638529 -0.004772049 0.08899653 -0.010422998
0.049810465 -0.049618218 0.016983334 0.053432196 0.056875993 0.025681615 0.017008472 -0.030993018
0.046484157 0.0069837375 0.004833922 0.05174141 0.016051587 -0.07825145 -0.0606701 -0.014524409
-0.020609086 -0.02417492 0.012004315 0.013832579 0.05399398 0.02387543 -0.014295773 0.09389746
-0.01828131 0.015414967 0.0550952 0.011863184 -0.07131375 -0.070227705 -0.09600987 -0.08269556
0.03567359 -0.07862489 0.033585552 -0.087708816 -0.096733995 0.005593548 0.07619639 0.0969026
-0.051815655 -0.04710428 -0.008985263 0.131378 -0.008632129 0.034194887 -0.055952743 -0.014038141
-0.047624644 -0.0061756265 0.03477916 0.038919203 0.07432381 -0.056849916 -0.018150816 0.077344775
-0.104265936 0.007922993 0.0077550816 -0.07237357 -0.017157763 -0.012981453 0.08747355 0.020956514
0.09575531 0.0045649353 -0.039030418 -0.008034969 0.02781981 -0.032431815 0.041257486 -0.03545461
0.07097202 -0.059104625 0.03523279 -0.0072927834 0.06494267 -0.022698026 -0.06389459 -0.01923584
-0.04228233 0.07592959 0.016454142 0.061706606 0.033474892 -0.015037157 -0.036748454 0.056919925
0.08862951 -0.10276063 0.060145825 -0.022359377 0.026501076 -0.009435008 0.0008976691 0.051913574
-0.104097694 0.09013553 -0.0026782858 0.06111834 -0.027839266 0.042781226 0.06234735 -0.0046986593
-0.023000015 -0.02532012 0.014865832 0.032038316 0.062449876 -0.08578235 0.0024318972 0.079026334
0.026094811 0.009341015 -0.011198244 0.05668562 -0.05744999 0.054691575 0.03580444 -0.003095494
0.026421651 -0.042019114 0.07374635 -0.011677882 0.036974765 -0.0230346 -0.017629012 0.02699641
-0.024089588 0.015572695 0.09401679 -0.02033328 -0.022833917 0.03314702 0.013635024 0.008439368

linear3.bias f4 [256]
00000000: f838 423d 3d1a 3dbd 2717 6bbd d11a 5d3b
00000010: b02b 1c3c aa08 a13d d856 83bc 07ca 4f3d
00000020: 2ede c8bb 0e24 babb 6c88 4a3c d6a4 1dbd
00000030: 4743 38bd 2e93 a4bc 63a8 d9bc c5a8 40bd
00000040: 3495 84bc 681b 95bc ce10 2cbd ad8a aabc
00000050: da11 91bd b19d af3b a971 763d f404 ce3d
00000060: 33b1 bb3d c9cd 1ebb 667b 0cbd 1b46 12bc
00000070: e469 c63a 39a6 05bd 3259 a4bd 8557 33bc
00000080: 8f3a a23c 8be7 573d 9c40 64bd 9da8 5a3d
00000090: c1e1 213c 4eeb c73d 74c5 52bd 7ec7 ce3d
000000a0: c48a 1336 31a8 2f3d 6f84 343d 71e1 abbc
000000b0: c09a 903c aa84 823d 79c6 dd3c a742 363d
000000c0: f571 693c 97a4 94bc d9cb 493d 7437 b7bc
000000d0: 174b b13d 6c8a efbb 08b8 583d 3ed8 993d
000000e0: 29bc 8abc a3ff bc3c 4f1f cc3c 567d 0f3d
000000f0: 320d e1bb 6d79 2cbd ae89 8bbc ceac e63a
00000100: b3ce d43d 67ce 09bc c86c 6abd ddb0 533d
00000110: 6f8c 97bd 751c d7bb 351d 233d 77e2 4fbd
00000120: 08f2 49bc e2d9 c43d 7859 acbc 6e60 163d
00000130: 845b fcb9 e380 d63d 2fc9 853c 8561 e2bb
00000140: 4b3a 5d3d 25fd ebbb b9fb 293d fd4b 02bb
00000150: 536f 80bd 90f3 523d 2711 e6bc 45d1 ae3d
00000160: 809e 5a3d de57 c13d 923a 44bd e724 2b3d
00000170: 150b 373d 08f5 823d 3737 823d e558 9a3d
00000180: c21f ebba 0c68 b03c 680b 7d3c 7339 693c
00000190: c66b 76bd 41b4 543d 7f50 b93d 0e0f 5dbd
000001a0: 9072 91bb 73cf 693d 4681 c7ba a5af 8c3d
000001b0: 9ad8 80bc 4377 5d3d b4e2 c9bc 5d4a 043d
000001c0: 4e4b e7bc c705 263d cd94 c83a 1b4c d03c
000001d0: eb3d 5a3d e1f0 5c3d 994f 10bc 6869 7c3c
000001e0: e1eb 89bd 596c c63d 3bbb 843c 8ecd 9fbc
000001f0: cb96 16bc e2a2 23bc f4bb b73c 031a 863b
00000200: e0ae 2c3d d4e5 0abd c71f f43c 3bd3 a9bc
00000210: 1a02 6d3d a6df 76ba dadb 5e3d 5d2c b3bc
00000220: efd8 00bc 1ed9 ba3c dfd7 783c 18a8 43bc
00000230: 60fb 36bd 5984 333c 4c20 dbbb adec 24bd
00000240: 7436 98bb df36 75bd 740a 32bd 69ae 5cbd
00000250: 6ca9 823c b31b 8a3d c7e5 ae3d 7266 c43d
00000260: 0c1d 23bc da4f af3c 8680 1abd 1f49 743d
00000270: a5c0 88bc bf26 613d cc21 113d 2260 18ba
00000280: 0a65 d63c be51 1bbd c91d 163c 090b 323d
00000290: 4611 1d3d 13f2 fcbc e06d 7a3d 9e04 fb3b
000002a0: cef7 8eba 47db 19bd c32f 09bd 30cf 6b3b
000002b0: 6256 c03c c2c2 9a3d 6d7f 173d bc05 623d
000002c0: 2efc 46bd 3c7d 1dbd f7de f83c 1458 403d
000002d0: 2fab 1ebd e203 9c3d 6b43 9eba 4f3f 083d
000002e0: c31f 3fbd f02e d83d 66bd 95bc c2d8 093d
000002f0: 714c 983a e934 a83c 201f 023b 465b 1ebc
00000300: 4b89 153a f194 a33c ad18 903d ccba b53c
00000310: 4cfd edbb b549 fe3c 69a4 7d3c a8e0 823d
00000320: fd78 0d3d f938 07bd d5fb 83bb 1d25 8a3d
00000330: fca3 af3d 070c 26bd 0eb8 56bd 28e3 c4bc
00000340: dea3 393c b19c 5c3d c193 413d 8e3f b6bc
00000350: 8644 5fbd 036c 373d 3196 7d3d aae9 40ba
00000360: 7a9c e8bc 9f59 22bc 8596 c43d 1842 d2bb
00000370: 1f4f cbbc 2d40 863d 6dbf 5e3d 7e24 22bc
00000380: 4d1d 453d 12ca e0bb fcc4 22bb 451b 853d
00000390: cedc 4abb e485 7fbd ddad 063d 3036 57bb
000003a0: 478f 20bb 3c62 b7bc 1490 023d c8c1 39bd
000003b0: 6067 993d eb21 563c d808 a53c 03a2 02bd
000003c0: 75e3 8bba 3f71 64bd b39b a03c 0201 94bc
000003d0: 7878 46bc f4a9 d73c 9182 843d d2d4 173d
000003e0: 1db9 1a3d 0288 b93c 6198 b0bc 2296 8ebc
000003f0: 5d1e 3b3c 35e3 163a 2c67 03bd 1ec9 183d
0.04741761 -0.0461676 -0.057395127 0.0033737908 0.0095319 0.07862981 -0.016032621 0.050729778
-0.0061300015 -0.0056805676 0.012361627 -0.038487278 -0.044986036 -0.020089712 -0.02656955 -0.04703595
-0.016184427 -0.018201545 -0.042008214 -0.020818079 -0.07083483 0.0053593745 0.06016699 0.100595385
0.091646574 -0.0024231544 -0.03429737 -0.008927847 0.0015137759 -0.032629225 -0.08024825 -0.010946159
0.019803314 0.05271105 -0.05572568 0.05338346 0.009880484 0.09761678 -0.051457837 0.10096644
2.198548e-06 0.04288501 0.04407161 -0.020981522 0.017651916 0.0637296 0.027072178 0.04449716
0.014248361 -0.018144889 0.04926667 -0.02236531 0.086569004 -0.0073102023 0.05290988 0.07511948
-0.016935425 0.023071116 0.024917273 0.03503164 -0.006868028 -0.04210799 -0.017033424 0.0017599107
0.10390987 -0.008411027 -0.057232648 0.05168234 -0.073998325 -0.0065646716 0.039822776 -0.050753083
-0.012325771 0.0961187 -0.021038756 0.036713056 -0.0004813337 0.10473802 0.016331283 -0.006908598
0.05401067 -0.007201808 0.041499827 -0.0019881718 -0.062712334 0.05150181 -0.02808435 0.08536009
0.053373814 0.094405875 -0.04790742 0.04178324 0.044688303 0.06394392 0.06358188 0.075364865
-0.0017938542 0.021533988 0.015444614 0.014234888 -0.060161375 0.051929716 0.090485565 -0.053969435
-0.0044387057 0.057082605 -0.0015221022 0.06869439 -0.015728284 0.054068815 -0.024644233 0.03229748
-0.02823415 0.040532853 0.0015303135 0.025426915 0.053281706 0.053940658 -0.00880804 0.01540599
-0.067344435 0.096886344 0.01620256 -0.019507196 -0.009191225 -0.009987565 0.02242849 0.0040924563
0.04215896 -0.033910587 0.029800309 -0.020730605 0.057863332 -0.00094174815 0.054408886 -0.02187174
-0.007864221 0.022808608 0.015188186 -0.011941932 -0.044673324 0.010956847 -0.0066871997 -0.040264774
-0.004645163 -0.059866782 -0.043467 -0.053877268 0.015949927 0.067435645 0.0853992 0.095898524
-0.009955656 0.02140038 -0.037720226 0.059640046 -0.016693423 0.05496859 0.03543262 -0.0005812665
0.026171226 -0.037919752 0.009162375 0.043467555 0.03834655 -0.030877149 0.06113994 0.0076604625
-0.0010907592 -0.037562635 -0.033492815 0.0035981648 0.02347869 0.07556678 0.036986757 0.05518125
-0.04858034 -0.03844951 0.030379755 0.046958998 -0.038737472 0.07617928 -0.0012074535 0.0332635
-0.04666115 0.105558276 -0.018278789 0.033653982 0.0011619461 0.020533042 0.0019854978 -0.009665316
0.0005704357 0.019968482 0.070359565 0.022183798 -0.0072628614 0.031041006 0.015481093 0.06390506
0.03453921 -0.033013318 -0.0040278235 0.0674536 0.085761994 -0.040538814 -0.052421622 -0.024034098
0.011330573 0.05386037 0.04726005 -0.022247102 -0.05450871 0.044780742 0.06191081 -0.00073590374
-0.028394926 -0.009909063 0.09599022 -0.0064165704 -0.024818001 0.06555209 0.054381777 -0.009896396
0.048123647 -0.006860026 -0.002483665 0.06499342 -0.0030954364 -0.062383547 0.032880653 -0.0032838695
-0.0024499462 -0.022385709 0.031875685 -0.04535082 0.0749042 0.01306961 0.020145819 -0.031892788
-0.0010672646 -0.055772062 0.019605493 -0.018066887 -0.012113683 0.026326157 0.06470216 0.037068196
0.037774194 0.022647861 -0.021557035 -0.017405573 0.011420813 0.00057559024 -0.032080814 0.037301175

out.weight f4 [4, 256]
00000000: 026e d63d f3f1 f73d 3763 68bb 57bc 1d3e
00000010: 4a44 29bd d542 febd 5d3f 793d 5558 463d
00000020: a139 1b3e 9b95 933d b0ea 8b3d 2c7b a5bd
00000030: 2f94 a13b 9464 48be 4d0f ecbc 4c5c 273d
00000040: 9a33 35be 48be c23d d048 9f3d 3725 6ebc
00000050: 38d6 183e 2572 c03d 8f2f 63be 6c15 363b
00000060: d0c2 36be d204 a63d 0049 ddbd b0f6 a23d
00000070: 65c4 c23d 81c0 713d 8787 553d 2c20 4cbe
00000080: f717 a4bd b8b5 45be cba3 15bd fe91 f3bd
00000090: c10b 073d e0ae 01bd 47e4 08be 721b 00be
000000a0: 63f9 82bd eb9f 06be 7b95 a93d 1d53 c53d
000000b0: e8d1 7bbe 5437 c0bd 96f3 e2bd 90ca 76bd
000000c0: 7a42 4bbb 2009 02be 40d5 4ebe 3eb1 213d
000000d0: 10f3 03be 28dc 153c 7c42 05be edf4 07be
000000e0: f2e9 ab3c 895c 7f3c 16ea d2bd d6ee 2cbc
000000f0: c5a5 0dbd 9a0e 863d 6913 bf3c 0507 033d
00000100: 8296 07be 9f07 843d 82d8 aebc d62f 13be
00000110: 610a 283e 86d2 6d3d 150d 4dbe bb47 313d
00000120: c60f 05be 6932 24be 381d 20be 6b51 713d
00000130: f79b fcbd a388 1fbe ce7e a73d 049f 30be
00000140: af08 103d c4f5 1cbe fa79 c53d a791 d5bd
00000150: a243 163d 57db aabd ddf1 d93c 9533 30be
00000160: 26bf 3fbe 5ba3 08be be70 71bd 666c 6bbe
00000170: 2cff 8f3d 2578 8a3d 4894 f73c 47db 2dbe
00000180: 6fa1 4f3d ee60 8d3c a341 27be 601d 1bbe
00000190: 8394 1ebe e1ca 4d3d 3def dfbd 5d3d d0bd
000001a0: 88c2 803c 1501 90bd 0e8f efbc b299 95bc
000001b0: 4700 cf3d f0de f6bd 48c8 4bbd 7f7d cabc
000001c0: 90e7 183d ae13 803d 4b0e 30be 62bd cd3d
000001d0: 3fe0 e6bd 38c1 e43d c669 c2bc 4a37 2bbe
000001e0: 0e4f 373e 364f edbc e9c2 283d 5f4a b23d
000001f0: 250e 573c 6641 bb3d bde0 643d eb10 e13b
00000200: 6e16 66bd 3c94 543b d55f 653d 7f90 c9bd
00000210: eb68 0fbe 94e2 b63d bab5 04be 5e54 663c
00000220: 5569 2dbe dfc5 1e3d 75b6 48be 287d fdbd
00000230: d830 a3bd e2a7 d03c 5d1e a73d 5d3a fcbc
00000240: 19fa 22be 5699 273e 78a7 0a3e 2bd0 3b3e
00000250: 864f 993d ba52 50be e2e4 843d a12b f23b
00000260: 9ef0 0c3d 7d63 90bd 160a 973d 6d42 a43d
00000270: e92f f9bd d876 b13d fb81 213d 5219 d5bc
00000280: e616 88bb 8990 ef3c ce40 cdbd eb36 6abe
00000290: 9789 8fbd 51d5 303d 2d91 61bd 751f 12be
000002a0: 119f 843d c72b 903d 74d7 7bbd fefb c6bd
000002b0: e4f6 893d d1e0 a83c dc8a 18be a2f0 82bd
000002c0: b0ed c7bd 2117 823d f65e 6fbd 7679 403d
000002d0: 776d 0ebd 9996 3bbe 3115 e63c 664c 613d
000002e0: be25 dc3d 7a2d fbbd 8095 11be 880e 3cbe
000002f0: 8994 40be 60fb 513b b7f6 0fbe 94bb bb3d
00000300: 1a17 a43c 42d3 4b3d a069 bebc d311 09bd
00000310: 1c25 15be f03a 553c c85f 31be ad8b 4ebe
00000320: 84dc 4ebe 53b2 2d3e 9831 65bc a66c 8a3d
00000330: 5188 35be 35da d53d 68d8 b53d dcdc 883d
00000340: 6964 613d 82a3 96bd 764b 21be 0747 77bd
00000350: 86a5 f4bd 0268 c33c 8915 4a3d 7ffc 38be
00000360: f7aa 99bd c4cc 13bd 0434 36be 59d7 633c
00000370: e860 673d 6e43 03be fa31 383c 2f8f d2bc
00000380: d1df c83d b080 8c3d e6b5 b03d dab5 09be
00000390: c298 0cbe d8a1 29bd 8c13 12be 5991 05be
000003a0: f118 853d 6e6a d33c a348 e8bd b59e 123d
000003b0: d07f 3abe 5637 903d 002d e6bd 1d5a 8dbd
000003c0: e2d0 62bc 1404 9ebd 8087 b8bc a9c4 8f3c
000003d0: a112 c23d 7a5e a5bd 0a86 533d 8d4c eb3c
000003e0: b4b7 583d 46ec 893c 452f edbd 87ff 18be
000003f0: 36b1 cebd 5dad fabd 7f76 403d af2e bdbd
0.10470201 0.12106695 -0.0035459527 0.15403877 -0.04132489 -0.12415091 0.060851444 0.048424084
0.15158702 0.07206269 0.068318725 -0.08080134 0.004930995 -0.19569618 -0.02881589 0.040859506
-0.17695466 0.095089495 0.0777756 -0.01453524 0.14925468 0.09396771 -0.22186111 0.0027783765
-0.17847753 0.08106388 -0.10804939 0.07957208 0.095101155 0.059021477 0.052131202 -0.19934148
-0.080123834 -0.19307601 -0.03653316 -0.1189308 0.032970194 -0.031660914 -0.13368331 -0.1251047
-0.06395223 -0.13146941 0.08280464 0.09634993 -0.24591792 -0.09385553 -0.110816166 -0.060251772
-0.0031014965 -0.12698793 -0.20198536 0.039475672 -0.1288569 0.009146728 -0.13013643 -0.13277026
0.020985577 0.015586027 -0.102985546 -0.01055499 -0.03458192 0.06545754 0.023324685 0.031989116
-0.13241008 0.06446766 -0.021343473 -0.14373717 0.16410209 0.0580621 -0.20024522 0.043281298
-0.12994298 -0.16034855 -0.15636146 0.058915537 -0.123344354 -0.15579467 0.08178483 -0.1724816
0.03516453 -0.15328127 0.09642406 -0.104281716 0.036685593 -0.08342617 0.026604587 -0.17207177
-0.18725261 -0.13343565 -0.05894541 -0.2299057 0.07031092 0.06761197 0.030222073 -0.16978179
0.050691064 0.017258134 -0.16333632 -0.15147924 -0.1548634 0.05024231 -0.10934303 -0.10167954
0.01571776 -0.070314564 -0.029243018 -0.018261764 0.10107475 -0.12054241 -0.04975155 -0.024718044
0.03733021 0.062537536 -0.17192952 0.100458875 -0.1127324 0.11169666 -0.023732077 -0.1672031
0.1790125 -0.028968435 0.041201506 0.087055914 0.013125931 0.09143333 0.05587839 0.006868472
-0.056173734 0.0032436987 0.055999596 -0.098420136 -0.14004867 0.08929935 -0.12959948 0.014058201
-0.16934712 0.038762923 -0.19600852 -0.12377387 -0.079683006 0.025470678 0.08160088 -0.030789549
-0.15915717 0.16367087 0.13540447 0.18341129 0.07485871 -0.20344058 0.064889684 0.007390455
0.034409158 -0.07050226 0.073749706 0.08020482 -0.12167341 0.08665246 0.0394306 -0.02601305
-0.0041531203 0.029243724 -0.10022126 -0.22872512 -0.07008665 0.043172184 -0.05507009 -0.14269812
0.06475652 0.070396 -0.06148477 -0.097160324 0.06736544 0.020615013 -0.1489672 -0.06393553
-0.09762132 0.06352068 -0.05844017 0.046990834 -0.034772363 -0.18319167 0.028086277 0.0550045
0.10749386 -0.12264533 -0.14217186 -0.18364918 -0.18806662 0.00320407 -0.14058958 0.09166637
0.020030547 0.049762018 -0.023243725 -0.033464264 -0.14564937 0.01301454 -0.17321694 -0.2017047
-0.20201308 0.16962557 -0.013988875 0.06759004 -0.17727782 0.1044201 0.08879167 0.066827506
0.0550274 -0.073554054 -0.15751442 -0.06037047 -0.119456336 0.023853306 0.049336944 -0.1806507
-0.07503312 -0.03608395 -0.1779328 0.013906323 0.0564889 -0.12818691 0.011242384 -0.02570304
0.098083146 0.06860483 0.086284444 -0.13448277 -0.13730147 -0.04141411 -0.14265269 -0.13043727
0.06498898 0.025807586 -0.11341979 0.035795886 -0.18212819 0.070418045 -0.11239052 -0.06901953
-0.013843747 -0.077156216 -0.022525549 0.01754983 0.094762094 -0.080746606 0.0516415 0.028723026
0.052909568 0.016836297 -0.115812816 -0.14941226 -0.10092394 -0.12240098 0.046988007 -0.0923742

out.bias f4 [4]
00000000: be78 8d3c 3c6f 153c 7c34 a4bc e3fa 833c
0.017269488 0.009120759 -0.020044558 0.016110843
