mobile_price_category_predict/model/mobile_price_class_predict.pth (torch, 150265 bytes, 6 tensors)

linear1.weight f4 [128, 20]
0	0x3d1ca0ae	0.038239174
1	0xbcce55a0	-0.025187314
2	0xbe5d4e7e	-0.21611974
3	0xbe0d6c9c	-0.13810962
4	0x3cd8e302	0.026475433
5	0x3e08e285	0.1336766
6	0xbe1b8714	-0.15188247
7	0xbe1d5cd4	-0.15367442
8	0xbe3131fb	-0.17304222
9	0xbe4eea35	-0.2020653
10	0xbc9c6a66	-0.019093703
11	0xbd26251e	-0.04056274
12	0xbe171384	-0.14753538
13	0xbcddcf8b	-0.027076503
14	0xbddde438	-0.10834545
15	0x3e5d90d9	0.21637286
16	0xbe47ce3c	-0.19512266
17	0xbe5b7912	-0.21432903
18	0xbc6806ea	-0.014161805
19	0xbe14fe52	-0.1455014
20	0xbde3ad15	-0.11116997
21	0xbe26682d	-0.16250677
22	0x3d1deb10	0.03855425
23	0x3d836b0c	0.06416902
24	0xbe2e415c	-0.1701712
25	0x3e2d3280	0.16913795
26	0xbe0a3f16	-0.13500628
27	0xbdf8d6b6	-0.12150328
28	0xbdb162da	-0.086614326
29	0x3d844aec	0.06459603
30	0x3d8e9e94	0.0696384
31	0x3e1c7640	0.15279484
32	0xbdb90b0c	-0.0903531
33	0xbdb73cd6	-0.089471504
34	0x3c34bd40	0.011031449
35	0xbd54556c	-0.051839277
36	0x3e353b34	0.17698365
37	0x3d04e208	0.032442123
38	0x3d7ecb28	0.062205464
39	0xbdf1a49c	-0.11798975
40	0xbd9d9b75	-0.07695667
41	0x3e318689	0.17336477
42	0xbe06bb1c	-0.13157314
43	0xbe4bf904	-0.1991921
44	0x3d23b7df	0.039970275
45	0xbc9b5df0	-0.018965691
46	0x3d08bd2c	0.033383533
47	0xbd9856c5	-0.07438425
48	0x3d287eac	0.04113643
49	0xbdb4e13c	-0.088320225
50	0x3e132072	0.14367846
51	0xbc887174	-0.016655661
52	0xbd24fe41	-0.040281538
53	0xbdaa5fa0	-0.0831902
54	0x3e1fb2b2	0.1559551
55	0xbd83ff72	-0.06445207
56	0x3e5c17b4	0.21493417
57	0xbe2d40c7	-0.16919242
58	0xbce6ccc7	-0.028173817
59	0xbde7979d	-0.11308215
60	0xbe8352a7	-0.25648996
61	0x3bfa80cb	0.007644748
62	0x3c5a8eb3	0.013339686
63	0xbd99d0fc	-0.07510564
64	0x3e28763b	0.16451351
65	0x3dde656c	0.108591884
66	0x3dcebb52	0.10094322
67	0x3e23f9a4	0.16013199
68	0xbe5acc51	-0.21367003
69	0xbe180764	-0.1484657
70	0x3d3b4c56	0.045727096
71	0xbd3cfb7a	-0.046138264
72	0xbe20aabf	-0.15690134
73	0xbe9ea68d	-0.30986443
74	0x3e2c8ba3	0.16850142
75	0x3d2fc143	0.042908918
76	0xbe410258	-0.1884855
77	0x3d5f65ae	0.05454033
78	0x3d06d9af	0.032922443
79	0x3e3df84e	0.18551752
80	0xbdb90f65	-0.090361394
81	0xbe10d033	-0.14141922
82	0x3e4689e9	0.19388546
83	0x3e116d9f	0.14201973
84	0xbdf03dfe	-0.11730574
85	0x3e016f9e	0.12640235
86	0xbdf307c2	-0.11866714
87	0x3d934bf3	0.071922205
88	0x3d118505	0.035527248
89	0x3e2a2141	0.16614248
90	0xba9e9cbb	-0.0012101153
91	0x3dbd67b7	0.09248298
92	0xbd6016c8	-0.054709226
93	0xbd88142a	-0.06644471
94	0xbd3fd463	-0.046833407
95	0xbbdfbbb3	-0.0068277954
96	0x3bfea266	0.0077708242
97	0x3e3038e9	0.1720921
98	0xbde93899	-0.11387748
99	0x3b514558	0.0031932201
100	0xbd321b8e	-0.04348331
101	0x3cadb05e	0.021202262
102	0xbdc8b257	-0.097996406
103	0xbd8874ac	-0.066628784
104	0xbdd056b8	-0.1017279
105	0x3e10df00	0.14147568
106	0x3dbdc982	0.0926695
107	0xbe374a4a	-0.17899433
108	0xbdef54de	-0.11686109
109	0x3da3e4bd	0.08002613
110	0xbd86f407	-0.06589513
111	0x3de04ebf	0.109525196
112	0xbd1cce04	-0.03828241
113	0xbe14109c	-0.14459461
114	0xbe3e0223	-0.18555503
115	0xbe561742	-0.2090731
116	0xbe387d83	-0.18016629
117	0xbd0f0cae	-0.0349242
118	0x3d3217a1	0.043479566
119	0xbdf66a89	-0.12032039
120	0x3e1bef83	0.15228085
121	0xbe3c5ac8	-0.18394005
122	0xbe60597d	-0.21909137
123	0x3e37b10d	0.17938633
124	0xbd2f44ce	-0.042790227
125	0xbc1a3395	-0.009411712
126	0xbe2d670b	-0.16933839
127	0xbe502249	-0.20325579
128	0x3ea9997a	0.33124906
129	0x3e101739	0.14071359
130	0x3e6556fb	0.22396462
131	0xbd814151	-0.06311286
132	0x3d9145a1	0.07093359
133	0xbe14277c	-0.14468187
134	0x3dd923a4	0.10602501
135	0xbc025ff9	-0.007957452
136	0x3de8dbb2	0.113700286
137	0xbdd982b1	-0.106206305
138	0xbcee9a28	-0.029126242
139	0xbd224598	-0.03961715
140	0x3e1a89e6	0.15091667
141	0x3c8aa635	0.016924957
142	0xbda36092	-0.07977404
143	0x3dfee1ae	0.12445389
144	0x3c83384b	0.016018054
145	0x3d67b465	0.056568522
146	0x3dbbf695	0.09177891
147	0x3e4fed49	0.20305361
148	0xbdc28490	-0.094979405
149	0x3c9407bc	0.018070094
150	0x3cc99c6d	0.024610722
151	0x3dfd8048	0.12377983
152	0xbe12ce4d	-0.1433651
153	0xbe3d24c5	-0.18471058
154	0xbe5f1f77	-0.21789347
155	0x3ded5e95	0.11590306
156	0x3cea66c5	0.028613457
157	0xbd23031e	-0.039797895
158	0x3d700c6b	0.058605593
159	0x3dd8263f	0.1055417
160	0xbc82269a	-0.015887547
161	0x3e38664f	0.18007778
162	0x3ac85391	0.0015283694
163	0xbdaa4359	-0.08313627
164	0x3e08128e	0.13288328
165	0xbe5c0d6d	-0.21489497
166	0xbdd3514c	-0.103182405
167	0x3df91cfc	0.121637315
168	0x3ddb13ac	0.106971115
169	0x3e4e7f82	0.20165828
170	0xbe4f1588	-0.20223057
171	0x3b08f7fc	0.0020899763
172	0xbe9583b8	-0.29202056
173	0xbd24b21c	-0.04020892
174	0x3e4fc77d	0.20290942
175	0x3e4349a7	0.19071065
176	0xbe1c4ec0	-0.15264416
177	0x3de41be7	0.111381344
178	0xbb73a4d1	-0.0037177096
179	0x3e3f3966	0.1867424
180	0xbcf63d69	-0.03005858
181	0x3e52fcc7	0.2060424
182	0x3e067bb4	0.13133126
183	0x3e583b4b	0.21116368
184	0x3e63e595	0.22255547
185	0xbe4825dd	-0.19545694
186	0xbe2240d0	-0.15845037
187	0x3d5b9fc1	0.05361915
188	0xbe1cff52	-0.15331772
189	0xbcd95877	-0.026531441
190	0x3e11a088	0.14221394
191	0x3db3d490	0.087807775
192	0x3ddcddd6	0.10784499
193	0xbeb501c8	-0.3535292
194	0xbdd097fe	-0.1018524
195	0xbd4fe2a1	-0.05075324
196	0x3d8d84af	0.06910073
197	0xbe3998c5	-0.18124683
198	0x3d802d7d	0.06258676
199	0xbde2e0c9	-0.110780306
200	0xbdd0f2e1	-0.102025755
201	0xbdc8b764	-0.09800604
202	0x3e4e1da4	0.20128495
203	0x3dea5790	0.114424825
204	0x3d912db1	0.07088793
205	0xbdea4bd0	-0.11440241
206	0xbe1acbd2	-0.15116814
207	0xbe42b6d2	-0.19015053
208	0xbe576d02	-0.21037677
209	0x3d5b17c1	0.05348945
210	0xbdb10deb	-0.08645233
211	0x3d6c4c7a	0.05769012
212	0x3e00f872	0.12594774
213	0xbe70d26a	-0.23517767
214	0xbe5e2a84	-0.21695906
215	0xbe2697c1	-0.16268827
216	0x3e035989	0.12827124
217	0x3e50dfa7	0.20397817
218	0x3e22fa58	0.15915811
219	0xbd0f571b	-0.03499518
220	0x3ab516b1	0.0013815967
221	0xbcb7eba7	-0.022451235
222	0xbd2e6017	-0.042572107
223	0x3e173be2	0.14768937
224	0xbcc4b2f8	-0.02401112
225	0x3d9fd40f	0.07804119
226	0xbe4f97ce	-0.20272753
227	0xbdc639c4	-0.09678987
228	0x3e2621b4	0.16223794
229	0x3e21f477	0.15815912
230	0xbd6252fe	-0.05525493
231	0x3d9c4a35	0.07631341
232	0xbddcbbd5	-0.107780136
233	0xbdf07e58	-0.11742848
234	0xbe3324c1	-0.17494489
235	0x3e1af1c3	0.15131287
236	0x3dff3e74	0.12463084
237	0xbcd0fdf9	-0.025511729
238	0xbe5dd677	-0.21663843
239	0xbc99957d	-0.01874804
240	0xbdd242e1	-0.102666624
241	0xbd9edd05	-0.07757
242	0x3aa829cd	0.001282984
243	0x3e60554c	0.21907538
244	0xbe345697	-0.17611156
245	0x3e04cdee	0.12969181
246	0x3dc6d947	0.09709411
247	0xbdbd2065	-0.092346944
248	0xbe38e2cd	-0.18055268
249	0xbd92e5fc	-0.07172772
250	0xbdfe2e6e	-0.124111995
251	0x3e1c478b	0.15261666
252	0xbdafba91	-0.085805066
253	0xbda3b450	-0.07993376
254	0xbcbfccde	-0.023413118
255	0x3d7b30c6	0.06132581

linear1.bias f4 [128]
0	0x3daeafbc	0.085296124
1	0x3dd970f0	0.10617244
2	0xbd1bda1e	-0.03804981
3	0xbe4f5faf	-0.20251344
4	0x3d4b1e6d	0.049589563
5	0xbe55ff3d	-0.20898147
6	0xbd8e3a3b	-0.069447
7	0x3bca1778	0.0061673485
8	0xbe40fa18	-0.18845403
9	0x3d0d9799	0.034568403
10	0xbc3fd281	-0.011707903
11	0x3e4bfd03	0.19920735
12	0xbe216f50	-0.15765119
13	0x3d5da7d3	0.054115128
14	0xbda93db4	-0.08263722
15	0x3e0050bc	0.12530798
16	0x3d9a0569	0.07520563
17	0xbdc7f6e1	-0.09763885
18	0x3d0ed6cf	0.034872826
19	0x3c6d0e64	0.014468763
20	0xbe0d1d96	-0.13780817
21	0x3df37cea	0.1188906
22	0xbe53177f	-0.20614432
23	0xbda160fb	-0.07879826
24	0x3ddafd5f	0.10692858
25	0xbe1df8c1	-0.15426923
26	0xbe2112eb	-0.15729873
27	0xbda28ff5	-0.07937614
28	0x3e0b4791	0.13601519
29	0x3e22fa12	0.15915707
30	0xbdd9cd80	-0.10634899
31	0x3da0f2b8	0.07858795
32	0xbd59e6f0	-0.053198755
33	0xbd6577a6	-0.05602231
34	0xbdf09034	-0.117462546
35	0xbe312555	-0.17299397
36	0xbd444933	-0.04792137
37	0x3e2fd296	0.17170176
38	0xbc1e2191	-0.009651558
39	0x3dd327b2	0.10310306
40	0x3d9fbb2d	0.07799373
41	0x3e2f51c4	0.17121035
42	0xbdfe92c2	-0.124303356
43	0x3e589948	0.21152222
44	0x3dc4cff9	0.0960998
45	0xbe0a2501	-0.13490678
46	0xbcc1cb98	-0.023656651
47	0xbe5d6f3c	-0.21624464
48	0x3e2a0c8e	0.16606352
49	0x3e05e6d2	0.13076332
50	0x3de8547c	0.11344239
51	0x3e196da8	0.14983237
52	0xbd0617f9	-0.032737706
53	0xbe2a50ee	-0.16632435
54	0xbc019280	-0.0079084635
55	0xbe57d4f4	-0.21077329
56	0x3e23fdb9	0.16014756
57	0x3e1e7b9e	0.15476844
58	0x3d8dcc95	0.069237866
59	0x3e064e08	0.13115704
60	0x3e1e81e0	0.15479231
61	0xbdc2a2ca	-0.09503706
62	0x3d7f9dd1	0.062406365
63	0x3df4ac8b	0.119469725
64	0xbe48eb17	-0.1962093
65	0xbe37e60b	-0.17958848
66	0xbdea1430	-0.11429632
67	0x3e08104e	0.1328747
68	0x3da253a5	0.0792611
69	0xbe5652a5	-0.20929964
70	0xbceb4649	-0.028720038
71	0xbd110e1e	-0.035413854
72	0xbdb9868f	-0.09058868
73	0x3caaf6f0	0.020869702
74	0xbe5a2f0e	-0.21307012
75	0x3dd54a7f	0.104145996
76	0xbd6b6650	-0.05747062
77	0xbe59059b	-0.21193545
78	0x3dc7382c	0.09727511
79	0xbb861031	-0.0040912856
80	0xbd02bb64	-0.03191699
81	0x3c8d27ba	0.017230857
82	0xbe2ca4be	-0.16859719
83	0xbe1d52eb	-0.15363662
84	0xbe2d7c73	-0.16942005
85	0x3dd8beea	0.10583289
86	0xbd341e56	-0.043974243
87	0xbd71f7e9	-0.059074316
88	0xbd89f71e	-0.06736587
89	0xbd917eea	-0.07104285
90	0x3e1872b6	0.14887509
91	0x3e1c373f	0.1525545
92	0x3e145747	0.14486419
93	0x3e413863	0.18869166
94	0x3d84394c	0.06456241
95	0x3e14cad2	0.14530495
96	0x3dac427c	0.084111184
97	0x3d04bfea	0.032409586
98	0x39bedf65	0.00036406066
99	0x3d99576b	0.07487377
100	0x3be5ddf2	0.0070149833
101	0x3e238806	0.15969858
102	0x3dbcf697	0.09226721
103	0xbe619828	-0.22030699
104	0x3ddeaee8	0.108732045
105	0x3df4ac50	0.119469285
106	0x3df68748	0.120375216
107	0xbe1d8eb1	-0.15386464
108	0xbe361988	-0.17783177
109	0x3c41aed1	0.011821465
110	0x3e5f79aa	0.21823755
111	0x3d9426f5	0.07233993
112	0x3e27cb60	0.16386175
113	0x3e18e934	0.1493271
114	0x3dffb174	0.124850184
115	0xbd9b0b96	-0.07570569
116	0xbe239b58	-0.15977228
117	0xbe31d553	-0.17366533
118	0x3c0df03e	0.008663235
119	0xbe553c49	-0.20823778
120	0x3e16077e	0.14651296
121	0x3db97968	0.090563595
122	0x3dfad272	0.122471705
123	0xbe2bd739	-0.1678132
124	0xbe107b34	-0.14109498
125	0xbe507cde	-0.20360133
126	0xbe3cb516	-0.18428454
127	0xbd867397	-0.06565016

linear2.weight f4 [256, 128]
0	0x3d6d8cda	0.057995655
1	0x3d97f4ad	0.07419715
2	0xbb83d035	-0.004022623
3	0xbcd6f5cc	-0.026240252
4	0x3d9b1598	0.07572478
5	0x3d87dfdb	0.06634494
6	0x3c891d54	0.016737618
7	0x3b4cadb8	0.0031231474
8	0x3d01a619	0.031652544
9	0x3d8b1b8f	0.06792366
10	0xbcb90732	-0.022586439
11	0x3da9848c	0.082772344
12	0x3d592de1	0.05302227
13	0x3d1505cc	0.03638248
14	0x3da82084	0.08209327
15	0xbd469dc5	-0.048490304
16	0xbc8bbcea	-0.017057855
17	0x3d1a3fbe	0.037658446
18	0xbd2f675d	-0.042823184
19	0x3d973657	0.073834114
20	0x3d3d74dc	0.046254024
21	0x3daff987	0.085925154
22	0x3d31e977	0.04343554
23	0xbda9a071	-0.08282555
24	0x3d097c91	0.03356606
25	0xbd3879c5	-0.045038003
26	0xbd93bd13	-0.072137974
27	0x3c985757	0.018596334
28	0x3d03b719	0.032157037
29	0x3db1c694	0.08680454
30	0xbd7d108f	-0.06178337
31	0xbd8f3bfe	-0.069938645
32	0xbb9b93e0	-0.0047478527
33	0xbc17c568	-0.009263374
34	0xbd365dda	-0.044523098
35	0x3d076ca0	0.033062577
36	0xbd08bdbe	-0.033384077
37	0x3a561077	0.00081659056
38	0x3ccc649c	0.024950318
39	0xbc96a98f	-0.018391399
40	0xbdbb0a79	-0.09132857
41	0x3d70166e	0.05861514
42	0x3ce3cd98	0.027807996
43	0x3d5f7ede	0.05456435
44	0xbafc7a80	-0.0019262582
45	0xbda9c506	-0.08289532
46	0xbd5671c2	-0.05235458
47	0xbc96d0d7	-0.01841013
48	0x3c80405a	0.015655685
49	0xbd643dfd	-0.05572318
50	0x3cc83825	0.024440834
51	0x3d3d1709	0.046164546
52	0xbdb2f274	-0.087376505
53	0x3d370676	0.044683896
54	0xbd801195	-0.062533535
55	0x3c169287	0.009190208
56	0x3cd1561a	0.025553752
57	0x3d0e40fe	0.03472995
58	0x3c98182e	0.018566217
59	0x3d9aaf71	0.07552994
60	0x3d9434df	0.07236647
61	0x3d43417f	0.047669884
62	0x3d2b863d	0.041876066
63	0xbd7d7dd8	-0.061887592
64	0x3da0e7f2	0.0785674
65	0x3d62ed4e	0.055402093
66	0xbc87bc94	-0.016569413
67	0x3cf00590	0.029299527
68	0x3d8cd994	0.06877437
69	0xbdb30b7c	-0.08742425
70	0x3ca41efd	0.020034308
71	0xbd964768	-0.073378384
72	0xbd72e6e0	-0.05930221
73	0x3d562cae	0.052288704
74	0xbd1bfc90	-0.03808266
75	0xbca38d3b	-0.019964805
76	0xbc0ef3d0	-0.008725122
77	0x3d848e94	0.06472507
78	0xbd817173	-0.06320467
79	0x3da13673	0.078717135
80	0xbbec76a0	-0.0072162896
81	0x3bc2293c	0.0059253257
82	0xbdb5f0ee	-0.08883844
83	0xbc1d3965	-0.009596203
84	0x3d889f3b	0.06670996
85	0xbd68d01c	-0.056839094
86	0x3d042094	0.03225763
87	0x3d342b50	0.04398662
88	0xbca977f4	-0.02068708
89	0xbc76b03f	-0.015056669
90	0xbd8c9944	-0.068651706
91	0xbc2477ff	-0.010038375
92	0x3d42bea2	0.047545083
93	0xbd04a5f6	-0.032384835
94	0xbda19b1e	-0.078909144
95	0xbd024a0a	-0.03180889
96	0xbc04baa1	-0.008101136
97	0x3d28aa5d	0.041178096
98	0x3d9771c2	0.073947445
99	0xbdabad2b	-0.083826385
100	0xbda86e3e	-0.08224152
101	0x3d9fc02b	0.07800325
102	0xbcaf806f	-0.021423547
103	0x3d4ab8ce	0.04949265
104	0x3c8f5e04	0.017500885
105	0xbda0641f	-0.078315966
106	0xbd7ee655	-0.06223138
107	0xbda01f4f	-0.07818472
108	0xbcd76cdf	-0.026297031
109	0xbd960cb5	-0.073266424
110	0xbc2369c3	-0.009973946
111	0xbda1b099	-0.078950115
112	0xbd9de563	-0.07709768
113	0x3d39abee	0.04532998
114	0xbd9dd628	-0.07706863
115	0xbda789e2	-0.08180596
116	0xbc48fb58	-0.012266956
117	0xbcfbbb9b	-0.030729106
118	0xbd4cac8f	-0.049969252
119	0x3d9b6c45	0.0758901
120	0x3d8dd196	0.06924741
121	0xbdb30517	-0.08741205
122	0xbd849832	-0.064743415
123	0xbd642dc1	-0.055707697
124	0xbc9be0af	-0.019028036
125	0x3d83de37	0.064388685
126	0xbd8948f1	-0.067033656
127	0x3da171f4	0.07883063
128	0x3d3c8369	0.04602376
129	0x3c8c1320	0.017098963
130	0xbdaa03b8	-0.083014905
131	0x3d825046	0.06362967
132	0x3c6fcf49	0.014636823
133	0xbd80359f	-0.062602274
134	0x3d0d318b	0.034471076
135	0xbcf28d54	-0.029608406
136	0xbd1432f3	-0.0361814
137	0xbbb38b1e	-0.0054792305
138	0xbdd7f8f0	-0.10545528
139	0x3d377182	0.044785984
140	0x3dac6c30	0.08419073
141	0xbcbb96a8	-0.022898987
142	0xbc8efb69	-0.017453866
143	0x3d6d2f1c	0.057906255
144	0xbe03b4b2	-0.12861899
145	0xbd8323cb	-0.06403311
146	0x3d3a67f9	0.045509312
147	0xbda22776	-0.07917683
148	0xbd81418e	-0.06311332
149	0xbd166e21	-0.03672612
150	0x3d073204	0.033006683
151	0x3db4041a	0.08789845
152	0x3d8602bf	0.065434925
153	0xbd5a4db5	-0.053296763
154	0xbe02806a	-0.12744299
155	0xbe079025	-0.1323858
156	0xbd46640e	-0.048435263
157	0x3c8c193b	0.017101875
158	0x3d343c5e	0.044002883
159	0x3d22ec06	0.03977587
160	0xbd4bcda7	-0.049756672
161	0xbaf9cd1b	-0.0019058319
162	0x3d885321	0.066564806
163	0x3d01ef96	0.031722628
164	0x3d926947	0.07148986
165	0xbd0fe0f4	-0.03512664
166	0xbd966440	-0.0734334
167	0xbdd2d108	-0.10293776
168	0x3d9929d3	0.074786805
169	0xbcdefc4b	-0.027219912
170	0xbc72dcf0	-0.014823183
171	0x3af47e4f	0.0018653366
172	0x3d17d0a2	0.037064202
173	0xbcbbcf9c	-0.022926144
174	0x3c1633b8	0.009167604
175	0x3d872ce4	0.06600359
176	0xbd51ab2c	-0.051188633
177	0x3e065f47	0.13122283
178	0x3d1959e1	0.03743923
179	0x3dca194c	0.09868106
180	0x3ad07841	0.0015904979
181	0x3d97a754	0.07404962
182	0xbcc65757	-0.024211569
183	0x3d7a29a6	0.061074875
184	0xbda42eb8	-0.080167234
185	0xbd0d8e2c	-0.034559414
186	0x3d8d721e	0.06906532
187	0x3d8fb67f	0.0701723
188	0x3c27a460	0.010232061
189	0xbd3732e0	-0.044726253
190	0xbcd592f2	-0.026071046
191	0x3c269810	0.01016809
192	0x3d14476f	0.036200937
193	0xbd910dee	-0.07082735
194	0xbba980b2	-0.0051728124
195	0xbdb1255f	-0.08649706
196	0xbcef9142	-0.029244069
197	0x3cf870bb	0.030327192
198	0x3da1fbce	0.07909356
199	0xbdca299d	-0.09871218
200	0xbd88f9ca	-0.066882685
201	0xbd627f84	-0.05529739
202	0x3d4de15a	0.05026374
203	0x3cda22da	0.026627947
204	0xbcbf1298	-0.023324296
205	0xbd1a9fec	-0.03775017
206	0x3cb0b828	0.021572188
207	0x3d099429	0.033588562
208	0x3da496c1	0.080365665
209	0x3d5b6cf0	0.053570688
210	0x3dbbbd0c	0.09166917
211	0x3d3ff462	0.04686392
212	0x3d3d9157	0.046281185
213	0x3c376bfa	0.011195177
214	0x3cb1adfc	0.021689408
215	0xbd8f252c	-0.06989512
216	0xbc31c232	-0.010849522
217	0xbd6ebe21	-0.05828679
218	0xbda58743	-0.0808244
219	0xbdb1ec15	-0.08687607
220	0xbd44aa8b	-0.048014205
221	0x3d4133be	0.047168486
222	0x3d7b460a	0.06134609
223	0x3d7bf016	0.06150826
224	0xbc86debd	-0.016463632
225	0x39739172	0.00023228468
226	0xbb912c77	-0.0044303495
227	0xbdd7a031	-0.10528601
228	0xbd4d586b	-0.05013315
229	0xbdc0cd32	-0.09414138
230	0xbb03704d	-0.002005595
231	0x3d8909b5	0.066913046
232	0x3d429812	0.047508307
233	0xbd14bb31	-0.036311332
234	0xbcb1b840	-0.021694303
235	0xbd964134	-0.07336655
236	0xbd73d1b3	-0.059526157
237	0xbd23f297	-0.040026274
238	0xbcb4e64d	-0.022082472
239	0x3c83115f	0.015999494
240	0xbdb32666	-0.08747558
241	0x3d652366	0.05594196
242	0xbdaee0cd	-0.08538971
243	0x3d581f62	0.052764304
244	0x3d32d9a6	0.043664597
245	0xbd76382c	-0.060112163
246	0xbd35cc20	-0.044384122
247	0x3c7bb1e4	0.015362237
248	0x3dd42b8b	0.10359868
249	0xbb0333c8	-0.0020019878
250	0x3de9e249	0.114201136
251	0x3c97551d	0.018473202
252	0x3cb26f8a	0.021781702
253	0x3d4bfaba	0.04979966
254	0xbbb26265	-0.0054438584
255	0x3d63f01f	0.05564892

linear2.bias f4 [256]
0	0xbd44ae68	-0.04801789
1	0xbba1df61	-0.004939959
2	0x3dab3dd7	0.083614044
3	0xbd253163	-0.040330302
4	0x3c4a35ba	0.012341911
5	0xbd0e187a	-0.03469131
6	0xbd1a6b96	-0.03770026
7	0x3ccf37b1	0.02529511
8	0x3d34728c	0.044054553
9	0xbca8c493	-0.020601546
10	0xbc76a3a9	-0.015053668
11	0x3e10904c	0.14117545
12	0x3db13184	0.086520225
13	0x3db3b0e2	0.08773972
14	0x3d26273b	0.040564757
15	0xbda626aa	-0.08112843
16	0x3c1d310b	0.009594212
17	0x3d974ca0	0.07387662
18	0xbd0e8cd5	-0.034802277
19	0xbd8fb82f	-0.07017552
20	0xb9ccb87c	-0.00039047364
21	0x37e25d9c	2.698489e-05
22	0xbc1d658a	-0.009606728
23	0xbd228150	-0.039674103
24	0x3d1eabb8	0.038737983
25	0x3e2ae240	0.1668787
26	0x3d3bea3d	0.045877684
27	0x3d6950b9	0.05696175
28	0xb946ca54	-0.00018958125
29	0xbca1f3ee	-0.019769635
30	0xbdb3d916	-0.0878164
31	0x3dbdc1e9	0.09265501
32	0xbc447e31	-0.011992977
33	0xbcb2e243	-0.021836406
34	0xbd9b68cf	-0.0758835
35	0xbca18a77	-0.019719345
36	0xbd2d27b5	-0.042274196
37	0x3d7955e0	0.060872912
38	0xba4fcd77	-0.000792704
39	0xbca0ce21	-0.01962954
40	0x3db4e759	0.088331886
41	0xbd2c0dc9	-0.042005334
42	0xb87f8528	-6.092075e-05
43	0x3a097f20	0.00052450784
44	0x3e328198	0.17432249
45	0x3d93314b	0.07187136
46	0xbd0dad3a	-0.03458903
47	0x398293b8	0.0002490559
48	0x3db069bd	0.08613918
49	0xbc6a7476	-0.014309993
50	0xbd9a88a2	-0.07545592
51	0xbd49b025	-0.04924025
52	0x3d83abaa	0.06429227
53	0xbda40de6	-0.080104634
54	0xbcfe024f	-0.03100696
55	0xbda01fcb	-0.07818564
56	0x3cbee033	0.023300266
57	0xb92767bd	-0.00015965007
58	0x3da5090e	0.08058368
59	0x3d934a0b	0.07191857
60	0x3d7a8c3f	0.061168905
61	0xbdb3e84d	-0.08784542
62	0xbd522279	-0.051302407
63	0xbc3dd422	-0.011586221
64	0x3d352607	0.04422572
65	0xbd9da511	-0.076974995
66	0x3da77515	0.081766285
67	0xbd0d694e	-0.034524255
68	0x3dc629b8	0.09675926
69	0x3e2fd905	0.1717263
70	0xb7c3f486	-2.3359677e-05
71	0x3da78670	0.08179939
72	0x3d073bd0	0.033016026
73	0x3c7e00ed	0.01550315
74	0xb9dfa260	-0.00042654853
75	0xbd9a0991	-0.07521356
76	0xbd2e073a	-0.04248736
77	0x3d371f94	0.04470785
78	0x3d8100f1	0.06299008
79	0xbd80b03a	-0.062836125
80	0xbd063666	-0.032766722
81	0xbda986c5	-0.082776584
82	0xbd4f60ce	-0.05062943
83	0xbc7e6cfc	-0.015528914
84	0xbb24aaf9	-0.0025126322
85	0x3dcdcdd9	0.10049028
86	0x3db0780f	0.08616649
87	0x3d7a98da	0.061180927
88	0xbd938b14	-0.072042614
89	0xbda8b78e	-0.08238135
90	0x3d96b2da	0.07358332
91	0xbd5f8d65	-0.054578204
92	0xbd23676d	-0.039893556
93	0xbd7111da	-0.058854915
94	0x3d0c380c	0.034233138
95	0xb905aa60	-0.00012747338
96	0xbb8ed134	-0.004358435
97	0xbd321752	-0.04347927
98	0x3d2c33a5	0.04204144
99	0x3dc66dec	0.09688935
100	0x3d7580a7	0.059937146
101	0xbd5764c6	-0.05258634
102	0xbcdeb4e4	-0.027185865
103	0x3d6bc702	0.057562836
104	0xbcfeb495	-0.031091968
105	0xbdaf13a6	-0.085486695
106	0xbc0289ff	-0.007967471
107	0x3d66914f	0.05629092
108	0x3d3d996d	0.046288896
109	0x3ca0c2d1	0.019624146
110	0xbcaccc04	-0.021093376
111	0x3d349010	0.0440827
112	0x3d90d48d	0.07071791
113	0xbd5a3248	-0.05327061
114	0x3d858fe0	0.065215826
115	0xbd29b9b8	-0.04143688
116	0xbd943732	-0.0723709
117	0xbcee0212	-0.029053722
118	0x3db58987	0.08864122
119	0xbd0d9869	-0.034569178
120	0xbd0917a2	-0.033469804
121	0xbd842ffb	-0.06454464
122	0x3d68dbbe	0.056850187
123	0x3e0a9158	0.13532007
124	0xbd5ea9e6	-0.054361247
125	0xbda64aae	-0.08119713
126	0xbd82778b	-0.06370457
127	0xbd62a54f	-0.05533343
128	0xbd9d0288	-0.076664984
129	0xbd3f78b8	-0.046745986
130	0xbd644835	-0.055732924
131	0xbc879a43	-0.01655305
132	0x3c70138e	0.0146531
133	0x3d314cd2	0.043286152
134	0xbc925423	-0.017862385
135	0x3c624450	0.013810232
136	0xbd46b755	-0.048514683
137	0x3deaf240	0.11471987
138	0xbc51dcaa	-0.012808958
139	0xbdb17bc9	-0.08666188
140	0x3ca1c751	0.019748362
141	0x3ddae8fe	0.10688971
142	0x3d11183c	0.035423502
143	0xbca06a1a	-0.019581843
144	0x3d5363a4	0.051608697
145	0xbd216753	-0.03940518
146	0x3da5f7ab	0.081038795
147	0xbd74c9d9	-0.05976281
148	0xbb9e2f47	-0.0048274132
149	0xbca159dc	-0.019696169
150	0x3cd9aa2b	0.0265704
151	0xbd52bfa9	-0.051452313
152	0x3e04bd40	0.12962818
153	0xbcbf3f62	-0.023345653
154	0x3d0c765a	0.034292556
155	0xbcf165e0	-0.029467523
156	0x3e45b3a7	0.19306813
157	0x3dd185f3	0.10230627
158	0xbcdf2eb4	-0.02724395
159	0x3e0a95d6	0.1353372
160	0x3dc72a0b	0.09724816
161	0xbd8ca9f1	-0.06868351
162	0x3d764157	0.060120907
163	0x3daab34f	0.08334982
164	0x3d655f3a	0.05599902
165	0xbd2272eb	-0.039660376
166	0x3d947129	0.07248146
167	0x3d487e88	0.048948795
168	0x3dd77c59	0.10521764
169	0xbcb44949	-0.022007601
170	0xbaeec62e	-0.0018217021
171	0xbcdfafcd	-0.027305508
172	0x3e04c147	0.12964354
173	0xbc5acbe3	-0.013354274
174	0xbd734e35	-0.059400756
175	0xbd23e1e7	-0.04001036
176	0x3db33fcc	0.08752403
177	0xbd5ca939	-0.05387232
178	0x3de9ffa9	0.114257164
179	0x3d12e21e	0.035860173
180	0x3dcb3f50	0.09924185
181	0x3cd6e149	0.026230471
182	0x3a1c1e4e	0.00059554435
183	0x3d25328a	0.0403314
184	0x3d382d8d	0.044965316
185	0xbaf3644d	-0.0018569321
186	0xbd83dac3	-0.0643821
187	0x3ddad55c	0.10685226
188	0xbd3985f4	-0.045293763
189	0xbdb26112	-0.08709921
190	0xbdaaed43	-0.08346035
191	0x3d50a3e7	0.05093756
192	0x3d75d352	0.060015984
193	0xbda2bd38	-0.07946247
194	0xbccbb19a	-0.02486496
195	0xbd885065	-0.06655959
196	0xbc0f1522	-0.008733066
197	0xbd9d252b	-0.07673105
198	0xbc52fd29	-0.012877741
199	0xbda18ee1	-0.0788858
200	0xbca982ca	-0.020692248
201	0x3d79ee7d	0.061018456
202	0xbd97c03e	-0.07409714
203	0x3d4c3340	0.049853563
204	0xbbd57e46	-0.006515297
205	0x3d90a920	0.07063508
206	0xbd017435	-0.031604964
207	0xbd39eecb	-0.045393746
208	0xbc6393ba	-0.013890201
209	0x3da65533	0.08121719
210	0x3ce520f4	0.027969815
211	0xbbbfe1ed	-0.00585579
212	0x3d140f17	0.036147203
213	0x3d798c6f	0.060924944
214	0xbca9a3ce	-0.020707991
215	0xbd282bea	-0.041057505
216	0xba99e549	-0.0011741306
217	0x3cf9c65b	0.030490091
218	0xbd488aad	-0.048960377
219	0x3c71ccc5	0.0147582935
220	0xbc64ce40	-0.013965189
221	0xbd9d2692	-0.07673372
222	0xbc2666d8	-0.010156356
223	0x3cbca1fe	0.023026463
224	0x3d5e0d1e	0.05421173
225	0xbda29f7b	-0.07940575
226	0xbd046aaf	-0.032328304
227	0x3ddfc0b1	0.10925425
228	0x3d2646c3	0.040594827
229	0xbd3f44b4	-0.04669638
230	0x3d4f3624	0.050588742
231	0xbcb62651	-0.022235068
232	0xbc3bda0a	-0.011465559
233	0xbd553d14	-0.0520602
234	0x3d98923d	0.07449768
235	0x3d9d5917	0.07683008
236	0xbcd0d32d	-0.025491321
237	0x3d8fb88a	0.0701762
238	0x3d5efced	0.054440428
239	0x3d897e55	0.06713549
240	0xbdabd3df	-0.083900206
241	0xbb9ef68f	-0.0048511694
242	0xbd95aa4d	-0.07307873
243	0x3d6b79cc	0.0574892
244	0xbd924552	-0.07142128
245	0x3cfad4e7	0.030619098
246	0x3cf05765	0.029338548
247	0x3c0edf1c	0.008720186
248	0x3b58f59b	0.0033105377
249	0x3d843537	0.064554624
250	0x3d63cfc5	0.055618066
251	0xbc33b5d7	-0.010968647
252	0xbb828f34	-0.0039843563
253	0x3c6ac11c	0.014328267
254	0xbc59efc4	-0.0133017935
255	0xbc855afe	-0.01627874

out.weight f4 [4, 256]
0	0x3c69e607	0.014276034
1	0x3c7d8e74	0.015475858
2	0xbda96251	-0.082707055
3	0xbac7773b	-0.0015218029
4	0x3cfd107a	0.030891646
5	0x3dfce146	0.12347655
6	0x3c2bb30e	0.010479702
7	0x3d721b14	0.059107855
8	0xbd73dd18	-0.059537023
9	0xbdedee5b	-0.11617728
10	0xbe2c0b04	-0.16801077
11	0xbe364f0e	-0.17803594
12	0xbceaf527	-0.02868135
13	0xbd8880ea	-0.066652134
14	0xbd5669df	-0.05234706
15	0xbb8b7ab1	-0.0042565693
16	0x3b2d6227	0.0026456208
17	0xbcbee171	-0.023300858
18	0xbd0fb523	-0.035084855
19	0xbd9f4a0a	-0.07777794
20	0x3d9d2dd5	0.076747574
21	0x3cfb1564	0.030649848
22	0xbce1a973	-0.02754662
23	0xbd9323c7	-0.07184558
24	0xbd0b45ee	-0.034002237
25	0xbe711237	-0.23542105
26	0x3cf5e789	0.030017631
27	0x3bb713cb	0.0055870763
28	0x3b86ca5c	0.0041134786
29	0xbcd2a08a	-0.025711317
30	0x3bafa5a0	0.00536032
31	0xbd0d5160	-0.034501433
32	0x3aca025a	0.0015412078
33	0xbc3ace5d	-0.01140174
34	0xbb9bbad3	-0.004752496
35	0xbccdcb21	-0.025121273
36	0xbb9c6651	-0.0047729393
37	0xbdedf728	-0.11619407
38	0xbd2cfc9f	-0.042233106
39	0xbccda416	-0.025102656
40	0xbd52632f	-0.05136412
41	0xbd6d7327	-0.057971146
42	0xbc2b0515	-0.010438223
43	0x3d33a5a8	0.043859154
44	0xbeca3827	-0.39495966
45	0xbb5efc51	-0.0034024904
46	0xbc6e6fa7	-0.014552987
47	0x3d4659a2	0.048425324
48	0xbd8f1221	-0.0698588
49	0x3dc1db00	0.09465599
50	0xbd32af0e	-0.043623976
51	0x3da5c7b8	0.08094734
52	0xbc900205	-0.017579088
53	0x3b9bf908	0.0047599114
54	0xbd38005a	-0.04492221
55	0xbdd2f70f	-0.10301029
56	0xbd151c63	-0.036404025
57	0x3cc945f6	0.024569493
58	0xbcea13cf	-0.028573899
59	0xbd517f7c	-0.05114697
60	0xbd8cce94	-0.06875339
61	0x3aecd851	0.0018069838
62	0x3c8b6f21	0.017020764
63	0xbcd14459	-0.025545286
64	0xbcf0639e	-0.029344376
65	0x3b51aaff	0.003199279
66	0xbc903605	-0.017603884
67	0xb8cfa3e6	-9.901058e-05
68	0xbd978917	-0.07399195
69	0xbe82b2f7	-0.25527164
70	0x3d97e248	0.074162066
71	0xbd82e7af	-0.063918464
72	0x3d1e7488	0.03868535
73	0x3d284de7	0.04108992
74	0x3b990bca	0.004670595
75	0x3d6d9cbb	0.058010798
76	0x3cbb26c5	0.022845635
77	0xbc6ea55d	-0.014565793
78	0xbd0c8ae1	-0.034312133
79	0xbe2157d2	-0.15756157
80	0xbd3fac7e	-0.04679536
81	0x3d2491d9	0.040178154
82	0xbe00e814	-0.12588531
83	0xbcc66745	-0.024219165
84	0xbc5444a6	-0.01295582
85	0xbe152256	-0.1456388
86	0xbcce5056	-0.025184792
87	0xbd0132f7	-0.031542744
88	0x3ce5c5f0	0.028048486
89	0xbe22e7da	-0.15908757
90	0xbcf2d3a1	-0.029641928
91	0xbc3fc983	-0.011705759
92	0x3d7adcb0	0.06124562
93	0xbda68b80	-0.08132076
94	0x3d8e82c3	0.069585346
95	0x3d71c561	0.059026126
96	0xbc11ae56	-0.008891663
97	0x3d560f9e	0.052260987
98	0x3bd30f53	0.006441036
99	0xbe63852a	-0.22218767
100	0xbd14d14d	-0.036332417
101	0x3b982aad	0.004643759
102	0x3c527b78	0.01284682
103	0x3d9cde70	0.07659614
104	0xbd4f7676	-0.050650083
105	0x3c9694ba	0.018381465
106	0xbd01de69	-0.031706247
107	0xbdc71d7f	-0.09722423
108	0x3c825836	0.015911203
109	0x3d5ccd5e	0.05390679
110	0xbdfeb5ce	-0.1243702
111	0x3d71d8c9	0.059044633
112	0xbd37386f	-0.044731554
113	0xbcd22c88	-0.025656
114	0xbd4aee8d	-0.049543906
115	0x3d46667f	0.04843759
116	0xbe1c14c6	-0.152423
117	0x3d0c15b9	0.034200404
118	0xbdf2d779	-0.118575044
119	0xbd14c98d	-0.036325026
120	0xbd11807d	-0.035522927
121	0x3d2bc2ce	0.041933827
122	0x3cb79197	0.02240829
123	0xbe1c08bc	-0.15237707
124	0x3cd4a06b	0.0259554
125	0xbe33f61c	-0.17574352
126	0x3d254645	0.040350217
127	0x3ae9ebb8	0.0017846739
128	0x3b05e109	0.002042832
129	0x3d38d25f	0.0451225
130	0xbdc7b608	-0.097515166
131	0x3d5132c5	0.05107381
132	0x3cc9d07a	0.024635542
133	0xbc8fb426	-0.017541956
134	0xbd06fd01	-0.032956127
135	0xbb91c5aa	-0.004448612
136	0xbdd02736	-0.10163729
137	0xbd82e868	-0.06391984
138	0x3d15a916	0.036538206
139	0x3b19bd5d	0.0023458817
140	0xbcfc5e32	-0.030806635
141	0xbd9a8f92	-0.07546915
142	0x3d67bb14	0.056574896
143	0x3da7a5ea	0.081859425
144	0xbd4f5863	-0.0506214
145	0xbcb7e60b	-0.02244856
146	0x3c86b710	0.016444713
147	0xbbd78d13	-0.0065780967
148	0x3d3257a2	0.043540604
149	0x3d5a31b1	0.053270046
150	0xbc897770	-0.016780585
151	0x3c9dc924	0.01926095
152	0xbe074820	-0.13211107
153	0xbe0fec02	-0.14054874
154	0x3cbdc7ba	0.023166526
155	0xbd2515c0	-0.040303946
156	0xbe7cb8fa	-0.24679938
157	0xbe0ce628	-0.13759673
158	0xbcfd3fd8	-0.030914232
159	0xbe30db54	-0.17271167
160	0xbd92c535	-0.071665205
161	0x3d10fb90	0.03539616
162	0xbda1d599	-0.07902069
163	0xbd319b0c	-0.043360755
164	0x3d84ab53	0.0647799
165	0xbd9e4149	-0.07727296
166	0xbdd7e1c1	-0.10541106
167	0x3c3e27c3	0.01160616
168	0xbda8c8c0	-0.08241415
169	0x3d4ce6d3	0.05002482
170	0xbc500aa7	-0.012697852
171	0xbde6624c	-0.112492174
172	0xbe1eeff6	-0.15521225
173	0x3b8afa2b	0.004241248
174	0xba81bc71	-0.0009898079
175	0xbd9a2d60	-0.07528186
176	0xbd0157e9	-0.03157798
177	0xbdb43e96	-0.08801
178	0xbd9f7474	-0.077858835
179	0xbccb5535	-0.024820903
180	0xbd9c8a2d	-0.076435424
181	0x3cc11e4c	0.023574017
182	0x3b996abc	0.004681913
183	0x3cb687dd	0.022281582
184	0xbcd8388b	-0.02639415
185	0xbba6765b	-0.005080027
186	0x3d3015e1	0.042989615
187	0xbd792b8c	-0.060832545
188	0x3bcbca7e	0.0062192073
189	0xbc01cc53	-0.00792225
190	0x3cf71dca	0.030165572
191	0xbd922075	-0.07135097
192	0xbcc2e749	-0.023791926
193	0xbe7b1b4a	-0.24522129
194	0x3d80a24a	0.06280954
195	0xbd32d600	-0.043661118
196	0xbd234831	-0.03986377
197	0x3d37c09f	0.044861432
198	0xbd703372	-0.058642812
199	0xbe290edf	-0.16509579
200	0xbe2d3281	-0.16913797
201	0x3cb8e025	0.022567818
202	0xbc31269b	-0.010812427
203	0x3c843a1a	0.016140986
204	0xbc43f859	-0.011961066
205	0xbd0bb1e6	-0.034105204
206	0xbd83f420	-0.064430475
207	0x3d4cf3b4	0.0500371
208	0x3d35ba62	0.0443672
209	0xbdc9b5f9	-0.09849162
210	0x3be9190a	0.0071135806
211	0xbe065424	-0.13118035
212	0xbbd82f09	-0.006597404
213	0x3caf26c6	0.021380793
214	0x3ca28fb3	0.019843912
215	0x3d23e6ae	0.040014915
216	0x3ce12278	0.027482256
217	0xbaade9ea	-0.0013268564
218	0x3cf8a2c4	0.03035105
219	0x3c88d456	0.016702812
220	0x3bf68fea	0.00752448
221	0xbc78e2ba	-0.015190775
222	0xbcaf4731	-0.021396251
223	0xbcb11716	-0.021617454
224	0x3c0be363	0.0085381
225	0xbd1e8cd2	-0.038708515
226	0x3d4d80df	0.05017173
227	0xbddbed9f	-0.10738682
228	0x3b957e45	0.0045621716
229	0xbdd22086	-0.102601096
230	0xbda72c63	-0.08162763
231	0xbdfbd84f	-0.12297117
232	0xbe735200	-0.2376175
233	0xbddde2f6	-0.10834305
234	0xbd6f251c	-0.058385
235	0xbc9d6a57	-0.019215746
236	0x3d6201a5	0.05517735
237	0xbbda971c	-0.0066708457
238	0x3c010be8	0.007876374
239	0xbdf5599d	-0.11979983
240	0xbda0cd46	-0.07851653
241	0xbe45a3e5	-0.19300802
242	0xbd82ee23	-0.06393077
243	0xbde26b14	-0.1105558
244	0x3d096aa0	0.03354895
245	0x3c1c5313	0.009541291
246	0xbbf877c9	-0.007582639
247	0x3d6a50d2	0.057205983
248	0x3cb902d0	0.022584349
249	0x3bab3e9e	0.0052259704
250	0xbd4f8d1e	-0.05067169
251	0x3c45e945	0.012079542
252	0xbabfae22	-0.0014624039
253	0xbcc7384f	-0.024318842
254	0xbd5ce60e	-0.053930335
255	0xbe0f5d32	-0.14000395

out.bias f4 [4]
0	0xbe220850	-0.15823483
1	0x3d7b1e0b	0.061307948
2	0x3dc8156d	0.09769712
3	0x3dbf7b8a	0.09349735
