mobile_price_category_predict/model/mobile_price_class_predict_optimization.pth (torch, 413760 bytes, 8 tensors)

linear1.weight f4 [128, 20]
0.18314148 -0.18432835 -0.18392262 -0.18890218 0.017912813 -0.14099137 0.119135864 -0.16389546
-0.13211265 -0.05160108 0.10453159 0.0792042 0.12789267 0.14605296 -0.022143163 -0.22494005
-0.19013426 -0.18294325 -0.07209393 -0.061780017 0.09000085 0.10853863 0.08516466 -0.14284241
-0.06287927 0.107926175 -0.04065743 -0.19589703 -0.22284913 0.05350545 0.024033148 0.16617914
0.17322081 0.25105512 -0.07728256 0.051809743 0.012613037 -0.199699 0.072952636 0.116778105
-0.07071262 -0.15702514 0.1759985 0.118580475 0.20401622 -0.18284324 -0.08621286 0.034402583
0.07162056 -0.042359862 0.015968317 0.20580952 0.03701894 0.2837289 0.09256668 -0.16430096
-0.029530326 0.12610245 0.026504593 0.078929454 -0.011491265 -0.11073733 -0.046890114 -0.22777706
0.05588186 -0.010601665 -0.18423106 -0.027666211 -0.023726912 0.19888279 -0.14136748 0.12700099
0.055335704 -0.02674171 0.0054251696 -0.01208145 -0.21924321 -0.0802203 0.17121458 -0.21650499
-0.20607588 0.17823489 0.10607219 0.018544184 0.18754172 0.12717153 0.2068316 -0.18304798
0.089097515 0.02867106 -0.079538584 0.022539798 0.16614252 -0.17658469 -0.23403326 -0.21609174
0.1997137 -0.121659964 0.028863583 -0.13054946 -0.16404225 -0.08103678 0.17879148 -0.13730432
0.14086953 -0.021324057 -0.02403544 0.14427203 0.17772031 0.009658495 -0.007816153 -0.13283074
-0.08582222 0.21742587 -0.16657259 0.1505725 -0.15970469 0.15445459 0.025938505 -0.11053426
0.08167827 -0.06752434 0.19160208 0.09658945 0.058750425 0.0903852 -0.033241812 -0.21493246
0.029478315 -0.14673117 0.09346414 -0.19677451 -0.0152838575 0.025705932 -0.20658994 -0.029453972
-0.20704737 0.056843504 -0.12593669 -0.17352627 -0.12584071 -0.010117849 -0.17236638 -0.16124141
-0.008166709 -0.2808707 -0.15979154 0.15975063 0.119592555 0.17502584 -0.05640825 -0.014629286
-0.15733908 -0.051358387 -0.063203916 0.019432394 -0.051159535 -0.04223951 -0.13390496 0.24211846
0.025152907 -0.07876291 -0.06770948 -0.18892354 0.039260376 0.11467613 -0.051925566 -0.20667928
0.049713895 0.22413768 0.123187356 -0.18462828 -0.09134912 -0.3008421 0.0912485 0.20235854
-0.040790018 -0.113856405 -0.13178296 0.072570495 0.16796085 -0.17407237 0.1752693 -0.15336268
0.025619404 0.19318913 0.0044731535 0.038042147 -0.00086467445 -0.15937103 0.025939465 0.19597448
-0.0679707 -0.29637352 -0.032677073 -0.08176083 -0.17418575 -0.088742554 -0.16107953 -0.13601424
-0.10716562 0.012068184 -0.19198263 0.19651695 0.204548 0.09968669 0.081240565 0.07094687
0.19408168 -0.04861053 -0.09297575 0.1852199 0.22265336 0.24717592 0.20395543 -0.05128082
-0.14903809 0.24101914 0.23820512 0.18214291 -0.059715193 -0.11815662 0.04252558 -0.021772899
0.12848859 -0.043333746 0.025709283 0.18828684 0.08506319 0.22737484 0.11808039 0.1454258
-0.034238134 0.14044024 0.13141999 0.14520894 0.10816967 -0.123296544 -0.07705438 -0.17398651
-0.012339527 -0.1419991 -0.11051199 0.13583437 -0.0627874 0.17245255 0.17022048 0.0742386
0.116451144 0.09774633 0.06280522 0.18771394 0.093521625 0.3462691 0.027491122 -0.12080342
00000000: 7189 3b3e 92c0 3cbe 3656 3cbe 936f 41be
00000010: e4bd 923c 0b60 10be 81fd f33d 36d4 27be
00000020: 8a48 07be a75b 53bd a914 d63d d035 a23d
00000030: 4cf6 023e e88e 153e 9465 b5bc af56 66be
00000040: 8eb2 42be 7a55 3bbe fba5 93bd 0b0d 7dbd
00000050: 5e52 b83d 8049 de3d cf6a ae3d 4845 12be
00000060: d9c6 80bd 6608 dd3d 6888 26bd 3b99 48be
00000070: 9032 64be 8828 5b3d 2ae1 c43c dd2a 2a3e
00000080: cc60 313e 4c8a 803e 5246 9ebd 7436 543d
00000090: e9a6 4e3c e57d 4cbe 3168 953d 5c29 ef3d
000000a0: c7d1 90bd 33cb 20be f338 343e 52da f23d
000000b0: a1e9 503e 423b 3bbe 5e90 b0bd b9e9 0c3d
000000c0: cdad 923d 8981 2dbd fdcf 823c bbbf 523e
000000d0: 2ca1 173d ea44 913e 9993 bd3d 833e 28be
000000e0: 95e9 f1bc 0021 013e 2920 d93c c4a5 a13d
000000f0: dc45 3cbc 41ca e2bd d90f 40bd 643e 69be
00000100: 61e4 643d 9bb2 2dbc 11a7 3cbe 40a4 e2bc
00000110: f15e c2bc eea7 4b3e a3c2 10be 8c0c 023e
00000120: b1a7 623d 6e11 dbbc 9fc5 b13b 46f1 45bc
00000130: 4b81 60be 8a4a a4bd e052 2f3e 7cb3 5dbe
00000140: 8e05 53be 3583 363e 603c d93d f9e9 973c
00000150: f00a 403e 4139 023e aacb 533e ee70 3bbe
00000160: c278 b63d 92df ea3c 20e5 a2bd 62a5 b83c
00000170: 4421 2a3e 9ed2 34be 6aa6 6fbe 2747 5dbe
00000180: c081 4c3e dc28 f9bd 5273 ec3c c2ae 05be
00000190: b1fa 27be 9cf6 a5bd 1d15 373e 8199 0cbe
000001a0: 1a40 103e caaf aebc f9e5 c4bc 0cbc 133e
000001b0: 50fc 353e aa3e 1e3c 520f 00bc c804 08be
000001c0: 8fc3 afbd e3a4 5e3e 0192 2abe ad2f 1a3e
000001d0: a089 23be 5829 1e3e fd7c d43c c95f e2bd
000001e0: f046 a73d 334a 8abd 5633 443e b1d0 c53d
000001f0: 49a4 703d e01b b93d 9128 08bd 4117 5cbe
00000200: 827c f13c b240 16be 216a bf3d 427f 49be
00000210: 2569 7abc 3f95 d23c 508c 53be 7549 f1bc
00000220: 3a04 54be bcd4 683d 8cf5 00be dfb0 31be
00000230: 63dc 00be 56c5 25bc d080 30be 781c 25be
00000240: a9cd 05bc 49ce 8fbe 65a0 23be ab95 233e
00000250: f1ec f43d f939 333e 560c 67bd acaf 6fbc
00000260: 7f1d 21be 2c5d 52bd 0e71 81bd af30 9f3c
00000270: a98c 51bd 5603 2dbd 621e 09be e7ed 773e
00000280: 780d ce3c 734e a1bd 45ab 8abd 2c75 41be
00000290: 7dcf 203d 52db ea3d e7af 54bd bca3 53be
000002a0: cca0 4b3d 5984 653e a749 fc3d 320f 3dbe
000002b0: 3f15 bbbd fa07 9abe 7ee0 ba3d 1437 4f3e
000002c0: 6f13 27bd 8c2d e9bd 1df2 06be d79f 943d
000002d0: eefd 2b3e 0740 32be cc79 333e 1b0b 1dbe
000002e0: c9df d13c 5fd3 453e 8893 923b 15d2 1b3d
000002f0: 52ab 62ba 2932 23be 007f d43c 89ad 483e
00000300: 3934 8bbd 45be 97be 65d8 05bd 3972 a7bd
00000310: c05d 32be a8be b5bd 08f2 24be 5147 0bbe
00000320: a679 dbbd a2b9 453c 1897 44be bd3b 493e
00000330: 0875 513e 8928 cc3d 7461 a63d 984c 913d
00000340: 59bd 463e d61b 47bd 126a bebd 49aa 3d3e
00000350: 3eff 633e af1b 7d3e b1d9 503e d60b 52bd
00000360: 719d 18be b9cd 763e 0bec 733e ac83 3a3e
00000370: eb97 74bd 19fc f1bd 4d2f 2e3d 145d b2bc
00000380: 8392 033e ba7e 31bd 469c d23c 44ce 403e
00000390: 9c35 ae3d f3d4 683e 22d4 f13d 80ea 143e
000003a0: 493d 0cbd 91cf 0f3e f692 063e a7b1 143e
000003b0: 0f88 dd3d e682 fcbd b0ce 9dbd 8529 32be
000003c0: ba2b 4abc 3668 11be 1c54 e2bd 2a18 0b3e
000003d0: ae96 80bd 6797 303e 474e 2e3e 680a 983d
000003e0: f07d ee3d 3a2f c83d 06a0 803d 1538 403e
000003f0: 4488 bf3d 2f4a b13e 1035 e13c c967 f7bd

linear1.bias f4 [128]
0.28610697 -0.03012241 0.13033895 0.18167934 -0.06399481 0.17512147 0.09515046 0.28500658
0.20497781 0.046716746 -0.013959877 -0.058211688 -0.15352379 0.3082397 0.22608657 0.029603722
-0.11579826 0.24662702 -0.04009217 0.034728236 0.10422931 0.20244695 -0.10447005 -0.006787146
-0.054151412 -0.029093403 0.11861357 -0.13733688 0.20473029 -0.06253448 0.21527155 0.116022915
0.07319026 0.00060747046 0.07174684 0.16857514 -0.16486847 0.17537911 -0.013155165 -0.07616624
0.09823573 0.13159552 -0.060548022 0.13893661 -0.038325515 0.22553678 0.15360412 -0.10803038
0.018253759 0.113781646 -0.00766818 0.21044044 -0.027189963 -0.11701518 -0.15308878 -0.068157144
0.07062008 -0.093414016 0.25717124 0.21143025 0.12486356 0.21379524 0.05954346 0.124121204
-0.14598866 0.03797102 0.006105711 0.16232896 -0.115088455 -0.096274726 -0.13872322 0.1999146
-0.069806375 -0.16465212 -0.15801132 0.10374393 -0.2045258 0.16406454 0.27557677 -0.16408813
0.2845108 0.013247355 0.062218335 -0.030182986 0.14226533 -0.08635397 0.12385956 0.25669903
0.20172256 0.18743987 -0.098736934 0.13718097 0.107105546 0.092166595 -0.21663158 0.10756225
0.08216626 0.10471286 0.08458752 0.16510929 0.03718267 0.2635598 -0.041695643 0.27910095
-0.13182057 -0.10709798 -0.06855382 -0.04080635 0.17299329 -0.09379939 0.13563818 0.25721145
-0.0023342315 -0.08307877 0.07457094 -0.15134887 -0.15660489 0.21150528 -0.1755893 -0.11566992
0.031331833 -0.14792249 -0.11437373 0.028102819 -0.13902217 -0.013218378 0.29779494 0.12437384
00000000: 9d7c 923e 46c3 f6bc 9377 053e 260a 3a3e
00000010: b60f 83bd 0b53 333e 3fde c23d 62ec 913e
00000020: b4e5 513e 0f5a 3f3d f8b7 64bc 616f 6ebd
00000030: 5735 1dbe 98d1 9d3e 3d83 673e 8183 f23c
00000040: a327 edbd cb8b 7c3e b037 24bd 323f 0e3d
00000050: 2d76 d53d 414e 4f3e 65f4 d5bd b566 debb
00000060: dfcd 5dbd 4a55 eebc aceb f23d 0aa2 0cbe
00000070: d1a4 513e 1412 80bd 2570 5c3e 6c9d ed3d
00000080: c6e4 953d a73e 1f3a 02f0 923d f69e 2c3e
00000090: 48d3 28be 9596 333e c388 57bc 0cfd 9bbd
000000a0: d02f c93d fac0 063e 3401 78bd 6645 0e3e
000000b0: 37fb 1cbd 1df3 663e 664a 1d3e 083f ddbd
000000c0: e888 953c 5a06 e93d 5b45 fbbb b37d 573e
000000d0: 7cbd debc a8a5 efbd 4ec3 1cbe f995 8bbd
000000e0: 43a1 903d d94f bfbd f3ab 833e 2c81 583e
000000f0: 77b8 ff3d 24ed 5a3e d8e3 733d 4233 fe3d
00000100: 0d7e 15be 8087 1b3d 6b12 c83b 9039 263e
00000110: 7fb3 ebbd af2b c5bd 760d 0ebe 6ab6 4c3e
00000120: a5f6 8ebd 919a 28be b8cd 21be b377 d43d
00000130: 366f 51be 8900 283e 6618 8d3e b806 28be
00000140: 66ab 913e 6f0b 593c a7d8 7e3d 4f42 f7bc
00000150: 01ae 113e 5ada b0bd 15aa fd3d 0e6e 833e
00000160: 5c90 4e3e 3df0 3f3e 9736 cabd 2b79 0c3e
00000170: 275a db3d d7c1 bc3d abd4 5dbe 9949 dc3d
00000180: c946 a83d b273 d63d 393c ad3d 6912 293e
00000190: db4c 183d 4ff1 863e 0dc9 2abd 52e6 8e3e
000001a0: f9fb 06be 3056 dbbd f265 8cbd 8f24 27bd
000001b0: 2725 313e e519 c0bd bce4 0a3e 38b1 833e
000001c0: e8f9 18bb 3425 aabd a6b8 983d 33fb 1abe
000001d0: 085d 20be d794 583e aecd 33be 5ae4 ecbd
000001e0: cf55 003d fe78 17be c63c eabd e237 e63c
000001f0: d45b 0ebe e591 58bc 9478 983e b6b7 fe3d

linear2.weight f4 [256, 128]
0.12956549 0.121727556 0.03994934 0.008747687 -0.069346175 0.06401251 -0.01858144 -0.057347897
-0.05684477 -0.08606526 0.07210882 0.074700445 -0.02640898 0.09007346 0.04500928 0.06869314
0.07998848 0.030119713 0.08305725 -0.057473443 0.045341473 0.085521564 0.16014166 0.05582097
0.056941375 -0.06536105 0.07575533 0.10688548 0.0010584736 0.102244474 0.01511693 -0.05022497
0.027863521 0.06668971 -0.08746376 0.03318864 0.0026646862 0.052238088 -0.082772784 -0.053922515
0.010711686 0.00806128 0.09701313 0.08749659 -0.038694743 -0.070188664 0.06140598 -0.10857591
0.14402515 0.030760193 0.013197374 -0.04279384 0.054089375 0.06774175 0.013875429 0.022572998
0.082547806 0.05388657 -0.016386272 0.054800972 0.027974322 0.076120146 -0.10684991 0.05659692
0.04344543 -0.04204963 0.009360486 0.025419358 -0.061204307 -0.07476738 -0.031735737 -0.078063905
-0.101198524 0.019887136 0.03977401 0.09524783 0.034869127 0.06148015 0.090008356 0.04505597
0.08661658 -0.023804335 0.03818963 0.07330739 0.038610786 -0.0080765765 -0.028900502 0.0068401815
0.06293105 0.053613815 -0.02250798 0.025659118 0.07676927 0.08172647 0.05272272 0.031335775
0.048451494 -0.08727988 0.0208023 0.033344544 0.019258238 0.08574324 0.08040396 0.026153022
-0.08947633 0.08133795 0.018988086 0.043798212 -0.015375012 0.060745515 0.13439985 0.005286432
0.06734881 0.033240866 0.006005721 0.08015938 0.04855324 -0.062440112 0.06183397 0.07080737
-0.053333223 -0.019615654 -0.065787084 0.060048983 -0.06701266 -0.030373981 0.06098165 0.050181977
0.09829433 0.092933536 -0.0017796737 -0.06827618 -0.004430664 -0.04446924 -0.05450341 0.0652348
-0.10269422 0.010855241 0.06964629 0.022402782 0.09475221 0.0514581 -0.047389463 0.031252027
-0.070784606 0.07682498 0.037171397 -0.028850608 0.009362436 -0.040837925 0.039355673 -0.02840659
0.039666146 -0.053465523 0.023144484 -0.03189343 -0.011209915 0.008278749 0.03577905 -0.05381272
0.013538683 0.14122732 -0.08775336 0.14217578 0.049773477 -0.001060635 0.01939583 0.036503233
0.10142231 -0.029154874 0.08161177 0.092322625 -0.040280614 -0.06342491 -0.07715249 -0.031913966
-0.0044357926 0.019581715 -0.026404433 0.033628277 0.03881729 0.061891347 0.08350138 -0.11315295
0.105760016 -0.03600257 0.048112333 -0.012357195 -0.060238212 -0.03609123 -0.05949412 0.135808
-0.03628695 -0.07293956 -0.00020546511 -0.025020456 0.058389883 0.035808392 -0.07612344 0.020156447
-0.008284711 0.0217918 0.12339595 0.096251816 0.021894485 0.07234853 -0.01973783 0.07095057
0.1208209 -0.08873438 -0.018233856 -0.03333072 0.04800108 0.0583893 -0.08291725 0.05373604
-0.0378964 0.013457341 0.049566742 0.06436771 0.010897628 -0.049409635 0.02544826 -0.076806076
-0.03216774 -0.002715001 -0.032815043 -0.032196112 -0.0134497825 0.08161532 -0.0046613407 0.074570425
0.02907207 -0.058813553 0.118284956 0.070993505 0.124443844 0.03526343 0.113513686 0.087431155
0.090592265 0.05162415 0.1328696 -0.026026938 -0.06484214 0.007220043 0.012216459 0.034907136
-0.003972785 -0.03292049 -0.026934965 0.009856075 -0.06470549 0.02434184 -0.008774893 -0.051982537
00000000: d1ac 043e 4c4c f93d eba1 233d 7552 0f3c
00000010: 5e05 8ebd fe18 833d 1b38 98bc a1e5 6abd
00000020: 10d6 68bd fc42 b0bd caad 933d 8cfc 983d
00000030: a557 d8bc 6f78 b83d a75b 383d fdae 8c3d
00000040: 00d1 a33d 9ebd f63c eb19 aa3d 4669 6bbd
00000050: fbb7 393d ee25 af3d 2dfc 233e 88a4 643d
00000060: 5c3b 693d 04dc 85bd 9c25 9b3d c6e6 da3d
00000070: 7bbc 8a3a 8d65 d13d 00ad 773c b3b8 4dbd
00000080: 0a42 e43c 9d94 883d 3320 b3bd d0f0 073d
00000090: 04a2 2e3b 9bf7 553d c784 a9bd dbdd 5cbd
000000a0: 1180 2f3c 7513 043c d2ae c63d 6a31 b33d
000000b0: 617e 1ebd 13bf 8fbd d684 7b3d 0c5d debd
000000c0: 547b 133e cdfc fb3c cc39 583c 9848 2fbd
000000d0: d28c 5d3d 30bc 8a3d c455 633c 02eb b83c
000000e0: d30e a93d 2ab8 5c3d 813c 86bc fc76 603d
000000f0: 682a e53c e1e4 9b3d 20d4 dabd 2cd2 673d
00000100: d6f3 313d 3c3c 2cbd b95c 193c 423c d03c
00000110: 5eb1 7abd a41f 99bd 55fd 01bd f8df 9fbd
00000120: 2c41 cfbd 59ea a23c 13ea 223d 4b11 c33d
00000130: eed2 0e3d 9cd2 7b3d 4d56 b83d 9c8c 383d
00000140: 0964 b13d 4f01 c3bc bb6c 1c3d 2f22 963d
00000150: 5826 1e3d 9e53 04bc bfc0 ecbc 9a23 e03b
00000160: ffe1 803d 299a 5b3d a862 b8bc 1233 d23c
00000170: 3539 9d3d 3560 a73d c7f3 573d f159 003d
00000180: 1375 463d cbbf b2bd 9669 aa3c 4a94 083d
00000190: 74c3 9d3c 279a af3d d5aa a43d dd3e d63c
000001a0: 5e3f b7bd 8394 a63d e78c 9b3c c165 333d
000001b0: 79e7 7bbc 4ad0 783d 1da0 093e ce39 ad3b
000001c0: 2cee 893d 9327 083d a4cb c43b 9a2a a43d
000001d0: c3df 463d 34c1 7fbd 9e45 7d3d 7403 913d
000001e0: f073 5abd 02b1 a0bc 61bb 86bd ecf5 753d
000001f0: ef3d 89bd dbd2 f8bc e5c7 793d 9e8b 4d3d
00000200: 8a4e c93d f053 be3d f143 e9ba 62d4 8bbd
00000210: 1a2f 91bb 6125 36bd f83e 5fbd d399 853d
00000220: 5951 d2bd 2eda 313c b7a2 8e3d 0a86 b73c
00000230: 720d c23d bbc5 523d 741b 42bd 2002 003d
00000240: 85f7 90bd 6a56 9d3d 0941 183d 1c58 ecbc
00000250: e764 193c ab45 27bd 6a33 213d f0b4 e8bc
00000260: f878 223d aafe 5abd 8099 bd3c afa2 02bd
00000270: cba9 37bc 97a3 073c 0e8d 123d ba6a 5cbd
00000280: 5ad1 5d3c e59d 103e 09b8 b3bd 8796 113e
00000290: 46df 4b3d 0105 8bba 01e4 9e3c 6a84 153d
000002a0: 80b6 cf3d 34d6 eebc 1224 a73d a513 bd3d
000002b0: 49fd 24bd ebe4 81bd 2002 9ebd 38b8 02bd
000002c0: 205a 91bb d569 a03c 1c4e d8bc cebd 093d
000002d0: e1fe 1e3d c881 7d3d c602 ab3d bcbc e7bd
000002e0: b598 d83d 6e77 13bd 7011 453d d575 4abc
000002f0: 58bc 76bd 66d4 13bd 1bb0 73bd 4111 0b3e
00000300: a0a1 14bd 5661 95bd 1f72 57b9 b3f7 ccbc
00000310: 3b2a 6f3d d2ab 123d 9be6 9bbd 221f a53c
00000320: 99bc 07bc b884 b23c 04b7 fc3d ac1f c53d
00000330: 105c b33c 772b 943d 3bb1 a1bc 884e 913d
00000340: f370 f73d 5fba b5bd 2b5f 95bc cb85 08bd
00000350: c89c 443d 9e29 6f3d 85d0 a9bd 521a 5c3d
00000360: 4139 1bbd 2e7c 5c3c 7f06 4b3d 38d3 833d
00000370: f78b 323c c261 4abd df78 d03c 814c 9dbd
00000380: 52c2 03bd 29ee 31bb 1169 06bd 12e0 03bd
00000390: 7a5c 5cbc ef25 a73d 29be 98bb 61b8 983d
000003a0: 8d28 ee3c 7be6 70bd 623f f23d 0b65 913d
000003b0: 6adc fe3d 6370 103d dd79 e83d 1b0f b33d
000003c0: 7088 b93d d873 533d f80e 083e 7236 d5bc
000003d0: f5cb 84bd 1c96 ec3b 8b27 483c c9fa 0e3d
000003e0: 232e 82bb a3d7 06bd b7a6 dcbc 607b 213c
000003f0: 5084 84bd 8a68 c73c 92c4 0fbc a4eb 54bd

linear2.bias f4 [256]
-0.03798905 0.10874873 -0.029224005 0.038125474 0.12921858 0.045725953 0.04433243 -0.041533746
0.021596724 -0.016509507 0.0014556927 0.12555562 -0.03590825 0.10748949 0.07902516 -0.07610488
-0.021466011 0.1173321 0.106219545 0.05195156 0.067853354 0.03068696 -0.02811519 0.11833281
0.010513849 0.0858793 0.12026489 -0.040314473 -0.025149174 0.08362374 -0.012332164 0.019089721
-0.06098379 0.12568079 0.06438939 -0.010758358 0.039372597 -0.056087293 0.1081485 0.07504821
0.004817516 0.03515888 0.08993362 -0.013470926 0.013322509 0.065609224 0.04210081 0.10781515
0.05099119 -0.00045294195 0.024236234 -0.07482764 -0.032937948 0.05171549 -0.061549388 -0.03941073
0.08695884 -0.026893342 0.11641885 0.00981195 0.09379826 0.032448128 -0.032403972 0.07528621
0.0019350651 -0.028570017 0.054113425 0.021612832 0.03967357 0.093478546 0.07750954 0.010417501
0.0006274965 0.080431126 0.12985474 -0.0061657764 0.03711066 -0.028255153 0.0477732 0.11290848
0.12499803 0.06471779 0.09523088 0.014822767 -0.017102469 0.0013333819 0.09332058 0.111200534
0.07406616 -0.02512013 0.08832111 0.08023179 0.12477968 -0.06246368 0.0053235744 -0.021854978
0.03704858 0.014663528 -0.0583794 -0.019563954 0.044475485 0.010831391 0.1303341 -0.007609135
-0.04065865 0.06986697 0.066864185 0.07743572 -0.0035634295 -0.036224894 0.025123551 0.1439069
0.026011812 -0.04316401 0.03641598 -0.03762932 0.02760089 0.050492838 -0.022257645 0.04514216
-0.08302523 -0.018835776 0.02391645 0.08585284 -0.028027996 0.062865965 0.08676085 -0.013171163
0.014626177 -0.09601873 0.059432343 -0.022146782 0.0067894547 -0.01998916 0.011266506 -0.021195864
0.043741044 0.10417845 0.050666172 0.088335395 -0.0434905 0.077839516 -0.01576568 -0.06226607
-0.027774673 -0.021725653 -0.076623246 -0.012069346 0.08297899 -0.056644525 0.029630538 -0.08286046
-0.0458622 0.036877293 0.08006322 0.094857216 0.120376736 0.060523715 0.08581493 0.08815465
-0.014643131 -0.04092579 -0.054897178 0.123994835 0.0953814 0.018796032 0.10209482 0.055311743
-0.0009770676 -0.049704503 0.042736784 0.06056509 0.11453919 0.014048701 -0.052915026 -0.003518976
-0.015128537 -0.013463989 -0.04384911 -0.025046417 0.047594152 0.0070529394 -0.024460716 0.050434906
0.08606801 0.021971496 0.0128058065 0.07582452 -0.06059598 -0.013926811 -0.034708425 -0.015012703
0.10767547 0.082210064 -0.041352957 0.10536184 0.14061832 0.018237665 -0.01378506 0.06010552
0.009635155 0.0823085 0.114432655 0.031564694 0.059207737 -0.028188664 0.11322296 0.07525362
0.08563389 -0.01682004 0.016106429 -0.02041012 0.09046535 0.033288788 0.05229913 0.040846553
-0.0371963 0.074308984 0.09266177 0.03822383 0.07040638 0.057758547 -0.011349861 0.11628718
0.039626215 -0.03771497 0.061677083 0.12760355 -0.00819967 -0.0012568868 0.04925606 -0.03210601
0.036952134 0.056603782 0.12824313 0.0056085507 -0.0041824942 0.095326506 0.029618261 0.048096236
-0.02961142 0.064910956 -0.04396318 0.10946019 0.01764223 0.09552367 0.0040426366 0.022591343
0.021437574 0.060633406 -0.0010000897 -0.08118901 0.16650133 0.0992576 -0.012430271 -0.022418793
00000000: 689a 1bbd a7b7 de3d 2e67 efbc 7529 1c3d
00000010: e051 043e 234b 3b3d ec95 353d 4a1f 2abd
00000020: 9deb b03c f23e 87bc f1cc be3a a791 003e
00000030: 8714 13bd 7323 dc3d f1d7 a13d e0dc 9bbd
00000040: 7dd9 afbc d04b f03d a289 d93d 29cb 543d
00000050: b3f6 8a3d 3863 fb3c d451 e6bc 7958 f23d
00000060: 4742 2c3c 7de1 af3d 704d f63d ca20 25bd
00000070: a405 cebc ec42 ab3d d80c 4abc 0c62 9c3c
00000080: 23ca 79bd 77b2 003e 96de 833d d343 30bc
00000090: 2945 213d cabb 65bd f67c dd3d e0b2 993d
000000a0: 41dc 9d3b c202 103d 1e2f b83d 29b5 5cbc
000000b0: a746 5a3c 215e 863d e671 2c3d 30ce dc3d
000000c0: 23dc 503d d778 edb9 118b c63c 3c3f 99bd
000000d0: f1e9 06bd 9fd3 533d 361b 7cbd 256d 21bd
000000e0: 7a17 b23d 6d4f dcbc 026d ee3d 4dc2 203c
000000f0: 4d19 c03d 54e8 043d 07ba 04bd a82f 9a3d
00000100: 03a2 fd3a ab0b eabc 0aa6 5d3d 650d b13c
00000110: c180 223d ae71 bf3d 52bd 9e3d 2bae 2a3c
00000120: 947e 243a 13b9 a43d a4f8 043e 480a cabb
00000130: 5901 183d 5a77 e7bc d5ad 433d 903c e73d
00000140: f8fe ff3d c38a 843d 6808 c33d 31db 723c
00000150: 7a1a 8cbc dfc4 ae3a dc1e bf3d 1bbd e33d
00000160: 00b0 973d bbc8 cdbc b3e1 b43d 9150 a43d
00000170: 7d8c ff3d ead9 7fbd 6171 ae3b 3609 b3bc
00000180: 40c0 173d 4b3f 703c 3d1f 6fbd 9644 a0bc
00000190: ed2b 363d 2676 313c 4d76 053e 0d56 f9bb
000001a0: af89 26bd 6a16 8f3d 17f0 883d 9e96 9e3d
000001b0: 6d88 69bb 8e60 14bd e8cf cd3c 555c 133e
000001c0: b916 d53c bfcc 30bd ec28 153d 3421 1abd
000001d0: 431b e23c 94d1 4e3d aa55 b6bc fce6 383d
000001e0: 2209 aabd 7c4d 9abc 6eec c33c 9dd3 af3d
000001f0: f89a e5bc dfbf 803d acaf b13d ddcb 57bc
00000200: a2a2 6f3c 78a5 c4bd 546f 733d 2b6d b5bc
00000210: 137a de3b 4fc0 a3bc 2797 383c f3a2 adbc
00000220: cf29 333d 835b d53d 5587 4f3d 30e9 b43d
00000230: 1823 32bd 536a 9f3d 0727 81bc b50a 7fbd
00000240: b687 e3bc fff9 b1bc a6ec 9cbd 82be 45bc
00000250: e4f0 a93d 1704 68bd bebb f23c bfb2 a9bd
00000260: 01da 3bbd a50c 173d 2ff8 a33d 8044 c23d
00000270: 1488 f63d b7e7 773d bdbf af3d 6d8a b43d
00000280: bee9 6fbc cda1 27bd dddb 60bd 01f1 fd3d
00000290: 5357 c33d 23fa 993c 1717 d13d 918e 623d
000002a0: f310 80ba f396 4bbd c40c 2f3d 1a13 783d
000002b0: 8693 ea3d 862c 663c 6dbd 58bd 9f9e 66bb
000002c0: afdd 77bc 1098 5cbc 209b 33bd 252e cdbc
000002d0: 16f2 423d 581c e73b d761 c8bc d594 4e3d
000002e0: 6d44 b03d 91fd b33c 72cf 513c e349 9b3d
000002f0: 7e33 78bd 472d 64bc 6c2a 0ebd d7f7 75bc
00000300: f584 dc3d c05d a83d b861 29bd f3c7 d73d
00000310: 40fe 0f3e 2867 953c bbda 61bc 3531 763d
00000320: c5dc 1d3c 5c91 a83d ab5b ea3d fb49 013d
00000330: d083 723d eaeb e6bc 70e1 e73d 921e 9a3d
00000340: d260 af3d 2eca 89bc a1f1 833c 2033 a7bc
00000350: e645 b93d d359 083d 9d37 563d b74e 273d
00000360: 265b 18bd 4f2f 983d 74c5 bd3d 9790 1c3d
00000370: 3831 903d 3a94 6c3d c4f4 39bc f927 ee3d
00000380: 194f 223d 037b 1abd 1ca1 7c3d 81aa 023e
00000390: e957 06bc 1fbe a4ba b9c0 493d 9781 03bd
000003a0: 1f5b 173d 5ed9 673d 2b52 033e efc7 b73b
000003b0: 4e0d 89bb 8b3a c33d ffa1 f23c 8f00 453d
000003c0: a693 f2bc 09f0 843d bc12 34bd aa2c e03d
000003d0: 7086 903c eaa1 c33d 1878 843b 7b11 b93c
000003e0: da9d af3c bc5a 783d 7115 83ba 6c46 a6bd
000003f0: 537f 2a3e 9247 cb3d 56a8 4bbc 9ea7 b7bc

linear3.weight f4 [256, 256]
-0.005717144 0.03614123 0.041816864 -0.042825654 0.06922648 0.051256273 0.02008324 0.018784868
0.083902344 -0.0927931 0.04407769 0.03597753 0.010396217 -0.008634944 0.13218527 0.12639663
-0.025970295 0.017672867 0.02565321 -0.03097127 0.075185604 0.03389883 -0.008928249 -0.07369735
0.010905427 0.05432309 0.03844935 0.049574424 -0.079891466 -0.04718215 -0.07725556 0.06774106
0.079966135 0.13426685 0.10711789 -0.036407236 -0.003092764 0.073197514 -0.0015597095 -0.051308256
0.12749234 -0.0033952661 -0.06654785 0.039629385 -0.042537287 0.13210121 0.05499282 -0.03510392
0.05281241 -0.077896506 0.023945754 -0.007282009 -0.05925848 0.03524171 0.05832227 -0.05080483
0.15106215 -0.12863956 0.0069427956 0.06085934 0.08472135 -0.02585289 0.049793325 0.08607974
0.0697377 -0.022016918 0.094353095 0.11448135 -0.05718976 0.08334929 0.1179985 0.031658042
0.08243138 0.13810155 0.099536434 0.097756624 -0.015442501 -0.02007484 -0.033345975 0.028096138
0.099919274 0.1024437 0.104746185 0.08865335 0.077159755 -0.070295826 -0.021434162 0.07637825
0.00888746 0.08670748 0.08568414 -0.040622376 0.025909564 0.05407873 -0.043874897 -0.021158235
0.05887577 -0.026365185 0.06645735 -0.12604456 0.08847836 0.039584417 -0.032235824 0.09732156
-0.02236128 0.11784692 0.057780083 0.06643467 0.061807305 0.0053397757 0.048461225 0.060738254
0.07178556 0.021093572 -0.0022066792 -0.06131466 0.13209431 -0.024042552 -0.02322492 -0.0010198723
-0.10929494 0.07224633 -0.063574724 0.02402831 0.013098774 0.040890023 0.1281886 0.034949955
0.004197763 -0.030323204 0.007839603 0.0061122086 0.04585146 0.08290098 0.084468275 0.010830542
0.026861964 0.013029234 0.08470554 0.041661203 0.022673784 0.06598527 -0.07238243 0.016719501
0.09460711 -0.03310709 0.10072203 -0.06250007 0.1049373 -0.07841938 -0.049044468 0.10067514
0.10293364 0.026867058 0.07580987 0.017319012 0.008616842 0.04782005 0.0807813 -0.021388004
-0.008674572 -0.03685081 0.04779063 0.018119112 0.08435049 -0.0006265462 -0.034716904 0.031111194
-0.0101884 -0.031737417 0.036249537 0.101246804 -0.047423746 0.05403096 -0.09752145 0.014559075
-0.037600078 0.07158436 -0.014693229 -0.026505932 0.013048013 0.04093921 -0.058610715 0.027245762
-0.025664892 0.106988885 0.1130145 0.15583427 0.047534067 -0.011450954 -0.017673926 0.1014432
0.0603959 0.0022322792 0.09540308 0.07646714 0.011624179 -0.011073375 0.04742302 -0.0086208815
0.09095655 -0.07198976 0.023050223 0.053576022 -0.009301976 0.017759304 0.08868938 0.03825195
-0.029367382 0.071609385 0.029571231 -0.012596686 -0.013315466 0.04688889 0.046554726 0.093837015
0.15325023 -0.007206356 -0.029322162 0.043051455 0.04802663 0.002878645 0.13518737 0.0012569284
-0.039260615 -0.039885398 0.063598216 0.085336626 -0.007105113 0.034608368 -0.010182362 -0.04084556
0.0014655618 0.10260554 0.094413936 0.08794816 -0.02341489 -0.051152237 -0.0010353861 0.07893109
-0.034082238 0.075974196 -0.07980529 0.103086255 -0.055618465 0.06614399 -0.053001244 0.10011074
0.07212664 0.008220542 -0.023873636 -0.086242646 0.0556106 -0.06801421 -0.06291332 -0.039958548
00000000: e156 bbbb d408 143d 2948 2b3d f469 2fbd
00000010: 9dc6 8d3d 19f2 513d 9b85 a43c b9e2 993c
00000020: fed4 ab3d 4f0a bebd cf8a 343d 2d5d 133d
00000030: e554 2a3c 9579 0dbc 935b 073e 1e6e 013e
00000040: a8bf d4bc b0c6 903c ae26 d23c 76b7 fdbc
00000050: e9fa 993d 80d9 0a3d ca47 12bc a3ee 96bd
00000060: adac 323c e381 5e3d 117d 1d3d 8d0e 4b3d
00000070: 239e a3bd 1242 41bd 2a38 9ebd d3bb 8a3d
00000080: 49c5 a33d 407d 093e a060 db3d c11f 15bd
00000090: f8af 4abb 94e8 953d 2b6f ccba 9b28 52bd
000000a0: 5a8d 023e 1d83 5ebb 3d4a 88bd 6c52 223d
000000b0: 943b 2ebd 8a45 073e 2740 613d 21c9 0fbd
000000c0: d351 583d 3488 9fbd e329 c43c eb9d eebb
000000d0: 05b9 72bd 9c59 103d 55e3 6e3d ba18 50bd
000000e0: 09b0 1a3e 17ba 03be 6480 e33b a547 793d
000000f0: 6382 ad3d 71c9 d3bc 16f4 4b3d 934a b03d
00000100: a4d2 8e3d d35c b4bc 323c c13d 3375 ea3d
00000110: cf3f 6abd 08b3 aa3d 33a9 f13d ddab 013d
00000120: c9d1 a83d 7e6a 0d3e c2d9 cb3d a034 c83d
00000130: 8b02 7dbc fe73 a4bc ca95 08bd df29 e63c
00000140: 7aa2 cc3d 01ce d13d 2b85 d63d e38f b53d
00000150: ef05 9e3d 42f7 8fbd b296 afbc 336c 9c3d
00000160: b69c 113c b193 b13d 2b7b af3d a663 26bd
00000170: 4b40 d43c a981 5d3d 2ab6 33bd 0954 adbc
00000180: b827 713d cdfb d7bc cb1a 883d d311 01be
00000190: 2434 b53d 4523 223d b609 04bd 8750 c73d
000001a0: 012f b7bc ba59 f13d cfaa 6c3d e60e 883d
000001b0: a829 7d3d 49f9 ae3b 477f 463d adc8 783d
000001c0: 4f04 933d 6dcc ac3c ef9d 10bb 1525 7bbd
000001d0: bb43 073e e3f4 c4bc 3042 bebc 3cad 85ba
000001e0: 07d6 dfbd e2f5 933d 7733 82bd 05d7 c43c
000001f0: 3d9c 563c 4c7c 273d df43 033e af27 0f3d
00000200: 638d 893b 5e68 f8bc ae71 003c ec48 c83b
00000210: bece 3b3d fdc7 a93d b4fd ac3d 9672 313c
00000220: 9f0d dc3c 9178 553c 197a ad3d f0a4 2a3d
00000230: 5fbe b93c 4923 873d 3d3d 94bd 56f7 883c
00000240: 5fc1 c13d 4d9b 07bd 5a47 ce3d 0900 80bd
00000250: 5ee9 d63d 579a a0bd dae2 48bd c52e ce3d
00000260: dfce d23d 4e18 dc3c 3542 9b3d 9ae0 8d3c
00000270: a82d 0d3c f5de 433d ab70 a53d e535 afbc
00000280: cb1f 0ebc e0f0 16bd 1cc0 433d 886e 943c
00000290: f3bf ac3d ce3e 24ba 5033 0ebd e7dc fe3c
000002a0: 3fed 26bc 18ff 01bd 657a 143d 7c5a cf3d
000002b0: 673f 42bd 914f 5d3d 53b9 c7bd 3089 6e3c
000002c0: 8a02 1abd d29a 923d dfbb 70bc f822 d9bc
000002d0: 55c7 553c e0af 273d ca11 70bd 8132 df3c
000002e0: 2e3f d2bc fd1c db3d 2574 e73d 0593 1f3e
000002f0: 15b3 423d c89c 3bbc e9c8 90bc 74c1 cf3d
00000300: b161 773d 6e4b 123b b162 c33d ce9a 9c3d
00000310: 5773 3e3c 1a6d 35bc a43e 423d 993e 0dbc
00000320: 6d47 ba3d 5e6f 93bd d2d3 bc3c 8872 5b3d
00000330: 5167 18bc f67b 913c c7a2 b53d 14ae 1c3d
00000340: dd93 f0bc f1a7 923d 5e3f f23c 5562 4ebc
00000350: 1d29 5abc 910e 403d 2bb0 3e3d 9f2d c03d
00000360: a1ed 1c3e 4c23 ecbb 0835 f0bc b956 303d
00000370: 92b7 443d a6a7 3c3b 8f6e 0a3e 85bf a43a
00000380: bdcf 20bd df5e 23bd c83f 823d f8c4 ae3d
00000390: 02d2 e8bb 81c1 0d3d ecd3 26bc ad4d 27bd
000003a0: 1818 c03a da22 d23d 185c c13d 2a1e b43d
000003b0: 95d0 bfbc 0285 51bd cbb5 87ba a0a6 a13d
000003c0: d199 0bbd 5c98 9b3d f570 a3bd e31e d33d
000003d0: 30d0 63bd 8076 873d d517 59bd dc06 cd3d
000003e0: 22b7 933d 74af 063c a592 c3bc fc9f b0bd
000003f0: f1c7 633d 094b 8bbd b3d8 80bd 93ab 23bd

linear3.bias f4 [256]
0.03962558 0.05473885 0.07440452 0.0031187385 -0.009864928 0.058619473 -0.008484365 0.027856357
0.07195372 0.052877516 -0.015443504 0.04161519 -0.0016530199 0.047734365 0.041608553 -0.030018385
-0.026104102 0.040043876 0.053577773 -0.050310425 0.027300855 0.017498022 -0.0104942275 0.0642425
0.0076334546 0.036482483 -0.034262806 0.07583084 -0.014356605 0.0023733336 0.057792798 0.04125393
-0.024766283 0.008985165 -0.021835428 -0.046776075 -0.0068576406 0.058771677 0.009431145 0.061760597
-0.018987494 0.03563108 -0.0022659882 0.018458437 0.03883376 -0.01609567 0.026050985 0.03736236
0.042223677 0.014599082 0.0276381 0.040550835 -0.018887488 0.060612585 0.07591258 0.018566474
0.019335 -0.037925724 0.058163673 0.07195819 0.01092957 0.00421535 0.00054407364 -0.02724948
-0.0315587 0.08468963 -0.0421074 0.03609078 0.057618048 -0.011731811 -0.010245447 0.049416944
0.07793878 -0.011561959 0.07616176 -0.007837207 0.018458331 0.06474764 -0.054765213 0.06525302
0.074884385 0.029384373 0.021986114 0.013984143 0.05870117 0.024941567 0.048363443 -0.020623934
-0.018329725 0.0117702475 -0.0036552849 -0.022869764 0.0059627034 0.0353818 -0.042706527 -0.048680376
-0.018912176 -0.062387988 0.0865133 -0.02860558 0.013929662 -0.06807589 0.08568929 0.02119059
-0.015667733 0.01816574 -0.01051972 0.085655764 -0.02505949 0.03327411 0.03994807 -0.045013055
-0.055079877 0.074746564 0.06551116 0.022707703 0.0075089117 -0.024665684 -0.07296245 0.048145287
-0.018054951 0.09125326 -0.0171406 0.0018204459 0.05325946 -0.03317008 0.07953002 0.0520208
-0.0012973673 -0.005345653 -0.056241106 -0.021277003 -0.05574784 0.01884184 -0.018461613 0.049633045
0.025711065 -0.03783842 0.05849374 0.061128974 0.057698004 0.0071719773 0.07522175 -0.0025396254
0.027282849 -0.015215531 -0.0014685353 0.046697654 -0.018972678 0.030666135 0.00507378 0.005833756
0.07717717 0.05497507 0.09859633 -0.051514614 0.016773157 0.051597085 -0.04148313 0.028122557
0.050059922 -0.042078998 -0.005975835 0.03355204 -0.08079933 -0.023602528 0.014077883 0.06517558
-0.04149555 0.007878971 0.05526449 -0.03004147 0.027984634 0.04249229 0.06501573 0.012506537
0.049569003 -0.0063303486 0.009400305 0.039696433 -0.008176871 -0.0055646775 -0.017499778 -0.06397655
-0.07055256 -0.024825057 -0.0051540677 -0.045507144 -0.0396978 -0.021777265 0.00850965 0.027665123
0.004018424 0.0647973 -0.015014385 0.049508687 0.036402844 -0.024334189 0.017837524 -0.0311176
0.017161006 -0.023911875 0.06527064 0.037987527 -0.006380684 0.025906436 0.07909356 0.03827979
0.07766026 -0.015214133 0.03911683 0.054402117 0.056916334 0.014852893 -0.057126928 0.0039332276
0.04204724 0.0055048945 0.059490874 0.03603703 -0.032806486 0.037625387 -0.000804454 0.038718794
0.059639893 -0.0684673 -0.019573458 0.01802795 0.014495635 0.051813956 -0.025925 0.06690847
0.043264862 0.016987594 0.033706192 -0.00029997856 -0.019679941 0.03164745 -0.018026607 0.058698576
0.0485965 0.06376543 -0.009540305 0.0009906586 0.02487713 0.017437056 0.04506599 0.049868792
-0.021574358 0.03942581 0.08422155 -0.0098433 0.03828195 0.0118971355 -0.033361766 -0.016206803
00000000: 6f4e 223d d835 603d 6661 983d c063 4c3b
00000010: 82a0 21bc f91a 703d 0202 0bbc 0433 e43c
00000020: 795c 933d 1896 583d c006 7dbc b174 2a3d
00000030: 25aa d8ba 1c85 433d bb6d 2a3d 1ee9 f5bc
00000040: 45d8 d5bc 0c05 243d 5e74 5b3d 4e12 4ebd
00000050: 0ba6 df3c 0358 8f3c fbef 2bbc 9291 833d
00000060: 0f22 fa3b a86e 153d 2857 0cbd 334d 9b3d
00000070: f737 6bbc ee89 1b3b 24b8 6c3d e2f9 283d
00000080: a9e2 cabc 8336 133c 36e0 b2bc 4598 3fbd
00000090: 0fb6 e0bb 92ba 703d 1785 1a3c aef8 7c3d
000000a0: a98b 9bbc e5f1 113d f980 14bb 2636 973c
000000b0: 2610 1f3d 11db 83bc e068 d53c 4609 193d
000000c0: bcf2 2c3d fd30 6f3c 4c69 e23c a218 263d
000000d0: efb9 9abc e744 783d 0e78 9b3d b818 983c
000000e0: 6f64 9e3c 0158 1bbd 083d 6e3d d15e 933d
000000f0: f011 333c eb20 8a3b 2aa0 0e3a 4d3a dfbc
00000100: b243 01bd c271 ad3d cf78 2cbd edd3 133d
00000110: e700 6c3d c836 40bc 85dc 27bc 6c69 4a3d
00000120: 5e9e 9f3d 5f6e 3dbc b2fa 9b3d a167 00bc
00000130: ed35 973c 699a 843d 7d51 60bd 60a3 853d
00000140: fc5c 993d 7fb7 f03c 391c b43c bf1d 653c
00000150: a370 703d 4252 cc3c bf18 463d 86f3 a8bc
00000160: 3828 96bc ffd7 403c 818d 6fbb 5f59 bbbc
00000170: c862 c33b 82ec 103d 0aed 2ebd 1365 47bd
00000180: b5ed 9abc 8c8a 7fbd e32d b13d 4056 eabc
00000190: 3d39 643c 5f6b 8bbd de7d af3d e397 ad3c
000001a0: 9e59 80bc 51d0 943c e75a 2cbc 4a6c af3d
000001b0: 8f49 cdbc 6f4a 083d 96a0 233d 9c5f 38bd
000001c0: 709b 61bd ba14 993d b72a 863d 8105 ba3c
000001d0: 510d f63b b00f cabc 566d 95bd fe33 453d
000001e0: fae7 93bc fde2 ba3d 726a 8cbc 079c ee3a
000001f0: 9726 5a3d 5add 07bd a3e0 a23d c313 553d
00000200: 6c0c aaba 962a afbb 135d 66bd 1c4d aebc
00000210: d957 64bd 345a 9a3c cf3c 97bc 054c 4b3d
00000220: 03a0 d23c 76fc 1abd 2297 6f3d 6062 7a3d
00000230: be54 6c3d e802 eb3b dc0d 9a3d d86f 26bb
00000240: 4880 df3c 904a 79bc de7b c0ba 0a46 3f3d
00000250: 976c 9bbc 8c37 fb3c f441 a63b 1829 bf3b
00000260: 100f 9e3d 8a2d 613d dfec c93d fd00 53bd
00000270: dc67 893c 7757 533d 37ea 29bd 4761 e63c
00000280: a20b 4d3d 075b 2cbd f0d0 c3bb dd6d 093d
00000290: 1e7a a5bd 175a c1bc eca6 663c c67a 853d
000002a0: 3df7 29bd cd16 013c 055d 623d 8719 f6bc
000002b0: 0840 e53c 650c 2e3d f826 853d 38e8 4c3c
000002c0: de08 4b3d d06e cfbb bd03 1a3c ba98 223d
000002d0: 48f8 05bc e657 b6bb b25b 8fbc 2306 83bd
000002e0: dc7d 90bd eb5d cbbc 74e3 a8bb b365 3abd
000002f0: 299a 22bd 3c66 b2bc 0f6c 0b3c f8a1 e23c
00000300: fcac 833b 72b4 843d e5fe 75bc 9fc9 4a3d
00000310: 261b 153d 7e58 c7bc 0020 923c 56ea febc
00000320: 3d95 8c3c d6e2 c3bc 9dac 853d cf98 1b3d
00000330: 0f15 d1bb bc39 d43c cefb a13d 45cb 1c3d
00000340: 580c 9f3d b344 79bc f838 203d c1d4 5e3d
00000350: 1a21 693d 8c59 733c edfd 69bd 4ee2 803b
00000360: ba39 2c3d 6762 b43b b4ac 733d 919b 133d
00000370: 1860 06bd 141d 1a3d fee1 52ba 9997 1e3d
00000380: f648 743d 9538 8cbd 8458 a0bc 5aaf 933c
00000390: 1a7f 6d3c df3a 543d aa60 d4bc 4f07 893d
000003a0: 7f36 313d 9129 8b3c 810f 0a3d 7146 9db9
000003b0: d437 a1bc c2a0 013d 89ac 93bc eb6d 703d
000003c0: 200d 473d 7397 823d f04e 1cbc fdd8 813a
000003d0: 1fcb cb3c 28d8 8e3c 1e97 383d 3843 4c3d
000003e0: b5bc b0bc f57c 213d 597c ac3d cb45 21bc
000003f0: 89cd 1c3d 34ec 423c 59a6 08bd 21c4 84bc

out.weight f4 [4, 256]
0.060411256 -0.12293068 0.0822776 -0.04330929 0.17557138 -0.03979587 0.0031849071 -0.16888885
0.07082052 -0.17041405 0.18957761 0.009781719 0.046667267 0.038421277 -0.009528377 0.17453648
0.005127172 0.054202706 -0.15286763 0.060158815 0.057294123 0.09565863 -0.026734078 -0.13240686
-0.065969445 -0.19839695 0.07512452 -0.16912879 -0.036812384 0.04378555 -0.1570278 0.06618639
0.10174291 -0.001506197 -0.028219078 0.18146303 -0.079612695 -0.08784454 0.14952645 0.03978489
-0.0032844834 0.07750659 0.0794744 -0.17242713 0.073888384 -0.025768133 -0.14428307 -0.2107231
-0.03129723 -0.053043935 -0.039594814 -0.19645421 -0.11871954 -0.117194615 0.01996574 0.070729345
-0.024069166 0.019588394 -0.1864484 -0.1511137 0.0024253826 -0.14237468 -0.23641616 -0.0145564955
-0.034944896 -0.14420597 -0.013376263 0.005445766 0.10928741 0.051478878 0.092074774 0.065243214
0.0045253593 -0.019938707 -0.1929375 -0.0074793417 0.15972848 0.077829085 -0.058311164 -0.022199228
-0.07837717 0.064901724 -0.12225742 -0.20303978 0.07274292 0.09723902 -0.19228852 -0.14195062
0.07872841 0.057752907 -0.03723699 -0.16278006 -0.20454934 -0.19378798 0.12019813 -0.06613375
-0.16477014 0.040442236 -0.096273184 0.02953896 -0.020904036 -0.05453581 -0.2204748 0.049076546
0.02264932 0.10900537 -0.072531596 -0.16519521 -0.040210057 0.041682553 0.061124187 -0.0498483
0.034910258 -0.21319312 -0.17921916 -0.07500533 -0.017876763 0.008429185 0.15657198 0.093412176
0.059876293 0.054357585 0.09773537 -0.11298837 -0.1687643 0.06243193 -0.19073534 -0.20429981
-0.21539026 0.080002286 -0.036838904 0.066263214 -0.055741716 -0.21393761 0.0906841 0.11603211
0.05036088 -0.03835094 -0.19294932 0.06041605 -0.033533763 0.114733495 -0.04969903 0.13344836
-0.041142724 0.0072711892 -0.18181667 0.06947232 0.20565926 0.0969546 -0.21128964 0.031194318
-0.07197994 0.10902388 -0.006367767 0.036035262 -0.050476536 0.043660365 -0.104730874 0.09981276
0.018434824 -0.19313276 -0.0039323056 0.046071425 0.010055034 0.01077522 -0.12544489 -0.021729914
-0.03797728 -0.025626654 -0.018443754 0.10204722 -0.1762151 0.09648176 -0.20795557 0.08018694
-0.11204175 -0.08700502 0.09005291 0.03300097 -0.019776417 -0.07520491 -0.211072 0.016110746
-0.036761336 -0.05665997 -0.03670488 0.012903513 0.020974446 0.08571628 -0.03586062 -0.012869247
-0.038863488 -0.15135287 -0.18822135 -0.034707647 0.0073377825 0.11274819 0.0005282175 -0.04256816
0.08808005 -0.041625835 0.069320805 0.09115802 0.12519112 -0.013638564 0.04967584 0.015072684
-0.057928503 0.20396222 -0.23816027 0.06292295 0.1160128 0.084909044 0.09386288 -0.19727163
0.031702586 -0.024015415 0.016950388 -0.058789566 -0.02827358 0.0437039 -0.04440102 0.02525916
-0.15313499 0.19603486 -0.108613744 0.037355766 -0.052212857 0.053349484 0.025521984 -0.15231812
-0.021477766 0.041643247 0.17914663 -0.17238027 0.0753072 -0.07674313 -0.17701052 0.01155585
-0.17800425 -0.11771307 0.09414157 0.00740657 0.10591867 -0.027429465 -0.060521737 -0.062033318
-0.18609506 -0.21092232 -0.13927358 0.042967405 0.094726555 -0.14739758 0.039123233 -0.03694023
00000000: cb71 773d 15c3 fbbd 2981 a83d 1565 31bd
00000010: fcc8 333e ff00 23bd e0b9 503b 33f1 2cbe
00000020: 590a 913d 0581 2ebe a220 423e 8143 203c
00000030: 2d26 3f3d a15f 1d3d e91c 1cbc b1b9 323e
00000040: d601 a83b a803 5e3d 5589 1cbe 1769 763d
00000050: 3ead 6a3d ace8 c33d 6d01 dbbc aa95 07be
00000060: fd1a 87bd 9228 4bbe e2da 993d 1930 2dbe
00000070: 95c8 16bd 7a58 333d e5cb 20be bb8c 873d
00000080: 965e d03d 966b c5ba b22b e7bc 72d1 393e
00000090: fb0b a3bd d7e7 b3bd 761d 193e 7bf5 223d
000000a0: 7d40 57bb c6bb 9e3d 79c3 a23d bd90 30be
000000b0: cb52 973d b117 d3bc f1be 13be ccc7 57be
000000c0: 8631 00bd 9944 59bd 2c2e 22bd 4b2b 49be
000000d0: 3b23 f3bd bb03 f0bd 318f a33c 8cda 903d
000000e0: b32c c5bc d777 a03c 54ec 3ebe 8dbd 1abe
000000f0: 2bf3 1e3b abca 11be 1417 72be 5e7e 6ebc
00000100: 6122 0fbd bbaa 13be 1d28 5bbc 6572 b23b
00000110: 14d2 df3d 84db 523d b391 bc3d 3c9e 853d
00000120: 7749 943b 8056 a3bc 6891 45be 4415 f5bb
00000130: dd8f 233e db64 9f3d b0d7 6ebd 28db b5bc
00000140: 3684 a0bd 32eb 843d 1962 fabd a9e9 4fbe
00000150: 3dfa 943d 4025 c73d 48e7 44be 815b 11be
00000160: 5c3c a13d 508e 6c3d d085 18bd d1af 26be
00000170: 6275 51be 5b70 46be 702a f63d 2271 87bd
00000180: 81b9 28be c2a6 253d e02a c5bd b0fb f13c
00000190: f13e abbc f160 5fbd 25c4 61be 7d04 493d
000001a0: 118b b93c 353e df3d 728b 94bd ef28 29be
000001b0: 4db3 24bd 53bb 2a3d 5b5d 7a3d bb2d 4cbd
000001c0: 0ffe 0e3d 4c4f 5abe 3a85 37be 659c 99bd
000001d0: 4a72 92bc 901a 0a3c 6854 203e e24e bf3d
000001e0: d840 753d 0fa6 5e3d 7b29 c83d 7266 e7bd
000001f0: 8cd0 2cbe a0b8 7f3d 2050 43be f833 51be
00000200: 448f 5cbe 3dd8 a33d 64e4 16bd 02b5 873d
00000210: 6d51 64bd 7612 5bbe 96b8 b93d 3ea2 ed3d
00000220: 3647 4e3d e015 1dbd 8294 45be d276 773d
00000230: b35a 09bd 65f9 ea3d 3691 4bbd b0a6 083e
00000240: 4685 28bd 2843 ee3b 262e 3abe 8147 8e3d
00000250: 5798 523e 2290 c63d 505c 58be 3a8b ff3c
00000260: 386a 93bd e947 df3d b4a8 d0bb b699 133d
00000270: 7cc0 4ebd 36d5 323d 247d d6bd a26a cc3d
00000280: a104 973c 98c4 45be 92da 80bb 64b5 3c3d
00000290: dfbd 243c 8c8a 303c a074 00be ef02 b2bc
000002a0: 108e 1bbd fdee d1bc 5b17 97bc 22fe d03d
000002b0: bb71 34be 3b98 c53d 4ef2 54be 0d39 a43d
000002c0: 2576 e5bd b02f b2bd a96d b83d 062c 073d
000002d0: 2702 a2bc 0805 9abd 4223 58be affa 833c
000002e0: 0e93 16bd 4914 68bd db57 16bd 4269 533c
000002f0: 9ad2 ab3c 048c af3d 96e2 12bd 89d9 52bc
00000300: 522f 1fbd 3ffc 1abe 19bd 40be 9b29 0ebd
00000310: c871 f03b 86e8 e63d 1478 0a3a f35b 2ebd
00000320: 5063 b43d da7f 2abd 11f8 8d3d 0eb1 ba3d
00000330: 1a32 003e 4974 5fbc e578 4b3d 6bf3 763c
00000340: 7046 6dbd 79db 503e 49e0 73be bfdd 803d
00000350: 1e98 ed3d cbe4 ad3d 2e3b c03d 9301 4abe
00000360: 92da 013d fabb c4bc 8adb 8a3c 54cd 70bd
00000370: ff9d e7bc dc02 333d d8dd 35bd 4cec ce3c
00000380: 6bcf 1cbe 5dbd 483e e270 debd 5c02 193d
00000390: 26dd 55bd fd84 5a3d 7b13 d13c 48f9 1bbe
000003a0: 24f2 afbc 1c92 2a3d 3772 373e 7484 30be
000003b0: a93a 9a3d 812b 9dbd 3f42 35be bf54 3d3c
000003c0: bf46 36be 8d13 f1bd 4ccd c03d d0b2 f23b
000003d0: e3eb d83d c2b3 e0bc a4e5 77bd a616 7ebd
000003e0: b48f 3ebe 05fc 57be bc9d 0ebe 97fe 2f3d
000003f0: ffff c13d 64ef 16be af3f 203d a34e 17bd

out.bias f4 [4]
-0.027148457 -0.008062604 0.07090076 0.017956799
00000000: 7166 debc 0319 04bc 6b34 913d 231a 933c
