mobile_price_category_predict/model/mobile_price_class_predict.pth (torch, 150265 bytes, 6 tensors)

linear1.weight f4 [128, 20]
000000 0f 4b 18 3e 89 32 46 bd c6 a0 5a bc 2a 3f 14 be
       0.14872383 -0.048388038 -0.013343995 -0.1447722
000010 87 ec 3a be 08 4b ea bb 6e 7a 5f be 0e c6 fc 3d
       -0.1825429 -0.0071500577 -0.21824047 0.123424634
000020 ea fb 90 3d 6f 70 d4 3d 05 7a 3a be 31 b8 39 3e
       0.07079299 0.103730075 -0.1821061 0.1813667
000030 f9 2b 03 be e7 a9 04 be 7b 55 47 3d 44 f9 fb bd
       -0.12809743 -0.12955438 0.048665505 -0.12303403
000040 b2 e8 b1 3d bb 17 80 3d 12 73 93 bd a8 b8 20 bd
       0.08686961 0.06254526 -0.07199682 -0.039238602
000050 a1 dd 3a bc 1a e5 3a be 93 a4 56 be 4a a3 ed 3d
       -0.0114053795 -0.18251458 -0.20961218 0.116034105
000060 08 49 f3 bc 1d 55 f9 3c ba a2 6d be 73 90 48 3e
       -0.02969791 0.030436093 -0.23206607 0.19586353
000070 d7 d2 c2 be d2 3b 3f be d4 c1 ff 3d ed 34 37 bc
       -0.38051483 -0.18675163 0.12488142 -0.011182052
000080 0c d3 bf 3d 4c ad 50 3d 95 ae 9a bd d3 d4 13 be
       0.09366426 0.05094652 -0.0755283 -0.14436655
000090 f6 4c d3 3d b9 d7 b4 3d 66 4f 9d bd f3 6e 19 3c
       0.103174135 0.08830208 -0.0768116 0.009364831
0000a0 0f aa 3a be ad 3b bd 3d af 62 a0 bd d8 4c 9b bd
       -0.18228935 0.09239898 -0.078313224 -0.07583016
0000b0 27 09 80 3d e2 ee ea 3d 0a a1 18 be f9 35 12 be
       0.06251746 0.114713445 -0.14905182 -0.14278401
0000c0 88 c4 06 3e 12 83 48 3e 24 26 25 be 71 80 26 3e
       0.13160908 0.1958125 -0.1612783 0.16259934
0000d0 18 02 f9 3c 87 96 ea bd a1 08 9e 3d 21 f2 30 3d
       0.030396506 -0.11454492 0.077164896 0.043199662
0000e0 b9 a9 49 be a1 cc 56 be 03 27 7b bd 71 50 b3 bd
       -0.1969365 -0.20976497 -0.0613165 -0.08755577
0000f0 f5 0e 20 bd 10 d9 41 be 3c e2 c1 3d d9 c4 56 be
       -0.039076764 -0.18930459 0.09466979 -0.20973529
000100 8d 20 2d bc d9 9f 43 be 36 46 33 be 41 65 34 be
       -0.010566843 -0.19103946 -0.17507252 -0.1761675
000110 2c 5c 5c 3e 5f c3 87 bd d1 f4 fd 3d d4 a7 62 be
       0.21519536 -0.06629061 0.12400211 -0.22134334
000120 1d 83 15 3e 0a cc 44 be 6d 1b 37 be 19 c6 53 be
       0.14600797 -0.1921846 -0.17881556 -0.20681037
000130 12 eb a8 bb 11 6c 18 3e f1 56 0d be f2 4b 60 be
       -0.0051549757 0.14884974 -0.13802697 -0.21903971
000140 f6 16 4a be c6 b7 16 be 1c 1f 30 3e 58 e8 57 3d
       -0.19735321 -0.14718542 0.17199367 0.052711815
000150 38 01 87 3d 2c 03 5d be 10 3e e3 bd f0 2f 02 bc
       0.06592029 -0.21583241 -0.11095822 -0.0079459995
000160 5a 9a 58 3e 18 a6 0e bd a2 77 1f 3e 9d 92 3e be
       0.2115263 -0.034826368 0.1557298 -0.18610616
000170 80 28 5e bc de 73 01 be 20 de 9f bb 16 49 1b be
       -0.013559461 -0.12641856 -0.0048787743 -0.15164599
000180 d4 cd 90 bd 3e fe 47 be b4 0f 5d 3e 90 cb 4a 3e
       -0.070705086 -0.1953058 0.21588022 0.19804215
000190 fe 4c 03 3d 74 06 41 3e 2d d5 49 be c4 f9 8d bb
       0.032055847 0.18850118 -0.19710226 -0.004332753
0001a0 fc e3 ce bc d9 30 59 3e c4 20 4a be 41 6b 20 be
       -0.025255196 0.2121004 -0.19739062 -0.15665914
0001b0 e0 6a 2c be 9a 3f e0 bd 70 4d 12 3e dc 4a 5a be
       -0.16837645 -0.10949631 0.14287353 -0.21317619
0001c0 a8 4e 49 bd 0b 53 0d be b4 e2 42 3d f3 6e 77 bd
       -0.049147278 -0.1380121 0.047579482 -0.060408544
0001d0 4e c8 29 be 8d c0 db 3d 2d 04 10 be e5 3a d2 bd
       -0.16580316 0.107300855 -0.14064093 -0.102651395
0001e0 50 c3 40 3c 50 ea 42 3e 20 22 d8 3b 7c 61 a4 bd
       0.011765316 0.19034696 0.006595865 -0.08026406
0001f0 ac 82 23 3e a0 26 7f 3d a2 36 4e 3e a4 61 d9 3d
       0.15967816 0.062292695 0.20138028 0.106143266
000200 19 28 e7 bd 7a a0 1e 3e 66 e2 44 be d4 e6 e4 3d
       -0.11286945 0.15490904 -0.19226989 0.111768395
000210 f5 f2 f9 bd 46 86 18 be ae dd 5b 3e 7c 8d 90 bd
       -0.122045435 -0.14894971 0.21471283 -0.07058236
000220 08 16 38 3d 96 39 04 3e 18 73 10 3d 28 5e d2 3d
       0.044942886 0.12912592 0.035266012 0.10271865
000230 08 ab 81 bd f0 3e fa 3c f9 ab e1 bd 76 36 15 3e
       -0.0633145 0.030547589 -0.11019129 0.14571556
000240 0c 37 39 be b0 85 61 be bc 94 2c 3e 4c b3 a2 3d
       -0.18087405 -0.22023654 0.16853613 0.079443544
000250 7e e5 84 bd 70 25 c9 3d 6a 91 2a 3e 28 f4 bb bc
       -0.06489085 0.09821594 0.16657034 -0.022943571
000260 b7 89 02 be e0 91 92 bb 22 c2 2d 3e e0 d7 30 3e
       -0.12747847 -0.004472956 0.16968587 0.1726985
000270 52 cc 4e be c8 f7 ae 3d 93 4e 23 be e0 c5 bd bb
       -0.2019513 0.08543354 -0.15947942 -0.005791411
000280 86 34 17 be fd 00 88 bc 52 b9 93 3d 39 75 00 3e
       -0.1476613 -0.016602034 0.072130814 0.12544717
000290 38 c5 f7 3d 0c ac 87 3c 33 cd e7 bd 1a ec 3f bb
       0.12098163 0.01656153 -0.113184355 -0.0029285015
0002a0 ef ea 87 3d 29 7c 51 3e 72 d1 9d 3d 14 3f 3b bc
       0.06636607 0.2045752 0.07705964 -0.011428613
0002b0 66 04 80 3e 75 df 97 bd fc 47 4c bd 6b ed 11 be
       0.25003356 -0.07415668 -0.049873337 -0.14250724
0002c0 f6 e8 24 3e a0 23 2a be bb 71 f1 bc f7 10 9e bd
       0.16104493 -0.16615152 -0.029473176 -0.077180795
0002d0 48 f5 e1 bc a2 ed f8 bd 43 1e 0d be 2b 48 63 3e
       -0.02758278 -0.121547 -0.13781075 0.22195499
0002e0 23 cd 5b be 14 db 22 be c1 b1 39 be 84 af 17 be
       -0.21464972 -0.15903884 -0.18134214 -0.14813048
0002f0 24 2f f6 bd 08 06 11 3e 65 0f 46 3e 49 63 2b be
       -0.1202071 0.14162457 0.1934181 -0.16737093
000300 45 c1 2f 3e fe 52 19 be 6c 9a 15 3d f7 b9 2a be
       0.1716357 -0.14973065 0.03652422 -0.16672502
000310 89 ee 5c be 79 73 fd bd 21 2c 91 3d 7c 29 45 be
       -0.21575369 -0.1237554 0.07088495 -0.19254106
000320 80 97 15 3e a7 f2 5f bd 3f 59 d2 3d 9f 36 57 bd
       0.14608574 -0.05467477 0.102709286 -0.052542325
000330 fa 16 d8 bd 6d 39 64 3d e0 b9 47 be 3a 4d d5 bd
       -0.105512574 0.055718828 -0.195045 -0.104151204
000340 60 36 5c be 82 10 4e be a4 5f 09 3e df 93 99 3d
       -0.21505117 -0.20123485 0.1341539 0.07498907
000350 79 95 74 bb c9 29 58 bd 81 bc e7 bd 75 eb d0 bd
       -0.0037320538 -0.052774224 -0.11315251 -0.1020116
000360 10 d2 66 be 2b 07 0a bd 57 67 0b bd 5e 32 3b be
       -0.2254107 -0.033698242 -0.0340341 -0.18280932
000370 e2 e5 b3 3d 5d 9d f0 bc 29 14 21 3d 80 6d 04 be
       0.08784081 -0.029371912 0.039325867 -0.12932396
000380 b0 3a 46 be 5c 99 83 bd 73 da 39 be 67 72 bd 3a
       -0.19358325 -0.06425735 -0.18149738 0.001445365
000390 3c 0c a7 bd 66 a7 d1 bd 8f 88 ee 3d 6b a7 8d 3c
       -0.081566304 -0.10237007 0.1164714 0.017291745
0003a0 ae 79 70 bc f4 6d 0b be 28 4a 1f 3e ea d5 88 bd
       -0.014677448 -0.13616163 0.15555632 -0.06681426
0003b0 dd b0 a6 bc af 62 1b be d4 26 05 3e 9c 8b 02 be
       -0.020348007 -0.15174364 0.13003093 -0.12748569
0003c0 f0 96 94 bd 30 36 1e be 8b 7e 12 be 14 c5 d6 3d
       -0.072553515 -0.15450358 -0.14306085 0.104868084
0003d0 3c fe b2 3d ea b4 a9 bd 7c 9f 19 3e 42 0d b6 bd
       0.087398976 -0.0828646 0.15002245 -0.088892475
0003e0 f8 ab 34 be 57 f9 17 be 12 3a 89 bd 2c bf 32 bd
       -0.17643726 -0.1484121 -0.06700529 -0.043639347
0003f0 bf 7d 3c be ca bb 56 be 10 7d 12 3e 4c ac 53 be
       -0.18407343 -0.20970073 0.1430552 -0.20671195

linear1.bias f4 [128]
000000 55 bc 64 3b 11 17 1f be 30 b4 fb 3a b3 b9 2c 3e
       0.0034902294 -0.15536143 0.001920348 0.16867714
000010 4c 8b f3 3d bf 7f 0d 3e 58 14 ec bc 1a 13 cc bd
       0.11891803 0.13818263 -0.028818294 -0.09964581
000020 44 43 ca bd 56 19 3f bd b8 41 10 3e 68 2f 3c 3e
       -0.09876111 -0.04665502 0.1408757 0.18377459
000030 80 50 d3 ba f0 ef cd 3c 0b 2f 1a 3e 9d 31 87 bd
       -0.0016122013 0.025138825 0.15057008 -0.0660126
000040 77 98 fb ba 84 05 74 3b 4f 81 35 bd 3c 54 26 3e
       -0.0019195218 0.0037234733 -0.04431277 0.1624307
000050 74 e8 41 3e 16 4f 23 3e 6c f4 9a bd 02 4f 54 3e
       0.1893633 0.15948138 -0.07566151 0.20733264
000060 c8 bd 47 bd 13 b0 2e 3e 75 df c8 3c 89 ae 26 3e
       -0.048764974 0.17059354 0.024520615 0.16277517
000070 99 c9 ba bc 16 58 28 3e df 1c a3 bc ba fa 60 3e
       -0.022801207 0.16439852 -0.019911228 0.21970645
000080 ed 1b f6 3d 76 7e 13 be 42 7f 43 3d 62 03 4d be
       0.12017045 -0.1440371 0.047728784 -0.20020822
000090 03 da 57 be 1f 5c 0c 3d 90 7c 42 be 83 16 c6 bd
       -0.21079259 0.03426754 -0.1899283 -0.096722625
0000a0 1a 21 29 3e 30 70 0a 3e ce ab 3b be 0c f2 35 3e
       0.16516533 0.13519359 -0.18327257 0.17768115
0000b0 56 22 04 be 0e 80 b1 bc 2c 80 ff 3d 22 28 11 3e
       -0.12903723 -0.021667507 0.12475619 0.14175466
0000c0 77 ad d5 bd f6 fd 52 3e fa 5d b4 3a 5c 60 91 3d
       -0.104334764 0.20604691 0.0013760917 0.07098457
0000d0 6d de 3f be 53 31 b1 3b 94 d4 06 be d5 cd 56 be
       -0.18737192 0.0054074912 -0.1316703 -0.20976956
0000e0 9a 63 da bd b9 96 dd 3d 6b f4 a8 3a e0 bf 5b 3e
       -0.10663529 0.10819764 0.0012890225 0.21459913
0000f0 a3 7e 88 bc 31 1b b5 3d dc 51 a8 3d e1 fa 3f be
       -0.016661948 0.08843077 0.082187384 -0.18748046
000100 ae c9 19 3e 20 ef d3 bd 2a af 38 be ab e2 be 3d
       0.15018341 -0.10348344 -0.1803557 0.09320577
000110 d6 7c 04 3e 94 95 58 3e 7f ad f6 bc 0d 4e f2 bc
       0.12938246 0.2115081 -0.030112026 -0.029578233
000120 d4 63 47 be 4c ea c6 3d 0f 5b 3a 3e b6 62 43 3e
       -0.19471675 0.09712657 0.18198799 0.19080624
000130 3f dc d6 bd 98 61 b2 bd 3e c0 2b 3e 93 93 75 3d
       -0.10491227 -0.08710021 0.16772553 0.05995519
000140 ff a7 83 3d a6 bf 91 3d 80 f0 34 bc b7 f5 5c 3e
       0.06428527 0.07116632 -0.011043668 0.21578108
000150 43 37 59 be 91 68 8d bb e0 81 f3 3c 40 cd db 3c
       -0.21212487 -0.004315444 0.029725015 0.02683127
000160 60 e7 67 bd d9 e8 fd 3a c4 14 75 bd 71 04 4c bb
       -0.05661714 0.0019371762 -0.059834257 -0.0031130577
000170 a9 84 d9 bd 60 8f a7 bd 7c 5b 25 3d 58 37 89 3c
       -0.10621006 -0.081816435 0.04037045 0.016750023
000180 e6 29 69 3c ce b7 b8 bd a9 60 41 3d 9b 4b 02 3e
       0.014231181 -0.09019433 0.047211323 0.12724154
000190 0e 96 51 3d 37 24 f7 3d 9f 3a 0d 3e 0c 3a 98 bd
       0.051168494 0.12067454 0.13791893 -0.074329466
0001a0 3e e3 eb 3c 7b 41 6f 3c 90 a9 ef bc 91 8d 47 3e
       0.028794881 0.014603014 -0.029255658 0.19487597
0001b0 65 a1 df 3d 32 aa 92 bd 68 21 59 be c2 d4 18 be
       0.109194554 -0.071613684 -0.2120415 -0.1492491
0001c0 5c f6 58 3e da b2 0d 3e 04 d3 34 be 82 08 15 3e
       0.21187729 0.13837758 -0.17658621 0.14554027
0001d0 26 78 2a 3e cf a8 f8 bd 59 ed 20 3d 67 2d 3a 3e
       0.16647395 -0.12141573 0.039288852 0.18181382
0001e0 04 da 4d be 27 ea ee 3c 64 9e 1f 3e f9 f4 57 be
       -0.20102698 0.029164387 0.15587765 -0.21089543
0001f0 cc 08 ab bd 01 98 51 bd 05 ab 6f bd 0b eb 35 be
       -0.08351287 -0.051170353 -0.058512706 -0.17765443

linear2.weight f4 [256, 128]
000000 fc 0a 33 3c 5a 44 49 bd 49 c2 06 bd 50 6b 0f 3d
       0.010927912 -0.04913745 -0.03290013 0.03501445
000010 ea ab f8 bc c3 4a 1d bd a7 f8 ae 3d d0 d2 65 3c
       -0.030355413 -0.038401376 0.085435204 0.014027312
000020 b0 32 5b 3a 0c fe 92 bd 1f d4 fb bd fb d7 9e 3d
       0.000836174 -0.07177362 -0.12296318 0.07756039
000030 8f e3 28 bd d9 78 f0 bd fb 4d 86 3c a0 22 bd bd
       -0.04123264 -0.117418 0.016394606 -0.0923512
000040 ae 38 b0 bd 77 4b 20 bc 64 23 41 3d dc c8 c6 3c
       -0.08604561 -0.009783617 0.04715289 0.0242657
000050 b5 fd d8 3c 34 50 9c bc 33 7a 7a bd a7 a1 73 bc
       0.026488164 -0.019081213 -0.061151695 -0.014870084
000060 63 cc 87 3d 65 ec 05 3c 86 8b a0 bc 36 18 b0 bd
       0.066307805 0.008174037 -0.01959778 -0.08598368
000070 be fc 36 bd ed ec 4e bd 44 66 8e bc 3f a5 d9 3c
       -0.044674627 -0.05051892 -0.017382748 0.026568053
000080 6c fd e9 3c 47 a7 9a bd 2b be 59 3d 30 79 11 3c
       0.028563224 -0.07551437 0.053159874 0.008878991
000090 8d f2 ab 3c 3f ce 66 bd c8 d8 70 bc 74 ce b3 bc
       0.02098968 -0.056349035 -0.014700122 -0.02194903
0000a0 01 42 35 bd ef 4f 63 3d 18 9c 38 bd 89 03 a3 bd
       -0.0442524 0.055496152 -0.045070738 -0.07959659
0000b0 c0 c8 a8 3a 0d 4a 85 3d 24 9a 15 bd 12 b2 95 bd
       0.0012877211 0.06508265 -0.036523953 -0.07309355
0000c0 60 0a 9f 3c 6f 61 12 bd 98 14 2c 3c 0b 7d dd bb
       0.019414127 -0.03573745 0.010502957 -0.006759291
0000d0 2d 17 c9 bd 0f 66 2b bd a0 cf 3d bc b7 b2 82 3d
       -0.098188736 -0.041845378 -0.011585146 0.063817434
0000e0 1b 79 d2 3c 52 b9 7b 3d 8f ac 78 bc 5b 77 07 bd
       0.025692513 0.061456032 -0.01517786 -0.03307281
0000f0 65 49 f7 bc 90 78 0d bd a5 c9 92 3d 67 83 aa bd
       -0.030186364 -0.034538805 0.07167367 -0.08325844
000100 c8 fd 0e bc e8 cf 76 bd 90 50 b9 3b e1 90 6a bd
       -0.008727498 -0.06025687 0.0056553558 -0.057267074
000110 8b 8e a9 bd 82 95 b2 bd d1 57 14 bd 75 17 60 3d
       -0.08279141 -0.087199226 -0.03621656 0.05470987
000120 e1 89 81 3d 95 9e a5 bd 88 f2 9c bc b2 dd 7c bc
       0.063251264 -0.08086888 -0.019158617 -0.015433716
000130 73 71 6b 3d d6 15 75 3d 68 b6 32 bd a6 85 6a bc
       0.05748124 0.059835277 -0.043630987 -0.014314091
000140 68 f2 d6 3c 5a 26 ad bd f2 ae 20 3d 34 3f 32 bd
       0.026238635 -0.084545806 0.03922934 -0.043517306
000150 ca 36 09 bd 56 bd 65 3b dd e8 9a bd df 49 61 bd
       -0.033499517 0.003505548 -0.075639464 -0.05500209
000160 b6 f4 6f 3d 12 6e 3b 3c 11 fb 91 bd ef d0 52 3d
       0.058582984 0.011439817 -0.07127965 0.051468786
000170 29 ae e0 bc 0a 1c 5b bd df 3c 5f 3a 6c 83 c5 3c
       -0.027426796 -0.053493537 0.00085158454 0.024110518
000180 12 52 13 3d bf c7 9e 3b 8d 96 4c 3d 45 36 8d bd
       0.03596694 0.004845589 0.049948264 -0.06895117
000190 67 4b 3c 3d 05 95 67 3d 2f 73 3c 3d c9 68 d3 bd
       0.045970347 0.0565386 0.046008285 -0.103227206
0001a0 d2 9d ea bc 8a 4d 65 bd d2 a3 2a bd 69 1b 43 bc
       -0.028639708 -0.05598215 -0.041660137 -0.011908391
0001b0 79 ee 86 3c 56 70 b3 bd a1 e5 87 3d 6a 58 6f bd
       0.016471134 -0.08761661 0.06635595 -0.058433928
0001c0 04 6b e6 3b c6 79 3b bd 91 88 33 bd 50 04 21 bd
       0.0070318 -0.04577043 -0.04383141 -0.039310753
0001d0 62 2a 17 bd 4e 68 b1 3c c5 33 c9 3c 07 23 d3 bd
       -0.036905654 0.021656182 0.024560818 -0.10309415
0001e0 5a 41 91 3d dc 5a 8c bd b7 ec 97 3d 7b 17 0d bd
       0.07092543 -0.068532676 0.07418197 -0.03444622
0001f0 e0 ae db 3b 18 7a 94 3d 98 26 ae 3d 4c e8 9a 3c
       0.0067041963 0.0724985 0.08503455 0.018909596
000200 ac 86 ac 3c 66 e0 cd bd 7c d2 89 bd 64 30 b7 bc
       0.02106031 -0.10052566 -0.067296 -0.022361942
000210 a3 7b 56 bd 74 16 98 bd bc f4 c0 bc 02 b0 48 3d
       -0.052364003 -0.074261576 -0.023554198 0.04899598
000220 9a 55 54 3d 99 86 2d bd c0 0a 11 bd 5c 05 d2 3b
       0.05183945 -0.04236469 -0.035410643 0.0064093303
000230 28 4b 98 bc de 75 80 bd c6 15 aa 3b 8a ca 97 3b
       -0.018590525 -0.062724814 0.005190584 0.004632299
000240 ce 4c 36 3d aa 27 7d bd 0c bd ab 3d 58 5f 0c bd
       0.04450684 -0.061805405 0.08385667 -0.034270614
000250 bd 5e 8d 3d 81 7c a0 3d e2 a2 1e 3d 9c 1d 8f bd
       0.069028355 0.07836247 0.038729556 -0.069880694
000260 ac 07 71 bd 1a 29 8a bd ea 5f 8b 3d 16 3e 7e bc
       -0.058845207 -0.06746121 0.068054035 -0.015517732
000270 8a 32 39 3c 76 26 c7 3c b3 bd 1c bc b6 9a 8d bd
       0.011303553 0.024310332 -0.009566712 -0.069142744
000280 34 eb b7 3c 93 a6 96 3b cf 89 01 bc ae a9 9c bd
       0.02245102 0.004597494 -0.007906391 -0.07649551
000290 b8 f3 33 bd 19 b0 aa 3d 3e e2 9c bd 5d 79 09 bd
       -0.0439336 0.08334369 -0.0766034 -0.033563007
0002a0 93 fe 82 3c 4d b3 96 bd e3 3e 1e 3d 64 59 09 bd
       0.015990531 -0.07358418 0.038634192 -0.033532515
0002b0 8c 17 78 3d 6d 12 4e 3d a0 7b 1f bb ba f8 52 bd
       0.06056933 0.05031054 -0.002433516 -0.051506735
0002c0 5d 06 18 3d 19 24 13 bd bc b7 69 3c b8 23 9e 3d
       0.037115443 -0.035923097 0.014264997 0.077216566
0002d0 80 ef 1f 3a 70 d4 5c bc 3a 17 3e 3d b8 6d 5e bc
       0.0006101057 -0.013478383 0.04640887 -0.013575964
0002e0 07 1d b4 3c c5 9c fd bc a8 4b aa bd 14 28 31 bd
       0.021986498 -0.030958543 -0.083152115 -0.043251112
0002f0 0c 54 ec bc 20 ad 89 3d 3a 9c 2c 3d 70 73 4e bd
       -0.02884867 0.06722474 0.042141177 -0.05040306
000300 d7 2b 9c 3d 8f 99 c6 bc 00 fc 75 39 36 29 4a 3d
       0.07625549 -0.024243144 0.00023458898 0.049355708
000310 54 ad 07 bd 9c de b5 bc 7b 9f 1c 3d fc 0e 8b bd
       -0.033124283 -0.022200875 0.03823803 -0.067899674
000320 e4 fe ef 3c 12 86 45 3d b4 06 e8 3b 81 2c 38 bd
       0.029296346 0.048223563 0.007080877 -0.044964317
000330 c3 1f 82 3d d7 8c 6d bd 60 35 61 bc 1c 89 5e bd
       0.06353714 -0.057995643 -0.013745636 -0.054329976
000340 3a 8c 18 bd bc 3e 85 bd 58 99 56 bc e9 b3 2d bd
       -0.037243105 -0.06506106 -0.013098083 -0.042407904
000350 ce df 36 3d b0 3e a1 3d 2b a2 b1 bd fe e2 2c 3d
       0.04464703 0.07873285 -0.08673509 0.042208664
000360 92 ce 54 3d 46 0b f0 bc c0 84 67 bd 8f c2 ab bc
       0.051954813 -0.02930225 -0.056523085 -0.020966796
000370 9a 96 87 bd 60 6a 24 bb 82 df e1 bc 1e 8a 79 3d
       -0.06620522 -0.0025087819 -0.027572397 0.060922734
000380 5f b7 30 3d f3 8f a1 bd fb 36 9e 3d 18 b6 30 bd
       0.043143626 -0.07888784 0.077253304 -0.043142408
000390 22 ee 2c bd fb 33 78 3d a8 11 a4 bd 99 76 4f 3d
       -0.04221929 0.060596447 -0.0801118 0.050650213
0003a0 41 21 78 3d c2 9c 6f 3d 9f d8 ab bd 90 35 67 3d
       0.06057859 0.058499105 -0.083909266 0.056447566
0003b0 14 da 6c bc e9 72 86 3d 4c e4 c7 3c 3b c8 f8 3b
       -0.014456291 0.06564886 0.024400853 0.0075922287
0003c0 56 ab 25 bd eb 6b 43 3c 28 28 72 3d 27 ba 4a 3d
       -0.0404466 0.011927585 0.059120327 0.049493935
0003d0 b6 7e 62 bd e4 ae cb 3c 12 29 72 3d 0a a2 7c 3d
       -0.055296622 0.024863668 0.0591212 0.06167797
0003e0 47 05 94 3d 96 bb 43 39 c6 cd fc bc e6 ab 81 3d
       0.07227569 0.0001866653 -0.03085984 0.06331615
0003f0 43 be 97 3d 91 0a 82 3d 4c 1c 2e bd 2f 68 8d 3d
       0.074093364 0.06349672 -0.042507455 0.06904637

linear2.bias f4 [256]
000000 bd f7 20 3d 3b 3b 6e 3d 05 f8 a7 3d 28 86 74 bb
       0.03929876 0.058161955 0.08201603 -0.0037311409
000010 63 c2 d3 3c f1 69 9f bb 57 b2 e5 bc 10 81 eb bc
       0.025849527 -0.004864924 -0.02803914 -0.028748065
000020 d5 59 1e 3d a5 8c 03 3d 3f 6a a8 bd 82 6d 26 3d
       0.03865989 0.03211655 -0.0822339 0.04063178
000030 f5 ca 97 3d ba d8 ae bd 0f 50 f8 bc e4 d7 48 3d
       0.07411758 -0.08537431 -0.030311612 0.049034014
000040 41 cb 2f bd a9 4d 93 3d 05 e7 86 3c 80 74 a8 bd
       -0.042918447 0.07192547 0.01646758 -0.082253456
000050 d7 5a 88 3d 68 7e a6 3d 53 66 53 3c 5e a0 a2 bc
       0.06657951 0.08129579 0.012902814 -0.01985186
000060 94 50 43 bd 3c d6 b1 3d ae b0 b5 bd 30 5e 94 bd
       -0.047684267 0.0868344 -0.088715896 -0.07244527
000070 7d ba 27 3d 9d 70 56 3d 24 0f 11 bc a4 06 a8 bd
       0.040949333 0.05235349 -0.008853707 -0.082043916
000080 5a 0f ae 3d 6f a9 a8 bc 1e b7 95 bd 56 02 2c 3d
       0.08499022 -0.020588605 -0.073103175 0.041994415
000090 cb 28 07 3d b4 16 1e bd 41 20 5e bd 2d 5c 56 bd
       0.032997888 -0.03859587 -0.05422998 -0.052334
0000a0 09 00 dc bc 20 a6 8a 3b 33 b4 6b b9 28 9b 6c bd
       -0.026855486 0.0042312294 -0.00022478476 -0.057765156
0000b0 7e 7f cd bb 3f 3f f1 bc 10 7b 08 bd 2e 3a 74 bd
       -0.006271302 -0.029449103 -0.033320487 -0.059625797
0000c0 ed ad 69 3d fc 3d 8f 3d ea cf 85 bc 06 3e 34 bd
       0.057050634 0.069942445 -0.016334493 -0.044004463
0000d0 de ba 1a 3c 88 51 a9 3d d5 2d 1c 3d e6 e1 6c 3c
       0.009443967 0.08267504 0.038129646 0.014458155
0000e0 56 41 9f bb 8b 4b b1 3c bf 32 f9 3c e3 b5 ab 3d
       -0.0048600836 0.021642467 0.030419705 0.083843015
0000f0 fe b6 93 bd 59 fa a1 3d 42 a2 50 3d 57 69 ad 3d
       -0.07212637 0.07909078 0.05093599 0.084673576
000100 83 de fe 3c 53 87 2b 3d 78 9c 7b 3d 8e 7a aa 3d
       0.031111961 0.041877102 0.061428517 0.08324157
000110 ea 1e 34 3c 5d f4 3f 3d 41 e5 40 3d 95 a1 a3 bc
       0.010993699 0.046863902 0.047093634 -0.01997451
000120 1c 41 74 bd a6 14 6d bb 06 44 65 3d 84 0e 17 bd
       -0.059632406 -0.0036175638 0.055973075 -0.036879078
000130 6f 7d 12 bd 5f 5a 3e 3c 6a 45 89 3d 63 cc c3 bc
       -0.035764154 0.011618226 0.06702693 -0.02390117
000140 96 51 4c 3b 12 98 39 bd ab 15 54 3d 9a 85 13 bd
       0.0031176559 -0.04531104 0.051778477 -0.036016084
000150 ba 73 c6 bb e1 b9 8b 3c aa 1a cf 3c 27 f8 0a 3d
       -0.006056276 0.017056407 0.02528127 0.033928063
000160 ee 49 89 bd b6 8f 5e 3d 87 9f 5c 3d 35 9c f3 bc
       -0.06703554 0.054336272 0.053863075 -0.029737571
000170 54 dc 66 bd e5 2f 56 3d d4 fe e5 bb 9d ed 4e 3c
       -0.056362465 0.05229177 -0.0070189033 0.012629894
000180 ef 82 f0 bc 86 1d 08 3d 66 6b fb 3c 41 9d a8 3d
       -0.029359309 0.03323128 0.03069086 0.08233119
000190 b2 32 80 3d 4b d0 46 bd 55 01 44 3d a9 3c 29 bc
       0.06259669 -0.048538487 0.047852833 -0.010329404
0001a0 d4 4e 48 bd 2d 74 57 bd aa ad 9c bd 82 dc f8 bc
       -0.0489033 -0.05260103 -0.07650311 -0.030378584
0001b0 99 c9 26 bc ec 12 43 bb 88 b0 9b bd 71 8b 87 bd
       -0.010179901 -0.0029765917 -0.0760203 -0.06618393
0001c0 e9 02 33 3d 77 e3 58 3b 20 6e ee 3c 3a 84 12 3c
       0.043703947 0.0033094564 0.029105246 0.008942658
0001d0 62 c2 2f bd e9 ac bd 3c b9 e9 07 bd 6b 0c 76 ba
       -0.042909987 0.023153739 -0.03318188 -0.00093860057
0001e0 76 a3 37 bd 14 d5 c1 ba f3 b0 ae 3c 77 61 32 bd
       -0.044833623 -0.0014788234 0.02132461 -0.04354998
0001f0 74 c0 cd bc 09 4b a2 bd 15 68 0a bd 86 ef 5d 3d
       -0.025116183 -0.07924468 -0.033790667 0.054183505
000200 ae ee a0 bc cd d4 3c 3d a3 7d 92 3d 30 7d 54 bd
       -0.019645061 0.04610138 0.071528696 -0.0518772
000210 73 23 4a bd 3e f2 8a bd 29 02 71 3d 43 91 be ba
       -0.049350213 -0.06784485 0.05883995 -0.0014539141
000220 38 d1 ec 3c e9 d1 05 bd 5d bf 0e bd d7 34 95 3a
       0.028908357 -0.03267089 -0.034850467 0.0011383545
000230 8d 6f b6 bc 33 a5 97 3d 6d 7e 59 bd 14 3d 0c 3d
       -0.022269988 0.07404556 -0.053099085 0.034237936
000240 7e 37 80 3d 68 cc 2b bd 5e 24 14 bc f7 b8 a2 bd
       0.06260584 -0.041942984 -0.009041874 -0.079454355
000250 04 0d 03 3d 21 28 3c bd 03 75 42 3c 41 db 0e bd
       0.031994835 -0.045936707 0.011868718 -0.034877066
000260 78 d7 97 3d ab 0a a6 3d 03 00 97 3d ee 19 b9 3c
       0.07414144 0.081075035 0.07373049 0.022595372
000270 fc 8a 9f bd 7a 9e 9a 3d 11 15 9b bb 4a bc d9 bc
       -0.07790181 0.07549758 -0.004732736 -0.026579041
000280 32 91 84 bd 9d a0 6a bd 8b 11 3c bd 9a 07 39 3d
       -0.06473006 -0.05728208 -0.045915168 0.045173265
000290 59 87 c1 bb be 25 71 3c 5e d3 ad bd 6c 3f ce 3b
       -0.0059060273 0.014718471 -0.08487581 0.0062941816
0002a0 c9 8f b2 bd 94 95 a8 bd 49 98 17 3d f1 9c 93 3c
       -0.08718831 -0.08231655 0.037010465 0.018019171
0002b0 68 76 7b 3d f4 a8 9b 3d d3 bc 89 3d f7 3f f4 3b
       0.061392218 0.076005846 0.067254685 0.0074539143
0002c0 4e 7a 45 3d 3b 3c 45 3d cb 72 9f bd 28 db a9 bb
       0.048212342 0.048153143 -0.07785567 -0.005183596
0002d0 10 9b b3 bd c7 aa af bd ed a8 a6 3d 53 82 95 bd
       -0.0876981 -0.08577495 0.08137689 -0.07300248
0002e0 64 21 7c bd bc ab 1c 3c 84 cd b5 bc 16 76 5d bd
       -0.06155528 0.009562429 -0.022192724 -0.054067694
0002f0 4f c2 16 bd 3b 1e b3 bd 36 41 49 bd 5a 77 8d bc
       -0.0368064 -0.087460004 -0.049134456 -0.017268825
000300 ad b5 18 3d f8 c9 82 3a 95 ed 33 bd 45 5a 46 3d
       0.037282635 0.0009978404 -0.043927748 0.04842593
000310 22 0f 7b bd 50 75 24 bd 6b 81 fd 3c ca ac 70 3c
       -0.06129373 -0.04015094 0.0309455 0.014689634
000320 08 c8 01 3d 8c 20 c3 3c 5c 98 70 3d 61 fa 8a bd
       0.031684905 0.02381923 0.05873905 -0.06786037
000330 b5 c2 b2 bd f1 8f a7 bd f3 bc 7f 3d ad c0 a5 bd
       -0.08728544 -0.081817515 0.062436055 -0.080933906
000340 15 d5 ad 3d 94 d3 8e 3d 46 5d 8b 3d 3d 7a f6 3c
       0.08487908 0.06973949 0.068049 0.030087585
000350 be cc f3 bc 20 7c a0 3d e7 7b 7f bd 11 9f 2b bd
       -0.029760715 0.07836175 -0.06237402 -0.041899744
000360 29 55 b4 3d b2 45 ac 3c ed e3 2f bc c9 40 52 3d
       0.088053055 0.021029327 -0.010735494 0.051331315
000370 ab 5d a2 3d f5 71 bd bc 08 8b 83 3d 3b 45 2d bd
       0.07928022 -0.023125628 0.064230025 -0.04230235
000380 95 a9 a6 3d 03 73 e3 3c 1f de 5a 3c 03 c2 41 3d
       0.08137814 0.027764803 0.013358622 0.047304165
000390 58 b3 6d 3d c8 fa ac bd 79 f7 37 bc 88 08 99 3c
       0.058032364 -0.0844627 -0.011228436 0.018680826
0003a0 22 8f 55 bd 4b ec 2b bc e0 f8 19 bc a2 4a 91 bd
       -0.052138455 -0.010493348 -0.009397715 -0.07094313
0003b0 45 5a 5e bd 0d 71 ab bc 2e 57 03 bc 66 6f ab bd
       -0.054285306 -0.02092793 -0.008016391 -0.08370857
0003c0 71 40 d7 3c b0 3d 89 3b 95 07 07 bd e9 05 c8 bc
       0.026275845 0.004188262 -0.032966215 -0.02441688
0003d0 0c 84 41 3d 36 f8 7c bc 27 6e 7c 3d 83 f0 0c 3d
       0.04724507 -0.0154400375 0.061628487 0.034409057
0003e0 a2 e4 39 bd 8e 3b 2a 3d c9 5d 98 3d 3d 91 60 3d
       -0.045384057 0.041560702 0.07439763 0.05482601
0003f0 8d fd 92 3c 6b ca 87 bd a6 77 a1 b9 96 de 8d 3d
       0.017943168 -0.06630405 -0.00030797458 0.069272205

out.weight f4 [4, 256]
000000 6c 56 8b bd b0 1d a7 3c c0 25 d0 bc fb 1d 23 bc
       -0.06803593 0.020399898 -0.025408626 -0.009955878
000010 33 ae 94 bd 80 29 9e 3c c7 f4 94 3d d3 5e 43 3d
       -0.07259788 0.019306898 0.0727325 0.047697853
000020 13 09 8b 3c e6 9b c9 bc cd 11 ea bc 05 7f fe 3c
       0.0169721 -0.024610471 -0.028572941 0.031066427
000030 5b 01 7f bc 3f 94 25 3d 10 c4 43 bd ad da a7 ba
       -0.015564288 0.04042458 -0.0477944 -0.0012806259
000040 f6 73 1c 3d ab 6c bf bd 03 dc 14 bb 77 0f 14 bc
       0.038196526 -0.09346899 -0.0022714145 -0.00903689
000050 56 c4 b2 3c b1 7c 73 3d 6c 02 51 3d d4 02 8b 3d
       0.021822136 0.059445087 0.0510277 0.06787649
000060 27 35 ba bd 1c 83 20 3d ca d4 03 3d e7 28 0b 3d
       -0.09092169 0.039187536 0.032185353 0.033974554
000070 fd db e3 bc 75 8f 29 3a 75 9e f0 bc cb 6b 15 3c
       -0.02781486 0.0006468215 -0.029372433 0.009119938
000080 2a cd ef 3a fc 43 c4 bd 69 69 83 bd 66 7a e9 bd
       0.0018295397 -0.095832795 -0.0641659 -0.11400299
000090 77 8c d2 bc 28 a7 9c b9 d2 d7 72 bd d4 4c 0f bd
       -0.025701744 -0.0002987918 -0.059287854 -0.03498538
0000a0 3b 7f 23 3a 91 c9 94 bc 03 50 56 3c 46 9b b1 bc
       0.00062369154 -0.01816252 0.0130806 -0.021680485
0000b0 5c 8f e5 bc ce 3e 99 bd 54 f9 51 bd f6 f4 32 3c
       -0.02802246 -0.07482682 -0.05126317 0.010922661
0000c0 30 d8 7b 3d 0a 57 9a 3c e1 76 d6 bc ff 6c da 3c
       0.06148547 0.018840332 -0.026179733 0.026663302
0000d0 3a 82 ec 3c 17 8c 48 bd 69 dc a0 bc dc f3 95 3c
       0.02887069 -0.048961725 -0.01963635 0.018304758
0000e0 1a 2c 9f bc f7 4a 2a 3c 41 c0 33 3d 8f 74 a3 3c
       -0.019430209 0.01039385 0.04388452 0.01995304
0000f0 01 a6 01 3d 37 78 e2 3b bd 88 87 bd 07 d6 27 3d
       0.031652454 0.0069113034 -0.06617878 0.040975597
000100 60 5f 07 be d2 c0 37 3d a4 a5 5b bd b6 9c c2 bd
       -0.13219976 0.044861622 -0.053624764 -0.095025465
000110 02 b2 9f bd 24 ed 7b 3c 08 fb 32 3c 4d 94 2a bc
       -0.07797624 0.015376363 0.010924108 -0.010411334
000120 89 e6 e1 3a ea 4f 92 bc b6 d8 6e bc ab 57 12 bd
       0.0017234843 -0.017860372 -0.014578035 -0.035728138
000130 29 b9 3c bd 9d 56 58 bd 63 86 83 3c 49 45 f8 3c
       -0.04607502 -0.052816976 0.016055292 0.030306475
000140 e7 3f 68 bd b2 e6 66 3d a3 13 25 3c 25 27 fa bd
       -0.056701567 0.056372352 0.010075483 -0.122144975
000150 a9 cf 77 bc b5 0a a1 3d e8 e8 95 bc 9f bc 98 3b
       -0.015125194 0.0786337 -0.018299535 0.0046611573
000160 85 cc 08 39 ac 78 35 bd e4 c9 15 bd 42 46 8d bd
       0.0001304616 -0.044304535 -0.03656949 -0.06898166
000170 ac 16 f2 bc 66 23 c0 ba 3e 0d 7b 3d 1e 0b 12 3d
       -0.029551826 -0.0014658987 0.061291926 0.035655133
000180 24 b8 ff bd c1 97 49 bd 22 24 e4 3a 38 8b 0c 3b
       -0.12486294 -0.04921699 0.0017405788 0.0021445286
000190 14 fa 35 3d 15 af 80 3d 52 bd 38 3d c2 c8 d7 bc
       0.044427946 0.06283394 0.045102425 -0.026340846
0001a0 49 fb 4d 3c 7b 35 96 3c 41 05 84 bd 6e 67 7b 3b
       0.012572118 0.018336048 -0.064463146 0.003836121
0001b0 d4 f9 93 bc dc 0d 82 bd 1d 80 b8 bd c4 46 b5 3c
       -0.018063463 -0.063503 -0.09008811 0.02212847
0001c0 f7 0c e8 3c 1a df 69 3c 25 82 b6 bc 92 13 7b bd
       0.028326495 0.014274383 -0.022278855 -0.06129796
0001d0 e2 84 9b bb bf cc 37 bd 27 34 f3 bc 6e ba 02 3c
       -0.0047460655 -0.044872995 -0.029687954 0.007979019
0001e0 b8 15 0e 3d 8a 40 db 3c 2b 94 3a bc e0 5a 2d 3c
       0.03468868 0.026764173 -0.011387865 0.010580748
0001f0 b8 01 a4 bd 6a 6f f3 3b 1d 51 b5 3d 08 d8 59 3d
       -0.0800814 0.007429053 0.08853362 0.05318454
000200 dd a6 a3 bc 8f 4c ba bc 67 c8 b4 bc 12 2e f0 bc
       -0.019977028 -0.022741584 -0.022068216 -0.029318843
000210 98 3d 06 3b 19 9c c1 3c b5 70 b8 b8 c0 a0 f9 b8
       0.002048349 0.023634003 -8.794797e-05 -0.00011903187
000220 3d 31 b3 3c ac 21 f6 bd 93 1c 14 3d dc 34 f6 ba
       0.021874065 -0.12018141 0.036160063 -0.0018784064
000230 43 25 6d 3c 0a ca 55 bd 1f 97 7d bd 0a 3f 17 bd
       0.014474216 -0.052194633 -0.0619117 -0.036925353
000240 ad 76 0f 3d bc c3 fe bd 9c 2b 43 bd 87 80 2e bd
       0.035025287 -0.12439677 -0.04764901 -0.042603042
000250 7b 5c 90 3d 4d 3b 81 3d ac 7c cd 3a 35 f5 55 3d
       0.07048889 0.06310139 0.0015677414 0.0522358
000260 9a 24 40 bd 13 18 85 bd a8 d6 ae 3c d0 fa ca bd
       -0.046909906 -0.064987324 0.02134259 -0.0991112
000270 f1 aa 4d bc a8 fb ac 3a 44 16 4d 3d e0 5d 9b bd
       -0.012552963 0.0013197558 0.050070062 -0.075862646
000280 ab 71 a0 bb f5 1e fb bd 8f 14 04 bd 4b 8a ac 3b
       -0.004896363 -0.12261764 -0.03224617 0.0052655092
000290 31 7b a7 ba b2 19 2f bd 3e fd 21 3c eb a4 0a 3c
       -0.0012777803 -0.042749114 0.009887038 0.008462171
0002a0 c4 fb e6 bb 12 eb c9 3c c6 5c c6 3c fc 47 06 3d
       -0.007049056 0.024648223 0.02421416 0.032783493
0002b0 8a 1f 8d 3c ea 5f f3 3c a8 fb 99 bc 02 a4 43 bb
       0.017226953 0.029708821 -0.018796757 -0.0029852395
0002c0 3c 60 11 3d 50 1f 22 be 76 af 4d 3d 2b 4f 37 bd
       0.035492167 -0.15832257 0.05021616 -0.044753235
0002d0 06 4d 4b 3d 4d 27 9c bd 31 a3 75 3c 2a 8a 74 bd
       0.049634002 -0.076246835 0.014992521 -0.059702076
0002e0 e2 10 6a bd 18 2c 18 bd 14 9e 9e bd ad e9 a3 bd
       -0.057145007 -0.037151426 -0.07744995 -0.080035545
0002f0 3b bb d1 bc bd eb c7 bc b4 83 39 bd 7d 8f fa 3c
       -0.025601974 -0.024404401 -0.045291618 0.030585999
000300 37 3e 2b bd 2e c4 68 bd 08 e0 4a bc 23 ea ea 3c
       -0.04180738 -0.056827717 -0.012382515 0.028676098
000310 6c eb 13 3c 6b 9d 8f bd d5 de ae ba 99 62 59 ba
       0.009028297 -0.07012447 -0.0013341556 -0.0008292585
000320 72 0f c7 3b fb 2f 97 bd 8e 03 55 bd b3 f0 e2 bc
       0.0060748393 -0.073821984 -0.052005343 -0.027702665
000330 61 65 5b bb e7 d5 6c bd 82 1d 21 bb 30 d4 5a bd
       -0.0033477175 -0.05782118 -0.0024584238 -0.053425014
000340 3e f5 49 bc b9 af 9d ba 4a 8a c2 3c 17 cc 8c ba
       -0.012326537 -0.0012030519 0.023747582 -0.0010741976
000350 a1 08 22 be 47 4a 0b 3d 97 0a 70 bc 2e f8 d4 bd
       -0.15823604 0.034006383 -0.014650962 -0.10398899
000360 a0 f2 73 bd 50 98 fb 3c dd 15 aa bc b3 03 a8 3c
       -0.059557557 0.030712277 -0.020762378 0.020509576
000370 f6 87 62 bb 1c 9b 35 3d 52 fd f9 3c ac 10 38 bd
       -0.0034565902 0.044337377 0.0305163 -0.044937775
000380 59 2a 2d bd 29 9e f2 bc 3b 51 17 3c d1 13 bc bc
       -0.042276714 -0.029616432 0.009235675 -0.022958668
000390 e8 58 0f bc e4 43 cf bc 97 de 8f bc c4 ce 23 3d
       -0.008749224 -0.025300927 -0.017562194 0.03999211
0003a0 60 ad b8 bc 6e 86 b2 3c 8d 6e 57 3d 1b 80 e6 ba
       -0.02254361 0.021792617 0.052595664 -0.0017585786
0003b0 6e c0 6f bd 0b af a0 bd eb e8 a4 bc a5 a1 6e bd
       -0.058533125 -0.07845887 -0.020130595 -0.058259625
0003c0 5f 5d d8 bb ba b9 95 bd 86 9c 86 3b 78 8f 5f 3d
       -0.0066029276 -0.07310815 0.0041080145 0.05458018
0003d0 94 fd 52 ba be 34 d7 3c f7 28 3b bd c8 f8 8d bd
       -0.00080486503 0.026270267 -0.045693364 -0.06932217
0003e0 60 e4 ec bc 3d a8 73 3d 89 74 0a bd 09 9a 74 bd
       -0.028917491 0.059486616 -0.033802543 -0.059717212
0003f0 de db 91 3c de a8 29 3d 97 6c 83 bd 5d b8 74 3d
       0.017805036 0.04142081 -0.06417196 0.059746135

out.bias f4 [4]
000000 1d 31 44 3e 7d ca 03 3e 89 23 1f 3d c6 6d 9e be
       0.1915936 0.12870212 0.03885225 -0.30943125
