big_model_case/phone_price_predict/model/phone_price_predict_model.pth (torch, 558908 bytes, 6 tensors)

linear1.weight f4 [256, 20]
0	0xbdc870e8	-0.0978716
1	0x3e10d8f8	0.14145267
2	0x3e3dc08c	0.18530482
3	0x3dec1ee8	0.115293324
4	0x3de685b8	0.112559736
5	0xbd7e3334	-0.06206055
6	0x3defa22c	0.11700854
7	0xbe4e5b93	-0.2015212
8	0x3e144104	0.14477926
9	0xbe08ba99	-0.13352431
10	0xbe1fe4b3	-0.15614586
11	0xbdbe5fa6	-0.09295587
12	0x3cf0e770	0.029407233
13	0xbe25f12b	-0.1620528
14	0xbe0be66a	-0.13662115
15	0x3d14f310	0.036364615
16	0x3d9ee728	0.07758933
17	0x3bdc8480	0.0067296624
18	0xbc68cab0	-0.014208481
19	0xbda3e2d8	-0.080022514
20	0xbd22e158	-0.039765686
21	0xbe379155	-0.17926534
22	0xbe281622	-0.16414693
23	0xbe5696ba	-0.20955935
24	0xbd228156	-0.039674126
25	0x3e46b94f	0.19406627
26	0x3d1e39fa	0.03862951
27	0x3db78f4e	0.0896288
28	0xbde61d94	-0.1123611
29	0x3d2dcb4e	0.042430215
30	0xbd8f0a67	-0.06984406
31	0x3aab9791	0.0013091435
32	0xbe29b914	-0.16574508
33	0xbd339e8a	-0.043852367
34	0x3e25034c	0.16114539
35	0x3e00030d	0.12501164
36	0xbdfa2f81	-0.12216092
37	0xbe4a1511	-0.19734599
38	0x3d581b60	0.05276048
39	0x3c853b05	0.016263494
40	0x3cfae62d	0.030627334
41	0x3e536718	0.20644796
42	0xbcf7a055	-0.03022782
43	0x3d83c9a9	0.06434948
44	0x3e548716	0.20754656
45	0x3e32dd7c	0.17467302
46	0x3e194a72	0.14969805
47	0xbdfb5b31	-0.12273253
48	0x3c9c33b3	0.01906762
49	0xbdf1afd2	-0.11801113
50	0xbdf4981c	-0.11943075
51	0x3c7c8d5d	0.015414563
52	0xbd4af2a9	-0.049547825
53	0xbd9affe0	-0.075683355
54	0xbe19bb5b	-0.15012877
55	0xbe42c758	-0.19021356
56	0x3d80bed6	0.06286399
57	0x3e3a3d5e	0.18187472
58	0x3d81f6c7	0.06345897
59	0x3d9848f1	0.074357875
60	0xbddc2987	-0.10750108
61	0xbe005893	-0.12533788
62	0xbe30bfab	-0.17260616
63	0xbe1b7dac	-0.15184659
64	0x3d1e72c6	0.038683675
65	0xbdb0324f	-0.086033456
66	0x3e0461f0	0.12927985
67	0x3be79581	0.007067383
68	0xbcdc1bf0	-0.02686879
69	0xbe1932ab	-0.14960735
70	0x3dd3d987	0.103442244
71	0x3ce0bd4a	0.02743401
72	0x3d40e76e	0.04709571
73	0xbd44f710	-0.04808718
74	0xbdc32221	-0.09527994
75	0xbc1b0759	-0.009462201
76	0x3e08770b	0.13326661
77	0xbd669104	-0.05629064
78	0xbd0a63da	-0.033786632
79	0xbe15a854	-0.14614993
80	0x3e0a5187	0.13507663
81	0xbe2f5295	-0.17121346
82	0x3d0d1914	0.034447744
83	0x3e567cc8	0.20946038
84	0x3e2d74e2	0.16939119
85	0xbd488339	-0.04895327
86	0x3d268bb4	0.040660575
87	0x3d24bdf2	0.04022021
88	0xbe2e86f2	-0.17043665
89	0xbe012043	-0.12609963
90	0x3e2b7fd6	0.16747984
91	0x3d4c9222	0.04994405
92	0x3da13f71	0.078734286
93	0xbe3c4b38	-0.18388069
94	0xbddb1da8	-0.10699016
95	0x3e4d971b	0.20077173
96	0xbe3a4045	-0.1818858
97	0xbe5f0fe9	-0.21783413
98	0xbdf5d612	-0.12003721
99	0x3e625298	0.2210182
100	0x3e45f392	0.19331196
101	0xbe40c9ae	-0.18826935
102	0xbc29373c	-0.01032811
103	0xbe02e04f	-0.1278088
104	0x3da34f7e	0.07974146
105	0xbe649fc4	-0.22326571
106	0xbd1ef959	-0.038812015
107	0xbd41a3f6	-0.047275506
108	0x3d06be52	0.032896347
109	0x3dd2781e	0.10276817
110	0xbe2cd8b4	-0.1687954
111	0xbe17025d	-0.14746995
112	0xbda85829	-0.0821994
113	0xbdd54875	-0.10414211
114	0xbe04456f	-0.12917112
115	0xbdfa4841	-0.122208126
116	0x3ddb9056	0.10720889
117	0xbe3f2c53	-0.18669252
118	0xbe1c9416	-0.15290865
119	0xbd1beee0	-0.038069606
120	0xbde36a73	-0.11104288
121	0xbe016b6c	-0.12638634
122	0xbe1743d7	-0.14771973
123	0xbe0b79d6	-0.13620695
124	0xbd8b9b2a	-0.068167046
125	0xbe44b88e	-0.19211027
126	0x3dc46dec	0.095912784
127	0xbd99fc81	-0.075188644
128	0xbdddaddf	-0.10824179
129	0x3dfe841f	0.12427544
130	0x3d1dc328	0.038516194
131	0xbc8e056c	-0.01733657
132	0x3d9ff035	0.07809488
133	0xbbdaa460	-0.006672427
134	0xbdd4021a	-0.10351963
135	0x3e61b09c	0.22040027
136	0xbdd38bb7	-0.10329383
137	0x3d9bb2f6	0.076024935
138	0xbe0fe7f0	-0.14053321
139	0x3ca26895	0.01982526
140	0xbdb8337d	-0.089941956
141	0x3b7f364b	0.0038942273
142	0x3e4ffb38	0.20310676
143	0x3d281104	0.041031852
144	0x3e464af4	0.1936453
145	0x3dcafaff	0.09911155
146	0xbd6fd851	-0.058555905
147	0x3e3575a1	0.17720653
148	0xbe4dd1cb	-0.20099561
149	0xbd87fe84	-0.06640342
150	0xbc27e3af	-0.010247155
151	0xbe13e302	-0.14442065
152	0x3da4a982	0.080401435
153	0xbc52717f	-0.012844442
154	0x3d3c7021	0.046005372
155	0x3e455a8c	0.19272822
156	0x3e53e820	0.20694017
157	0xbdff798c	-0.12474355
158	0x3e62a835	0.22134478
159	0x3d636752	0.055518456
160	0xbe3a6e72	-0.18206194
161	0x3e621b94	0.22080833
162	0xbdcc9c3a	-0.09990735
163	0x3e4d4d8b	0.20049112
164	0xbe06da46	-0.13169202
165	0xbd25d19e	-0.04048311
166	0x3dc14d7c	0.09438607
167	0xbde3a570	-0.11115539
168	0x3c91db5d	0.017804796
169	0xbcbf2dac	-0.023337208
170	0xbdf2f5d3	-0.118632935
171	0xbe066f9e	-0.13128516
172	0xbe013b33	-0.12620239
173	0x3e214cc3	0.15751939
174	0xbe0a7f24	-0.13525063
175	0xbdd0ec31	-0.102013
176	0x3d905313	0.07047095
177	0x3d91eb71	0.07124985
178	0x3e478807	0.19485484
179	0x3dcdf020	0.10055566
180	0x3d868624	0.06568554
181	0xbe385854	-0.18002445
182	0x3dc71c9b	0.09722253
183	0xbe4f22ff	-0.20228194
184	0x3e22350f	0.15840553
185	0x3deef127	0.1166709
186	0xbddda823	-0.10823085
187	0xbe102cd5	-0.14079602
188	0xbe665913	-0.22494917
189	0xbd9b2b8a	-0.07576664
190	0x3e5bc1f5	0.21460707
191	0x3df48efc	0.119413346
192	0x3bf66bbf	0.0075201686
193	0xbe0a4134	-0.13501436
194	0x3e373d5d	0.17894502
195	0x3e1e870a	0.15481201
196	0xbe5e1977	-0.21689402
197	0xbe1c6249	-0.15271868
198	0xbc8bb280	-0.017052889
199	0x3d919bb7	0.071097784
200	0x3dea0834	0.11427346
201	0x3d6d8733	0.057990264
202	0xbd876a4c	-0.066120714
203	0x3e34c034	0.17651445
204	0xbe20de2c	-0.15709752
205	0xbdbe1564	-0.09281424
206	0x3df0b89e	0.11753963
207	0xbe3cdeb7	-0.18444334
208	0x3e5ae6bd	0.21377082
209	0xbdb5000c	-0.088378996
210	0xbe159a21	-0.14609577
211	0x3b9f4ae6	0.0048612235
212	0xbd793f40	-0.060851336
213	0xbe07ca9e	-0.13260886
214	0xbe2867b4	-0.1644581
215	0x3d62ccb7	0.055371013
216	0xbcb46794	-0.022022046
217	0xbe09923d	-0.13434692
218	0x3e1fd337	0.15607916
219	0xbe40b1ee	-0.18817875
220	0x3da74d1d	0.08169005
221	0x3e3bc9aa	0.18338647
222	0x3dd14ea5	0.102200784
223	0x3d4f4a8e	0.05060821
224	0x3e5a5bbb	0.21324055
225	0xbde89128	-0.11355811
226	0x3cf96344	0.030442841
227	0xbb252396	-0.0025198213
228	0xbe3e7fd5	-0.18603452
229	0x3e47103b	0.19439785
230	0x3decfb3f	0.11571359
231	0x3dd8e82e	0.1059116
232	0xbe60658d	-0.21913739
233	0xbc31840c	-0.010834705
234	0x3de74ad4	0.11293569
235	0xbcf8819d	-0.030335242
236	0x3e3e411f	0.18579529
237	0x3e2080a3	0.15674071
238	0x3e3efd76	0.18651375
239	0x3e385b90	0.18003678
240	0x3e1d5a6f	0.15366529
241	0x3e5573f9	0.20845021
242	0xbe2d03bd	-0.16895957
243	0x3e5a9d0e	0.21348974
244	0x3e5ca467	0.2154709
245	0xbde6ca79	-0.11269087
246	0xbe64071f	-0.22268341
247	0xbe29b46f	-0.16572736
248	0xbdcff7ba	-0.10154672
249	0xbe161bbf	-0.14659022
250	0x3e3fc7d4	0.18728572
251	0xbd9a0d38	-0.075220525
252	0xbe0cc56c	-0.13747185
253	0xbe5cd28e	-0.21564695
254	0xbd9bb034	-0.076019675
255	0xbd0d7bff	-0.03454208

linear1.bias f4 [256]
0	0x3e50d696	0.20394358
1	0x3d2fb240	0.0428946
2	0x3e54d106	0.20782861
3	0x3e21fba3	0.15818648
4	0xbdc9a891	-0.098466046
5	0x3e25c739	0.16189279
6	0x3e27bc7c	0.16380495
7	0xbd9545bc	-0.072886914
8	0xbc8c52e4	-0.01712937
9	0x3e38accf	0.18034671
10	0x3e2a7ba3	0.16648726
11	0x3d87aed3	0.06625142
12	0x3e5149cd	0.20438309
13	0xbdceb5f0	-0.100932956
14	0xbd361998	-0.044458
15	0x3d812c68	0.06307298
16	0xbe09ae0e	-0.13445303
17	0x3d52c612	0.051458426
18	0xbd555064	-0.05207862
19	0x3cd6e9c2	0.026234511
20	0xbda2a64f	-0.07941877
21	0x3e01bb74	0.12669164
22	0x3c95329b	0.018212607
23	0x3e26182d	0.1622016
24	0xbe52a9f4	-0.20572644
25	0xbd985d5e	-0.074396834
26	0xbe51469c	-0.20437092
27	0xbe02ff60	-0.1279273
28	0xbd574576	-0.052556477
29	0xbdd42458	-0.103584945
30	0xbdc37070	-0.0954293
31	0xbe41f227	-0.1894003
32	0xbc6f40cd	-0.014602852
33	0x3c9376cd	0.018000985
34	0xbe0c2b1e	-0.13688323
35	0x3e0f7bdc	0.14012092
36	0xbe0d0684	-0.13772017
37	0xbd726a94	-0.059183672
38	0xbe3f47b7	-0.18679701
39	0x3db309b3	0.08742084
40	0xbd07d12f	-0.033158477
41	0x3e5a54c8	0.21321404
42	0xbcaeb2b0	-0.02132544
43	0xbdd3f506	-0.10349469
44	0x3e038d7d	0.12846942
45	0x3e4c3d3a	0.19945231
46	0x3d675cf3	0.056485128
47	0x3d501d30	0.050809085
48	0x3da56ad8	0.080770195
49	0x3dd308b2	0.10304393
50	0xbc66178d	-0.014043701
51	0x3d6ed4b4	0.05830832
52	0x3dde1146	0.108431384
53	0x3cb0e373	0.021592831
54	0xbc5044d9	-0.012711727
55	0xbe5a5c81	-0.2132435
56	0x3d0c6e3f	0.034284826
57	0xbe3a069a	-0.18166581
58	0x3b1bedc0	0.0023792833
59	0x3d50ec4b	0.051006597
60	0xbe08466e	-0.13308117
61	0xbd722e60	-0.059126258
62	0xbd6ad264	-0.05732955
63	0x3d439f70	0.047759473
64	0x3ce8a51d	0.028399045
65	0x3e5fbc38	0.21849144
66	0xbcc16898	-0.023609444
67	0x3e1f0ffe	0.15533444
68	0xbe603619	-0.21895637
69	0x3e4a7f8f	0.19775222
70	0xbd1f0eaa	-0.038832344
71	0x3d5b34b7	0.05351707
72	0x3e03ba14	0.12863952
73	0xbe1c0448	-0.15236008
74	0x3db39b95	0.08769909
75	0x3e4015eb	0.18758361
76	0x3e146878	0.14492977
77	0x3e3f63c8	0.18690407
78	0xbc810c37	-0.015752895
79	0xbdc4fcf0	-0.096185565
80	0xbe53914a	-0.20660892
81	0x3dc1590b	0.09440812
82	0x3cb3b182	0.021935228
83	0x3e3d7c44	0.18504435
84	0x3ded4294	0.115849644
85	0x3e2e0852	0.16995361
86	0xbe1e3a91	-0.15452029
87	0x3d09bf80	0.033629894
88	0xbde1927c	-0.11014268
89	0x3cf65905	0.030071745
90	0xbbfe5a20	-0.0077622086
91	0x3cf7fa10	0.030270606
92	0x3c2779f0	0.010221943
93	0x3c10529b	0.008808757
94	0xbe494e33	-0.19658737
95	0x3de59940	0.11210871
96	0x3e3fd25d	0.18732591
97	0xbe020dc8	-0.1270057
98	0x3e27d1f7	0.16388689
99	0x3df08858	0.117447555
100	0x3e3fa100	0.1871376
101	0xbe54bc3b	-0.20774929
102	0x3e3da134	0.18518525
103	0xbe3efde3	-0.18651538
104	0xbd09cb9b	-0.03364144
105	0xbe172305	-0.14759453
106	0xbe01bdac	-0.1267001
107	0xbe017416	-0.1264194
108	0xbe5f7341	-0.2182131
109	0xbcc23924	-0.023708887
110	0xbe280c90	-0.16411042
111	0x3c60615a	0.013695085
112	0x3e539d20	0.20665407
113	0xbe3f2ba3	-0.1866899
114	0xbca4bd5d	-0.020109827
115	0xbdfca055	-0.123352684
116	0xbb90110a	-0.0043965625
117	0x3e48acdd	0.19597192
118	0xbdb2e09c	-0.08734247
119	0xbe490297	-0.19629894
120	0x3e54f17e	0.20795247
121	0x3e4b6739	0.19863595
122	0xbe32a5ae	-0.17446014
123	0x3e02e72c	0.12783498
124	0x3e48ac07	0.19596873
125	0xbb50528f	-0.003178749
126	0xbd3477ae	-0.044059448
127	0xbe2aee42	-0.1669245
128	0xbc8eb5cd	-0.017420674
129	0xbdeebce9	-0.116571255
130	0x3d87f78f	0.06639015
131	0x3e175089	0.14776815
132	0x3af93917	0.0019014206
133	0xbe39c3f0	-0.1814115
134	0x3df136e3	0.11778047
135	0xbc8d5a29	-0.017254906
136	0x3e274d22	0.16338018
137	0xbe06e041	-0.13171484
138	0x3dfd436b	0.123663746
139	0xbdf1bba8	-0.11803371
140	0x3e265bde	0.16245982
141	0xbe3a8c7a	-0.1821765
142	0xbd815791	-0.0631553
143	0x3ce1b87d	0.027553791
144	0x3d71e0e1	0.05905235
145	0x3e3b137c	0.18269151
146	0x3e3b8c90	0.18315339
147	0x3e2e85b3	0.1704319
148	0xbcd8aeb4	-0.026450492
149	0xbd122fd5	-0.035690147
150	0xbe3e4fbb	-0.18585102
151	0x3da04edc	0.07827541
152	0x3e350664	0.17678219
153	0x3d171c10	0.036891997
154	0x3e2f5101	0.17120744
155	0xbc1b4458	-0.009476744
156	0xbc51868d	-0.012788427
157	0xbd68986b	-0.056785982
158	0x3d171190	0.036881983
159	0x3d9c7cb1	0.076409705
160	0xbe09bf9f	-0.13452004
161	0xbda1719a	-0.07882996
162	0x3d186628	0.0372068
163	0xbe56f76a	-0.20992818
164	0x3e1dc8d0	0.15408635
165	0xbe60b7fa	-0.21945181
166	0xbe0b70c1	-0.13617231
167	0x3d96e9f0	0.07368839
168	0xbd4d5e44	-0.050138727
169	0xbe596bf4	-0.21232587
170	0x3e29dfef	0.1658933
171	0x3e27aa40	0.16373539
172	0x3e20bf46	0.15697965
173	0x3d9291df	0.07156729
174	0xbd240ff6	-0.040054284
175	0xbe0d8e24	-0.13823754
176	0x3df8a8b9	0.12141556
177	0xbd5964d5	-0.053074677
178	0xbd95e96a	-0.07319911
179	0xbdeada8a	-0.11467464
180	0x3de10038	0.1098637
181	0xbddb90d0	-0.1072098
182	0xbce234ea	-0.027613122
183	0x3df6484a	0.12025507
184	0xbe36a200	-0.17835236
185	0xbe29475c	-0.16531128
186	0x3db61078	0.0888986
187	0x3d7a53e8	0.061115175
188	0x3e185191	0.14874865
189	0xbe44792e	-0.19186851
190	0x3d0c24ca	0.034214772
191	0xbe006b4e	-0.12540933
192	0xbe3de012	-0.18542507
193	0x3e2b41cc	0.16724318
194	0x3e4d4646	0.20046338
195	0x3e2ae0a6	0.16687259
196	0xbd50ec23	-0.051006448
197	0xbe2d5047	-0.16925155
198	0xbdb50e5c	-0.088406295
199	0xbe61183d	-0.21981902
200	0xbda52fa8	-0.0806573
201	0xbe395bae	-0.1810138
202	0xbe558ba0	-0.20854044
203	0x3e03e76d	0.1288125
204	0x3e35f856	0.17770514
205	0x3e4810c5	0.19537647
206	0x3cbec2ab	0.023286184
207	0x3e2eb9f1	0.17063119
208	0xbe4c4590	-0.19948411
209	0xbe428d7e	-0.18999287
210	0x3d0c7b3e	0.03429722
211	0xbe590992	-0.21195057
212	0xbe58f898	-0.21188581
213	0xbdb1dcd8	-0.08684701
214	0x3ce9db08	0.028546825
215	0x3e3d35ff	0.18477629
216	0x3da5b5df	0.0809133
217	0x3de096f2	0.109662905
218	0xbdbfd1d8	-0.093661964
219	0xbc410930	-0.011781976
220	0xbe3f8a65	-0.18705137
221	0x3c843bb1	0.016141744
222	0xbd43dea0	-0.047819734
223	0x3c5ecb47	0.01359827
224	0x3e2ab930	0.16672206
225	0xbd0a0f74	-0.033706143
226	0xbc77bef0	-0.015121207
227	0xbe33e7ec	-0.1756894
228	0xbe0f6c0c	-0.1400606
229	0xbe0904b9	-0.13380708
230	0x3e4d3e67	0.20043336
231	0x3e597350	0.21235394
232	0x3da71ecd	0.08160172
233	0xbe1cc239	-0.15308465
234	0x3e18b827	0.14913999
235	0xbe05347f	-0.13008307
236	0xbd152ca0	-0.03641951
237	0xbdaf33d6	-0.08554809
238	0xbcff80de	-0.031189378
239	0x3e58f4bc	0.21187109
240	0x3dc78808	0.09742743
241	0xbde61932	-0.112352744
242	0xbe279e3e	-0.16368958
243	0xbbfab49b	-0.0076509244
244	0xbe648761	-0.22317268
245	0x3dee4f43	0.11636212
246	0x3e0276f9	0.12740697
247	0xbca7db23	-0.020490235
248	0x3e2e06a0	0.16994715
249	0x3c606051	0.013694839
250	0x3e38f138	0.18060768
251	0x3d72c0be	0.059265845
252	0x3de86fb7	0.11349433
253	0x3e08e10a	0.13367096
254	0x3bb00554	0.005371729
255	0xbe47d868	-0.19516146

linear2.weight f4 [512, 256]
0	0x3cacd660	0.021098316
1	0xbc941170	-0.018074721
2	0x3d701128	0.05861011
3	0x3b7aef4c	0.0038289605
4	0xbd8957ff	-0.06706237
5	0x3d180906	0.03711798
6	0xbd71f96b	-0.059075754
7	0x3d41022c	0.047121212
8	0xbc10f902	-0.008848431
9	0xbd831c2e	-0.06401859
10	0xbd0de0e7	-0.03463831
11	0x3d0d4cac	0.034496948
12	0x3d7f8e7c	0.062391743
13	0x3d5a29c7	0.0532625
14	0x3c9f73f4	0.01946447
15	0x3ced2a68	0.028950885
16	0x3d1c77fd	0.038200367
17	0xbcf52047	-0.029922618
18	0x3ca3b12c	0.019981943
19	0xbd15adb2	-0.036542602
20	0xbcf84559	-0.030306505
21	0x3d005684	0.031332508
22	0xbd4f1482	-0.050556667
23	0x3ba4ea27	0.005032796
24	0xbcbd7956	-0.023129147
25	0xbd825fa4	-0.06365898
26	0x3d25d99d	0.040490735
27	0xbbfe1240	-0.0077536404
28	0x3cd118c4	0.025524504
29	0xbd097db9	-0.033567164
30	0x3ba339b0	0.004981242
31	0xbb9e9964	-0.004840063
32	0x3d6e7ac8	0.058222562
33	0xbc974104	-0.018463619
34	0xbd278d09	-0.040905986
35	0xbc4802c1	-0.012207688
36	0xbd2fc636	-0.042913638
37	0x3d583604	0.05278589
38	0x3d689921	0.05678666
39	0xbcaa169d	-0.020762736
40	0xbcb7150e	-0.022348907
41	0x3cf5a559	0.02998607
42	0xbcc19144	-0.023628838
43	0xbab12eaf	-0.0013517941
44	0xbcb1136a	-0.021615703
45	0xbc8f30f8	-0.017479405
46	0x3ca6b524	0.020350046
47	0x3d4da900	0.05021
48	0xbcb17200	-0.021660805
49	0xbceb91c4	-0.02875603
50	0x3c302b97	0.01075258
51	0xbceb31b5	-0.028710226
52	0x3cf32228	0.029679373
53	0x3d2e13ff	0.04249954
54	0x3d6735d2	0.05644781
55	0xbd20661c	-0.03915988
56	0x3d2f375a	0.042777397
57	0xbd8b5783	-0.06803801
58	0x3d6eb9ea	0.05828277
59	0xbc5b5359	-0.013386571
60	0x3ce83e7c	0.028350107
61	0x3d3b4267	0.045717623
62	0xbd0ee904	-0.03489019
63	0x3d1641a6	0.0366837
64	0xbc67156c	-0.0141042285
65	0xbb1d47a0	-0.002399899
66	0xbd229536	-0.03969308
67	0x3d51f0b0	0.051254928
68	0xbd6f7f14	-0.0584708
69	0xbd38c4d8	-0.0451096
70	0xbd752166	-0.059846304
71	0x3c230b95	0.009951492
72	0x3d0bc4f1	0.034123365
73	0xbbdd09af	-0.006745539
74	0x3b32bb70	0.0027272366
75	0xbd3cca6b	-0.04609148
76	0xbd50717e	-0.050889485
77	0x3a1e5700	0.00060401857
78	0x3c0ba610	0.008523479
79	0x3ca23d07	0.01980449
80	0x3cc805ef	0.024416892
81	0xbd824c82	-0.06362249
82	0xbd94873d	-0.07252357
83	0xbc3c74b0	-0.01150243
84	0x3d582a36	0.05277463
85	0x3c0fa075	0.008766283
86	0xbd4f2fee	-0.05058282
87	0x3ce82618	0.028338477
88	0x3d10f648	0.035391122
89	0x3babd69f	0.0052440907
90	0xbb3d08c0	-0.0028844327
91	0xbd26bc08	-0.040706664
92	0xbd15644e	-0.03647261
93	0x3c79ae62	0.01523933
94	0x3d091388	0.033465892
95	0x3ced3b2d	0.028958881
96	0xbc9b7869	-0.018978314
97	0x3caf2821	0.02138144
98	0x3d31c422	0.043399937
99	0x3bc05bf0	0.005870335
100	0xbd17946f	-0.03700679
101	0xbcc54b4c	-0.024083756
102	0x3aa5f700	0.0012662113
103	0xbd72e24b	-0.05929784
104	0x3c89c790	0.016818792
105	0xbb949550	-0.004534401
106	0x3cc06e58	0.023490116
107	0x3cad9d19	0.021193074
108	0xbda26b9d	-0.07930682
109	0xbc9dd8da	-0.019268442
110	0xbd6a23e4	-0.057163134
111	0xbbf5ebc0	-0.00750491
112	0x3bc29df4	0.0059392396
113	0xbcbfad3f	-0.02339804
114	0x3d1b99e2	0.03798855
115	0x3cf125fe	0.029437061
116	0xbd5f92b8	-0.05458328
117	0x3ce555e4	0.027995057
118	0x3ca05a3c	0.019574277
119	0x3c8ede40	0.017439961
120	0xbccc4c3e	-0.024938699
121	0xbd2bc599	-0.04193649
122	0xbce13108	-0.0274892
123	0xbd15f1ee	-0.036607675
124	0xbd04f1c0	-0.032457113
125	0x3d2a91e2	0.04164303
126	0xbc15a660	-0.009133905
127	0xbccc3a34	-0.024930097
128	0xba221458	-0.0006182841
129	0x3cf95289	0.030434864
130	0x3d1d1c20	0.0383569
131	0xbd24b713	-0.040213656
132	0xbbcbd161	-0.0062200283
133	0xbc82b368	-0.015954688
134	0x3d2675c6	0.04063966
135	0xbd077d3a	-0.03307841
136	0x3d76a0d2	0.060211964
137	0xbd1ba262	-0.037996657
138	0xbd87f731	-0.06638945
139	0xba3d6000	-0.0007224083
140	0xbd6ab026	-0.057296894
141	0xbd5a88cb	-0.053353112
142	0xbd57fd85	-0.05273201
143	0xbd22c954	-0.039742783
144	0xbc66bba0	-0.014082819
145	0x3d2a4842	0.041572817
146	0x3c7fc2b8	0.015610389
147	0x3d12fab1	0.03588361
148	0xbd90558d	-0.070475675
149	0x3ba3c6c5	0.0049980604
150	0x3be4f0fd	0.006986736
151	0xbd137680	-0.036001682
152	0x3ae90bc0	0.0017779991
153	0x3d0cce98	0.03437671
154	0xbd7dda84	-0.06197597
155	0xbd95050a	-0.07276352
156	0x3ce1b76e	0.027553286
157	0x3bc4fc17	0.0060114968
158	0x3c6bd5c8	0.014394231
159	0x3c5368b6	0.012903383
160	0x3d004ec9	0.031325135
161	0x3c6820c5	0.014167969
162	0x3afe1040	0.0019383505
163	0xbd175fc3	-0.03695656
164	0xbd26d786	-0.040732883
165	0xbccaa818	-0.024738356
166	0xbc073a6f	-0.008253678
167	0x3d1c7ca1	0.038204793
168	0xbc96cfe8	-0.018409684
169	0x3b07a440	0.0020697266
170	0xbd8ff865	-0.07029799
171	0x3d38ccec	0.045117304
172	0xbc316019	-0.010826134
173	0x3b16b01a	0.0022993148
174	0xbd135793	-0.03597219
175	0xbc6cf4ae	-0.014462633
176	0x3d64a207	0.055818584
177	0x3d2bcf0c	0.041945502
178	0xbd161c82	-0.03664828
179	0xbc1a6fe5	-0.009426092
180	0x3cb56f80	0.022147894
181	0xbd1d8ef7	-0.03846642
182	0xbbdeb95c	-0.006796999
183	0xbd3fcbee	-0.046825342
184	0x3c716020	0.014732391
185	0xbd60938a	-0.054828204
186	0x3ca125f0	0.01967141
187	0x3ce4bbb8	0.027921543
188	0x3d445b54	0.04793866
189	0xbd58e3bb	-0.052951556
190	0x3b2e34c1	0.0026581737
191	0x3d2a837e	0.041629307
192	0x3cab1bad	0.02088722
193	0x3d62ba75	0.0553536
194	0xbd3f752c	-0.046742603
195	0xbd0fbfd4	-0.03509505
196	0x3cc1f6bc	0.023677222
197	0xbd0a8878	-0.033821553
198	0x3cb47d20	0.02203232
199	0x3c493b3f	0.012282192
200	0xbd96042b	-0.07325014
201	0x39aecd00	0.00033340603
202	0xbc5b77e8	-0.013395287
203	0xbd24cca9	-0.04023424
204	0xbd53ea60	-0.05173719
205	0xbc08ba95	-0.008345266
206	0xbd75c4d0	-0.06000215
207	0x3af9d8ea	0.0019061838
208	0x3c5ae486	0.013360148
209	0x3d61f340	0.055163622
210	0xbc8efbc8	-0.017454043
211	0x3cf6eee3	0.030143207
212	0xbd126a34	-0.035745814
213	0xbccab9fb	-0.024746886
214	0x3c9ed645	0.019389281
215	0x3cf8749f	0.030329047
216	0x3d422f9a	0.047408678
217	0x3cf13f68	0.02944918
218	0x3d54d24e	0.051958375
219	0x3cb0b06c	0.0215685
220	0x3c39484f	0.011308744
221	0x3c142bb3	0.009043622
222	0x3d76ad04	0.060223594
223	0x3d738b6f	0.059459146
224	0xbc5783f0	-0.013154015
225	0x3c8a4f3c	0.016883485
226	0x3d351d32	0.044217296
227	0xba009951	-0.00049056584
228	0x3d1954a3	0.03743423
229	0xbd6dc9d4	-0.058053806
230	0xbcdd88da	-0.027042795
231	0x3d79f1fe	0.061021797
232	0xbd0ad61e	-0.033895604
233	0xbd8c454a	-0.06849153
234	0xbc160592	-0.0091566015
235	0x3d46d9fc	0.04854773
236	0x3d786c12	0.06064994
237	0x3bfcaf17	0.007711302
238	0xbd1abc8d	-0.037777472
239	0x3d6b146a	0.057392515
240	0xbc672820	-0.014108688
241	0xbd7780aa	-0.060425438
242	0xbd3ff49e	-0.046864145
243	0x3d2f8e53	0.04286034
244	0xbd46846c	-0.04846613
245	0xbd1d9de7	-0.038480666
246	0xbbeb1747	-0.0071744057
247	0xbc1b6542	-0.009484591
248	0xbd710a98	-0.058847994
249	0xbd2c5c2e	-0.042080097
250	0xbcf1dd58	-0.02952449
251	0x3d74e2e1	0.05978668
252	0xbd2b6d22	-0.041852124
253	0xbc842a84	-0.016133554
254	0x3cc3a4d8	0.023882315
255	0x3d44de2c	0.048063442

linear2.bias f4 [512]
0	0x3d352cce	0.044232182
1	0xbc1f2a9e	-0.009714751
2	0xbd5d53e8	-0.054035097
3	0xbd3ed33f	-0.04658818
4	0xbc0247ff	-0.0079517355
5	0x3d529b4e	0.05141764
6	0x3d7d8dd7	0.061902847
7	0xbd6b4f3d	-0.057448614
8	0x3c595fd0	0.013267472
9	0xbcfd979b	-0.03095608
10	0x3d16680d	0.036720324
11	0x39c7609a	0.00038028212
12	0x3d24a62d	0.04019754
13	0x3c88a986	0.016682398
14	0xbcaf3a1e	-0.021390017
15	0xbd3ad32e	-0.045611553
16	0x3ca486a7	0.020083738
17	0x391c51c3	0.00014907778
18	0xbd1a98af	-0.037743267
19	0x3caad368	0.02085276
20	0x3c7cecf0	0.01543735
21	0x3ceeaa22	0.02913386
22	0x3cdf8606	0.027285587
23	0xbd7b3253	-0.06132729
24	0x3d18f5be	0.037343733
25	0x3d21b620	0.03948033
26	0x3cea0cdd	0.028570587
27	0x3ca895ab	0.02057918
28	0xbcea6773	-0.028613782
29	0x3d0da99a	0.034585573
30	0x3d06d0a4	0.03291382
31	0xbbaff641	-0.005369932
32	0xbce1439c	-0.027498059
33	0xbc9842d2	-0.01858655
34	0x3ced66ee	0.028979745
35	0x3cad789d	0.021175677
36	0xbc09f6ed	-0.008420688
37	0xbd7067e4	-0.058692828
38	0xbb3fa25a	-0.0029241056
39	0xbd271c4e	-0.040798478
40	0xbd6adba8	-0.057338387
41	0x3d2ef701	0.04271603
42	0x3cc5b59e	0.024134453
43	0x3d51e124	0.0512401
44	0xbd30c448	-0.04315594
45	0xbd1e1415	-0.03859337
46	0x3c7ec6fd	0.015550372
47	0xbd4ad17d	-0.04951619
48	0x3d6f1d97	0.05837783
49	0x3d31f2db	0.043444496
50	0xbb91fa19	-0.004454863
51	0xbd282400	-0.041049957
52	0xbbd0ad3c	-0.0063683074
53	0x3cc5ab41	0.024129512
54	0xbd0be1a3	-0.03415073
55	0xbd69d356	-0.05708631
56	0x3cf24d10	0.029577762
57	0xb98df9da	-0.0002707977
58	0xbc94f62f	-0.018183796
59	0x3c595226	0.013264215
60	0x39cab154	0.00038660562
61	0xbd79bad8	-0.060969204
62	0x3b932030	0.004489921
63	0xbd31e2ef	-0.04342931
64	0x3cd101b0	0.0255135
65	0x3d041505	0.03224661
66	0x3d28395c	0.041070327
67	0xbd0ba669	-0.034094248
68	0x3d1aadb3	0.03776331
69	0x3cc80bca	0.024419684
70	0x3c67a0e6	0.014137482
71	0xbc03d9ee	-0.008047564
72	0xbcada137	-0.021195037
73	0xbcfc1331	-0.03077087
74	0x3d006b06	0.031352066
75	0x3d6bb6fa	0.057547547
76	0xbd1ca65b	-0.038244586
77	0x38c09f28	9.1849186e-05
78	0x3c5870f1	0.013210521
79	0xbc012e58	-0.007884584
80	0x3d68e688	0.056860477
81	0xbc32edb3	-0.01092093
82	0xbd03177f	-0.03200483
83	0x3cc60c0c	0.024175666
84	0xbcf69fd5	-0.03010551
85	0x3ceef6d9	0.02917044
86	0xbcc67844	-0.024227269
87	0x3c0ef456	0.008725246
88	0xbd144dcf	-0.036207017
89	0xbcae6596	-0.021288674
90	0xbb6b4def	-0.0035904606
91	0xbd71e466	-0.05905571
92	0xbd537728	-0.051627308
93	0xbcaf5e44	-0.021407254
94	0x3cc347f3	0.023838019
95	0x3d243276	0.040087186
96	0xbd389d82	-0.045072086
97	0x3a929939	0.001118458
98	0xbd4f4176	-0.050599538
99	0xbb05aca0	-0.0020397082
100	0x3d171a7a	0.036890484
101	0x3c9a5581	0.0188396
102	0xbc6855eb	-0.014180641
103	0x3d5b7a71	0.053583566
104	0x3d04d897	0.03243312
105	0x3a293129	0.0006454164
106	0xbcccf2b0	-0.025018066
107	0xbd6ca1cc	-0.05777149
108	0x3c6f37b7	0.014600686
109	0xbc24dcf9	-0.01006245
110	0x3d44bcb9	0.048031542
111	0x3d7836e9	0.06059924
112	0x3d2941d2	0.041322537
113	0xbcaba4ee	-0.020952668
114	0xbb3ffaa7	-0.0029293688
115	0xbc89d58f	-0.016825465
116	0xbc8bf40c	-0.017084144
117	0xbcc01d2f	-0.023451416
118	0xbb6a7edd	-0.0035781183
119	0xbcbd5545	-0.023111949
120	0x3d5d1794	0.053977564
121	0xbd3c4042	-0.04595972
122	0xbd0d8543	-0.034550916
123	0xbb5b725b	-0.003348491
124	0x3d25c64e	0.04047232
125	0xbd4916e0	-0.04909408
126	0xbc9d05d5	-0.01916782
127	0x3ce1a16c	0.027542792
128	0xbc63cded	-0.013904077
129	0x3cd10980	0.025517225
130	0xbd754a59	-0.059885357
131	0x39cf4cd3	0.00039539355
132	0xbd3b74a3	-0.04576553
133	0x3d56527d	0.05232476
134	0xbbccbad8	-0.0062478594
135	0x3c843c6d	0.016142095
136	0xbb35980e	-0.002770904
137	0x3b28be56	0.0025748215
138	0xbc90328a	-0.017602224
139	0x3d7c5c96	0.061611734
140	0x3ca6fb88	0.020383611
141	0xbcf30233	-0.029664135
142	0x3d23e03c	0.04000877
143	0x3d203c50	0.03912002
144	0xbd5b626f	-0.05356067
145	0xbc81186c	-0.015758716
146	0x3b2d9b87	0.0026490407
147	0x3cae117a	0.021248568
148	0x3d3f101d	0.046646226
149	0x3c4cef65	0.012508248
150	0x3cbca362	0.023027126
151	0xbd61d980	-0.055139065
152	0xbc8a3839	-0.016872512
153	0x3d16a197	0.036775198
154	0xbd52d362	-0.05147112
155	0x3c26e933	0.010187435
156	0x3c61d142	0.013782801
157	0xbc128e60	-0.008945078
158	0x3d433296	0.047655664
159	0x3d4cd641	0.050009016
160	0xbba84d50	-0.0051361695
161	0xbbda5a1d	-0.0066635744
162	0xbb5b871e	-0.0033497284
163	0xbc072cc7	-0.008250422
164	0xbd7a634d	-0.061129857
165	0xbaf3c129	-0.0018596995
166	0xbb245e72	-0.0025080708
167	0x3d667eee	0.056273393
168	0xbcba7a0e	-0.022763278
169	0xbd0eb54d	-0.03484087
170	0xbca88e16	-0.020575564
171	0x3d04bcea	0.032406725
172	0x3c9868ee	0.018604722
173	0x3b8d2fb3	0.0043086647
174	0x3d4534ee	0.04814618
175	0x3c7cca54	0.015429098
176	0xbc4c1ca7	-0.012458003
177	0x3ac43b54	0.0014971294
178	0x3cfbc3f7	0.030733092
179	0xbcc0a2e0	-0.023515165
180	0xbd65b20f	-0.056078013
181	0x3c1281a5	0.0089420425
182	0x3d7291cb	0.05922107
183	0xbc793bbf	-0.0152119985
184	0x3d470136	0.04858514
185	0xbcf49814	-0.029857673
186	0x3d5b630f	0.053561267
187	0xba473c52	-0.0007600236
188	0xbcf3c2d0	-0.02975598
189	0x3c4fd870	0.01268588
190	0xbd439de7	-0.04775801
191	0x3c7246d7	0.014787397
192	0xbcd47f17	-0.025939507
193	0xbca1d0a7	-0.019752814
194	0xbd68c3ad	-0.056827236
195	0x3d2aeaec	0.041727945
196	0x3b5a683f	0.0033326296
197	0xbd61ae66	-0.05509796
198	0x3bc7d495	0.00609834
199	0x3d4a27cd	0.049354363
200	0x3ca25067	0.01981373
201	0xba7c05b3	-0.00096138864
202	0xbcae5799	-0.021282004
203	0xbc83dfa5	-0.016097853
204	0x3d736edc	0.059431896
205	0x3d6a3269	0.05717698
206	0x3d60cea9	0.054884586
207	0x3b0785e3	0.0020679168
208	0x3ca2f6f0	0.01989314
209	0xbc945322	-0.018106047
210	0xbc3f1879	-0.01166355
211	0x3d7ee658	0.06223139
212	0x3d549d13	0.05190761
213	0x3d52f3bd	0.05150198
214	0x3bbb65dc	0.0057189297
215	0x3d05d80c	0.03267674
216	0xbb71d21f	-0.0036898924
217	0xbbbc9482	-0.005755008
218	0x3d484f76	0.048903905
219	0x3d0e04b0	0.03467244
220	0x3c047416	0.008084318
221	0x3cb4ed28	0.022085741
222	0x3cf23c28	0.0295697
223	0xbd418a0f	-0.047250804
224	0x3d713cdb	0.058895927
225	0x3d712945	0.05887725
226	0xb91dcb82	-0.000150485
227	0x3cd086b1	0.02545485
228	0xbd34f14c	-0.04417543
229	0x3cd1935f	0.025582967
230	0xbbba1682	-0.0056789527
231	0x3cbc0ee0	0.022956312
232	0xbce47c58	-0.027891323
233	0xbc766eb5	-0.015041043
234	0x3d205d48	0.03915146
235	0x3d335d3a	0.04379008
236	0x3d26c5da	0.04071603
237	0xbba753fa	-0.0051064463
238	0xbd166e25	-0.036726136
239	0xb71d9e39	-9.394768e-06
240	0x3ca86b01	0.020558836
241	0xbcf39b0b	-0.029737016
242	0x3d7ed47b	0.062214356
243	0x3c8adf64	0.016952224
244	0x3d72bb9c	0.05926095
245	0x3d4baac6	0.04972341
246	0xbc2fd493	-0.010731834
247	0xbd21f698	-0.03954181
248	0xbd2c2a15	-0.04203232
249	0x3c8e27e0	0.017352998
250	0xbbbd9dc7	-0.005786631
251	0x3c8eb462	0.017419998
252	0x3cc23a6f	0.023709504
253	0xbd0c2429	-0.034214173
254	0x3d3fc241	0.046816114
255	0xbce9af91	-0.0285261

out.weight f4 [4, 512]
0	0xbc6ddd63	-0.014518115
1	0xbc42e474	-0.011895288
2	0x3ca16e86	0.019706022
3	0x3d46e3d9	0.048557136
4	0x3c02c4a7	0.007981456
5	0xbca0144d	-0.01954093
6	0x3c478cef	0.012179597
7	0xbc75a58f	-0.0149930855
8	0x39f22766	0.0004618719
9	0xbd1b24f2	-0.03787703
10	0xbc97c5aa	-0.01852687
11	0x3d90255d	0.070383765
12	0x3cf32e47	0.029685153
13	0x3d9d2ed3	0.07674947
14	0x3ccf9d47	0.02534355
15	0x3d326aae	0.04355877
16	0xbcb15f1d	-0.021651799
17	0x3d0bd995	0.03414305
18	0xbc921de3	-0.017836517
19	0x3d41763a	0.04723189
20	0xbced67ef	-0.028980223
21	0x3cd64b99	0.026159095
22	0xbcf396c2	-0.029734973
23	0x3c53be0d	0.01292373
24	0x3d04b49f	0.032398816
25	0x3d07a692	0.03311784
26	0xbc8faacf	-0.017537503
27	0xbd3a469e	-0.045477502
28	0xbca8bfbd	-0.02059924
29	0x3cef307f	0.02919793
30	0xbd040381	-0.032229904
31	0x3bb5cc2c	0.005548021
32	0xbc7f70b1	-0.015590833
33	0x3bea8b15	0.007157693
34	0x3cf79508	0.03022243
35	0xbcbf461d	-0.023348862
36	0xbca531d5	-0.020165363
37	0x3c51b638	0.012799792
38	0xbd02ae31	-0.031904403
39	0x3c1e30e0	0.009655207
40	0x3c6667c0	0.014062822
41	0xbcc4a14c	-0.024002694
42	0x3b87266a	0.0041244524
43	0xbd02cf9a	-0.031936266
44	0xbcba3c0d	-0.022733713
45	0x3d377815	0.044792254
46	0xbcebc91b	-0.028782418
47	0xbb786e2a	-0.003790746
48	0x3cd7da40	0.026349187
49	0x3d480520	0.048833013
50	0xbd017d83	-0.031613838
51	0x3d0e7a82	0.0347848
52	0x3bcfd115	0.006342063
53	0x3affeeb4	0.0019526095
54	0xbd2663ad	-0.040622402
55	0x3d1cf461	0.038318995
56	0xbc681541	-0.014165224
57	0xbc068104	-0.008209471
58	0x3a7e99c0	0.00097122416
59	0xbd079213	-0.03309829
60	0xbb2516a6	-0.0025190501
61	0xbc06b59a	-0.008222008
62	0x3cf980d6	0.030456942
63	0xbd061b22	-0.03274072
64	0xbc1b649f	-0.009484439
65	0x3a8a0f02	0.0010533037
66	0xbc3a75fd	-0.01138067
67	0xbd0fab0d	-0.035075236
68	0x3d6eb94a	0.058282174
69	0xbd04ed2c	-0.032452747
70	0x3c33282e	0.010934873
71	0x3d075f91	0.033050124
72	0x3c070441	0.00824076
73	0xbcd28f1d	-0.025703007
74	0xbd0188db	-0.031624656
75	0x3c45f40d	0.012082112
76	0x3cfc8f5b	0.030830076
77	0x3cbfd441	0.02341664
78	0x3c028ba7	0.007967866
79	0xbc9cb755	-0.019130388
80	0xbd1194ce	-0.0355423
81	0x3c9b9e8d	0.018996501
82	0xbcf83f42	-0.030303601
83	0x3b87110c	0.004121905
84	0x3cf10e8b	0.02942588
85	0x3c92721f	0.017876683
86	0x3cf192b1	0.029488893
87	0x3d9dd3d4	0.07706419
88	0xbb9a6338	-0.004711535
89	0x3ca215b5	0.019785741
90	0x3c3f9599	0.011693382
91	0x3c26c4b0	0.01017873
92	0xbc29048c	-0.0103160255
93	0xbbb537b1	-0.0055303206
94	0x3c4b718a	0.012417207
95	0xbafeb224	-0.0019431752
96	0xbc35fe4e	-0.011107994
97	0x3c94e30d	0.018174672
98	0x3d2b7678	0.041861027
99	0x3d286324	0.041110173
100	0xbac804f1	-0.0015260262
101	0x3cd49be0	0.025953233
102	0x3d0abd21	0.033871774
103	0x3c222fb2	0.009899067
104	0xbc77394c	-0.015089344
105	0x3ccd02d7	0.025025768
106	0xbcc3c36a	-0.023896892
107	0xbac6fd60	-0.0015181713
108	0x3c1ea9e6	0.009684062
109	0xbc2ab202	-0.010418417
110	0x3cc56fcf	0.024101166
111	0x3c0016b1	0.00781791
112	0x3d115f6d	0.035491396
113	0xbcac05f3	-0.02099893
114	0x3d2e3441	0.042530302
115	0xbcd9b7cd	-0.0265769
116	0x3d432dea	0.04765121
117	0x3cd7eced	0.026358092
118	0x3bbc1751	0.005740084
119	0xbc51ce25	-0.012805496
120	0x3c9d75ad	0.019221151
121	0x3c896655	0.016772429
122	0xbc5de3b7	-0.013543061
123	0x3d8e1d0f	0.06939136
124	0xbc51eea8	-0.012813248
125	0x3d3cd705	0.046103496
126	0xbcb620f8	-0.022232518
127	0x3bed9f6a	0.0072516697
128	0xbbd4a85c	-0.0064897966
129	0xbc5ecce4	-0.013598654
130	0x3d06582a	0.032798924
131	0x3d8dab22	0.069174066
132	0xbcb565c9	-0.022143262
133	0x3aa93a7c	0.0012911106
134	0xbc8c61ba	-0.017136443
135	0xbd27e00f	-0.040985163
136	0x3c76e17e	0.01506841
137	0x3cfa324f	0.030541567
138	0xbc919097	-0.017769141
139	0xbb2a2547	-0.002596216
140	0x3c804ca9	0.015661554
141	0xbcc77edb	-0.024352482
142	0xbc8ab807	-0.016933454
143	0x3c350072	0.011047469
144	0xbcf4cefd	-0.029883856
145	0xbc6038e3	-0.013685438
146	0x3d1aa86d	0.03775828
147	0xbbe143d1	-0.0068745394
148	0x3c05fc7f	0.008177876
149	0x3baff373	0.0053695976
150	0x3d1f8b18	0.03895101
151	0x3da046cd	0.07826004
152	0xbd1b1a1e	-0.037866704
153	0xbcfe1fef	-0.031021086
154	0x3c981206	0.018563282
155	0x3cb4f924	0.022091456
156	0x3b3825f1	0.0028098787
157	0x3c0d5fa8	0.008628763
158	0xbc9ddeec	-0.019271336
159	0xbba4f50b	-0.005034094
160	0xbcca7771	-0.024715157
161	0xbd20bf51	-0.039244954
162	0xba5151e0	-0.00079849176
163	0xbcffdb12	-0.03123239
164	0x3c0cd169	0.008594849
165	0xbb0cd5fe	-0.0021489854
166	0x3c2606fa	0.010133499
167	0x3caa3586	0.020777475
168	0xbd143cde	-0.03619086
169	0x3d1e0ceb	0.03858654
170	0x3ce5163a	0.0279647
171	0xbc1fffa9	-0.009765544
172	0x3d89bcb4	0.067254454
173	0xbd088ffd	-0.033340443
174	0x3bb778c7	0.0055991146
175	0xbc43abfd	-0.011942861
176	0xbc724408	-0.014786728
177	0x3ced6c27	0.028982235
178	0x3d0c113c	0.034196123
179	0xbd1e39bb	-0.038629275
180	0x3baa15bb	0.0051905788
181	0xbca3aae9	-0.019978957
182	0xbb0a109f	-0.0021067036
183	0x3c2c37ef	0.0105113825
184	0x3c70073f	0.014650165
185	0x3d12b880	0.035820484
186	0x3d2cf71b	0.042227846
187	0xbd3643fd	-0.044498432
188	0x3d7eaf63	0.06217898
189	0xbb912021	-0.004428879
190	0xbd6e2e41	-0.05814958
191	0x3c712b7f	0.014719843
192	0xb9df8438	-0.00042632385
193	0x3ca542d4	0.020173468
194	0xbd22b924	-0.039727345
195	0xbc570cd4	-0.013125617
196	0x3c5e8619	0.013581776
197	0xbd00a82f	-0.031410392
198	0x3d329160	0.04359567
199	0xbb5c1cb5	-0.0033586447
200	0x3c919fc5	0.01777638
201	0x3cea233f	0.02858126
202	0x3d605ac6	0.05477407
203	0x3d924ca0	0.07143521
204	0x3c31a14a	0.010841677
205	0x3cf6419f	0.030060587
206	0x3cd8bb5a	0.026456524
207	0x3cf03f79	0.029327141
208	0x3b8e452d	0.0043417425
209	0x3ce1e055	0.02757279
210	0x3da4f864	0.08055189
211	0x3b8e8a2f	0.004349969
212	0x3c0a5800	0.008443832
213	0x3d0518d5	0.032494385
214	0xbbb6916e	-0.005571536
215	0xbbe20eb2	-0.0068987245
216	0x3d58852d	0.05286138
217	0xbc8c28e3	-0.01710934
218	0x3d220980	0.03955984
219	0x3d2be2a2	0.04196418
220	0x3cc4f26c	0.024041377
221	0x3ce01d9a	0.027357865
222	0x3b865c79	0.004100379
223	0x3cd2d98e	0.025738504
224	0x3d84f937	0.064928465
225	0xbcbf3f45	-0.023345599
226	0xbc3f9634	-0.011693526
227	0xba09e418	-0.0005260124
228	0x3d81f25f	0.06345057
229	0x3cc8772c	0.024470888
230	0xbcc3e35e	-0.023912128
231	0xbce91f1f	-0.028457223
232	0xbb77a58b	-0.003778788
233	0x3d0bc126	0.034119748
234	0x3aaaee39	0.0013040967
235	0xbce2f63d	-0.027705306
236	0x3ce6ec89	0.02818896
237	0x3d46636a	0.048434652
238	0x3ca22f40	0.019797921
239	0xbc2f266a	-0.010690311
240	0xb9f8055c	-0.0004730624
241	0xbc8af3a5	-0.016961882
242	0xbd267f4e	-0.04064875
243	0xbcb033ae	-0.021509018
244	0xbcc49824	-0.023998328
245	0xbc75b73d	-0.014997301
246	0xbc870cac	-0.016485535
247	0xbc70797a	-0.0146774
248	0x3cc87da3	0.02447397
249	0x3d153b2a	0.036433376
250	0xbaacac02	-0.0013173821
251	0x3c86c7b0	0.01645264
252	0x3da61223	0.08108928
253	0x3bef72d2	0.007307389
254	0x3cfd1c1e	0.030897196
255	0x3cfd29ed	0.03090378

out.bias f4 [4]
0	0xbbaa6d22	-0.005200998
1	0xbcd5d788	-0.02610375
2	0xbc92a3b9	-0.017900335
3	0xbd7d67f8	-0.06186673
